vision_models/ball_detector (1).onnx (onnx, 68659 bytes, 46 tensors)

classification_decoder.linear.weight f4 [3, 12]
0	0xbe91b53c	-0.28458583
1	0xbf0eccd7	-0.5578131
2	0x3e97d385	0.29653564
3	0x3c0ad076	0.0084725525
4	0xbd7ee706	-0.06223204
5	0xbfa12ba4	-1.2591443
6	0x3da8e03d	0.08245895
7	0x3e1fbea0	0.15600061
8	0xbf7461b4	-0.95461583
9	0xbcefd621	-0.02927691
10	0xbed0bf5d	-0.40771
11	0xbeb0fe0a	-0.34568816
12	0xbf950ee0	-1.1645164
13	0x3f946808	1.1594248
14	0xbeb90380	-0.36135483
15	0xbf7de37e	-0.9917525
16	0x3f53fd0f	0.8280801
17	0x3f20d7f7	0.62829536
18	0xbf4f66c0	-0.8101616
19	0x3e044c67	0.1291977
20	0xbe083f1f	-0.13305329
21	0x3e654299	0.22388686
22	0x3f8611cf	1.0474185
23	0x3f762140	0.96144485
24	0x3f8eb7e5	1.114987
25	0xbe2a3db5	-0.16625102
26	0x3c9b0a01	0.018925669
27	0x3d9b7b10	0.07591832
28	0xbcf2be30	-0.029631704
29	0x3f507b8f	0.81438535
30	0x3ec9c477	0.39407703
31	0xbe67baee	-0.22629902
32	0x3f13b946	0.5770458
33	0xbf068508	-0.5254674
34	0x3d3084b6	0.043095313
35	0xbe592c9a	-0.2120842

classification_decoder.linear.bias f4 [3]
0	0xbe2ee769	-0.17080463
1	0x3db64a8f	0.0890094
2	0x3c02ad79	0.007975929

classification_decoder.conv2.weight f4 [3, 8, 1, 1]
0	0x3f757030	0.9587431
1	0x3f6ed004	0.93286157
2	0x3e5ef5ca	0.21773449
3	0xbf40b08a	-0.7526938
4	0xbf42a053	-0.76025885
5	0xbeaaa0b3	-0.3332573
6	0x3ef2a919	0.47394636
7	0x3e8041fd	0.25050345
8	0x3e37c81f	0.17947434
9	0xbebe2f0c	-0.3714527
10	0x3f163aaa	0.58683264
11	0xbf928767	-1.1447572
12	0xbe45ccf7	-0.19316469
13	0x3f1e6da8	0.6188607
14	0x3eda93bb	0.42690834
15	0x3ec9b5b8	0.39396453
16	0x3f1ec64c	0.62021327
17	0xbd93c1db	-0.07214709
18	0xbe6a87ff	-0.22903441
19	0xbe9838d6	-0.29730862
20	0x3f0f5b23	0.5599844
21	0xbf489d7e	-0.78365314
22	0xbed392e0	-0.41322994
23	0xbf20d5d9	-0.62826306

regression_decoder.linear.weight f4 [3, 12]
0	0xbe69417a	-0.22778884
1	0x3f750c84	0.9572222
2	0xbea539ab	-0.3227056
3	0xbcaee0e2	-0.021347467
4	0xbea6b125	-0.32557026
5	0x3f9112a8	1.1333818
6	0x3f29811c	0.6621263
7	0x3e7a5ab7	0.24448667
8	0xbeebb10e	-0.4603352
9	0x3f53d431	0.82745653
10	0x3eadaa24	0.3391887
11	0x3edcda72	0.4313541
12	0x3f60b975	0.87782985
13	0x3e870304	0.26369488
14	0x3f492630	0.78573895
15	0xbf23b0f9	-0.63941914
16	0x3f2f882f	0.68567175
17	0x3edd1d24	0.43186295
18	0x3e8eee08	0.27915978
19	0x3dbc7533	0.092020415
20	0xbf48118c	-0.78151774
21	0x3e692af7	0.22770296
22	0xbf112eca	-0.5671202
23	0x3f261e9f	0.64890474
24	0x3ebb283d	0.36554137
25	0x3e167c64	0.14695889
26	0x3cfb59a4	0.030682392
27	0x3ee2a286	0.4426462
28	0x3f1b2c56	0.60614526
29	0x3db03aca	0.08604963
30	0x3e353ef2	0.17699793
31	0x3eeaf63f	0.45890996
32	0xbe4945c0	-0.19655514
33	0x3e6c323c	0.23066038
34	0x3e40b827	0.18820249
35	0x3ed7b595	0.42130724

regression_decoder.linear.bias f4 [3]
0	0x3ed19f89	0.40942028
1	0x3f19f8e3	0.60145396
2	0x3f570e6e	0.8400639

regression_decoder.conv2.weight f4 [3, 8, 1, 1]
0	0x3edb01e5	0.42774883
1	0x3eec4c5b	0.46152005
2	0x3f2cf3c9	0.67559487
3	0x3edeff54	0.43554175
4	0x3f56d36e	0.83916366
5	0x3f0d5a9a	0.5521637
6	0x3f549419	0.8303848
7	0xbf711131	-0.94166857
8	0x3f1ace82	0.60471356
9	0x3f6a96aa	0.91636145
10	0x3f47ae7d	0.78000623
11	0xbdc7fafb	-0.097646676
12	0x3f449ef3	0.7680504
13	0x3ee33202	0.4437409
14	0x3ec22b89	0.3792384
15	0xbe738e9f	-0.23784874
16	0x3f279156	0.6545614
17	0x3efc0344	0.4922124
18	0x3f1d2b22	0.6139394
19	0xbf4b108e	-0.79322135
20	0x3edbb275	0.4290959
21	0xbf40f9d8	-0.7538123
22	0xbeb215bf	-0.34782216
23	0x3f3098bf	0.6898307

onnx::Conv_218 f4 [8, 1, 1, 1]
0	0xbff19734	-1.8874269
1	0xc042c13b	-3.0430439
2	0x40a15258	5.0413017
3	0xbf76f338	-0.9646487
4	0xc03e8d14	-2.9773607
5	0xc06a9972	-3.6656156
6	0xbf362fc5	-0.7116664
7	0x3fb31657	1.3991193

onnx::Conv_219 f4 [8]
0	0x3fd34091	1.6504079
1	0x4009eef3	2.1552093
2	0xc03988fa	-2.8989854
3	0x3f8ac222	1.0840495
4	0x3ff42d64	1.9076352
5	0x3fefde15	1.8739649
6	0x3f0924c8	0.5357175
7	0xbd8d8a80	-0.069111824

onnx::Conv_221 f4 [8, 1, 3, 3]
0	0x3e4c9a79	0.19980802
1	0xbcdd2f86	-0.0270002
2	0x3e1a6169	0.15076222
3	0x3ee0f7c4	0.4393903
4	0x3ea88b67	0.32918856
5	0x3edf0510	0.4355855
6	0x3d945825	0.07243375
7	0x3e548d08	0.20756924
8	0x3e562b6a	0.20914999
9	0xbe27a440	-0.1637125
10	0xbdb77415	-0.08957688
11	0xbd860bca	-0.06545217
12	0xbed57da7	-0.41697428
13	0xbf12f161	-0.57399565
14	0xbe40016e	-0.18750545
15	0xbe99fd1d	-0.30075923
16	0xbedb3b49	-0.42818668
17	0xbe8863c6	-0.2663862
18	0x3d5645a5	0.052312512
19	0x3e74dd6a	0.23912588
20	0x3e5b3c56	0.21409735
21	0x3e4d3d4c	0.20042914
22	0x3eeaec8d	0.458836
23	0x3ea5693c	0.3230685
24	0x3e2e61a9	0.17029442
25	0x3e986ebf	0.29771993
26	0x3dd344fe	0.103158936
27	0xbf18f2c9	-0.5974546
28	0xbe964755	-0.29351297
29	0x3dc6e950	0.097124696
30	0xbe93024d	-0.28712693
31	0x3ec2db29	0.3805783
32	0x3ed96039	0.42456225
33	0x3f9f1401	1.242798
34	0x400fe2be	2.2482142
35	0x3fc30d4f	1.5238436
36	0xbefe44e9	-0.4966195
37	0xbfb9312c	-1.4468131
38	0x3c5f1695	0.013616224
39	0x3f4b5b13	0.79435843
40	0xbd96b3a3	-0.07358482
41	0xbf9c2cfe	-1.220123
42	0x3f7e3977	0.99306434
43	0x3f349cdc	0.7055185
44	0xbf32cc20	-0.6984272
45	0x3e2ae0ba	0.16687289
46	0x3e6fbb9a	0.23411408
47	0x3df3151a	0.11869259
48	0x3f1ed7ff	0.62048334
49	0x3f298bf5	0.6622918
50	0x3e8a47c2	0.27007872
51	0x3de400fa	0.11132999
52	0x3ca0d874	0.019634463
53	0xbe509498	-0.20369184
54	0x3fc09864	1.5046506
55	0x4103a30a	8.227304
56	0x40fedbcc	7.9643307
57	0xc05abfc9	-3.4179556
58	0xbf606df0	-0.8766775
59	0x3fb98ee1	1.4496728
60	0xc09af956	-4.8429365
61	0xc0b7a7ae	-5.7392187
62	0xc0aa0c75	-5.3140206
63	0xbe6d4123	-0.23169379
64	0xbf0dbe0e	-0.55368125
65	0xbecb6102	-0.3972245
66	0xbeebb1d6	-0.46034116
67	0xbf95dffd	-1.1708981
68	0xbf77ec4d	-0.9684494
69	0xbd8e03ff	-0.06934356
70	0xbf0417f2	-0.5159904
71	0xbf05f2e4	-0.52323747

onnx::Conv_222 f4 [8]
0	0xbf5a4824	-0.8526633
1	0x3f9228da	1.1418717
2	0x3fcd194f	1.6023349
3	0xbfde2977	-1.7356404
4	0xbec9e677	-0.39433643
5	0xbe946ba2	-0.28988367
6	0xbe1cd902	-0.15317157
7	0x4013441b	2.3010318

onnx::Conv_224 f4 [16, 8, 1, 1]
0	0x3e1e6db1	0.15471531
1	0xbe22a220	-0.15882158
2	0xbe1d7449	-0.1537639
3	0x3daaec9c	0.08345911
4	0xbd27839a	-0.04089699
5	0x3d0ff429	0.03514496
6	0xbaca83de	-0.0015450676
7	0x3be73e77	0.007057007
8	0xbb633865	-0.0034671065
9	0x3e0b11a3	0.13580947
10	0xbf0a7583	-0.5408556
11	0x3cd399fb	0.02583026
12	0x3d35fe82	0.04443217
13	0x3ccfd129	0.02536829
14	0xbd8349a8	-0.06410533
15	0x3cd61a8f	0.026135711
16	0xbe058f4a	-0.13042942
17	0x3e538f8a	0.20660225
18	0xbe3f53c7	-0.18684302
19	0xbebe02db	-0.37111554
20	0x3de14cdc	0.11000988
21	0xbe95c1d5	-0.29249445
22	0xbe706feb	-0.23480193
23	0xbe483ca9	-0.1955439
24	0xbc4227bd	-0.011850295
25	0x3e93e09c	0.288823
26	0x3ebf30f7	0.37342045
27	0xbd4d72bf	-0.05015826
28	0x3e4fe342	0.20301536
29	0xbe68a1ca	-0.22717968
30	0xbd67bb35	-0.05657502
31	0xbe493e77	-0.19652735
32	0x3dd0ea9a	0.10200997
33	0xbf6800fc	-0.906265
34	0x3e92f40e	0.28701824
35	0xbe9c3b33	-0.30513915
36	0x40308e95	2.7587025
37	0x3fd2ca89	1.6468059
38	0x3ff938da	1.9470475
39	0xbe151764	-0.14559704
40	0xbe62745f	-0.22114705
41	0x3e8a58b3	0.27020797
42	0xbde7aa25	-0.11311749
43	0xbec03580	-0.37540817
44	0x3db825db	0.08991595
45	0xbdb5ed54	-0.08883157
46	0xbd9fab7d	-0.07796381
47	0xbe72d35d	-0.23713441
48	0xbc456747	-0.012048549
49	0xbc0150cb	-0.007892798
50	0x3d4514a4	0.048115388
51	0xbc12df3b	-0.008964355
52	0x3bd0cc2c	0.0063719954
53	0x3c29af20	0.010356694
54	0x3c7a7bf8	0.0152883455
55	0xbd5a5ed6	-0.0533131
56	0x3e28d596	0.16487727
57	0xbec23cf2	-0.37937123
58	0x3d25229f	0.04031622
59	0x3e21c0e5	0.1579624
60	0xbeb12cf8	-0.3460462
61	0x3db664c5	0.08905939
62	0x3d42aa0b	0.047525447
63	0x3ec85227	0.39125177
64	0xbe672507	-0.22572719
65	0x3d6c19b0	0.057641685
66	0x3cab3343	0.020898467
67	0xbdb4aa92	-0.08821596
68	0xbccae48c	-0.024767183
69	0xbe2fbb4c	-0.17161292
70	0xbd6c43c9	-0.057681832
71	0xbd453672	-0.048147626
72	0xbdbdf626	-0.09275465
73	0x3c79a6dd	0.015237537
74	0x3cf99496	0.03046636
75	0xbd2c3da5	-0.042050976
76	0xbd13d5ee	-0.03609269
77	0xbd683552	-0.056691475
78	0xbd39102f	-0.04518145
79	0xbdf4ad99	-0.119471736
80	0xbde9a01a	-0.1140749
81	0x3e49ee53	0.1971982
82	0x3ec6b9ba	0.38813573
83	0x3e0fd304	0.1404534
84	0xbea4492f	-0.32087085
85	0x397b9bf5	0.00023995324
86	0xbda15d6a	-0.078791454
87	0xbec022ef	-0.37526652
88	0xbdcc0c18	-0.09963244
89	0x3cfcb679	0.030848728
90	0x3d2caf76	0.04215952
91	0xbd91d978	-0.07121557
92	0xbd208a2a	-0.039194264
93	0xbcfa03fa	-0.030519474
94	0xbd30e651	-0.043188397
95	0xbe5350d4	-0.20636302
96	0xbdfa6cbd	-0.122277714
97	0x3df59a00	0.11992264
98	0x3e3cdcd2	0.18443611
99	0xbeb563a6	-0.35427588
100	0xbe3cb1c1	-0.18427183
101	0xbcb28208	-0.02179052
102	0xbdd69135	-0.10476915
103	0xbf02ae47	-0.51047176
104	0xbe51ceec	-0.2048909
105	0xbda64243	-0.08118107
106	0x3eb81d0d	0.35959664
107	0x3dc186a7	0.09449511
108	0x3e717059	0.23578013
109	0x3e2a0ea5	0.16607149
110	0x3ced3c1a	0.028959323
111	0xbeb8310f	-0.3597493
112	0x3dd92231	0.106022246
113	0xbe0652ce	-0.13117525
114	0xbd691e5a	-0.05691371
115	0x3da3cb40	0.07997751
116	0xbd286aa4	-0.041117325
117	0x3c2f3201	0.010693074
118	0x3de539c9	0.11192662
119	0x3e44b167	0.19208299
120	0xbb0665d9	-0.0020507483
121	0x3ce67541	0.028132083
122	0xbe924d61	-0.2857466
123	0x3b4ac3b1	0.0030939395
124	0xbe0c6d10	-0.13713479
125	0xbcac2b69	-0.021016793
126	0xbd80b944	-0.062853366
127	0x3d34f223	0.044176232

onnx::Conv_225 f4 [16]
0	0x3f35ff64	0.7109282
1	0x3f601a86	0.8754047
2	0x3f37a31a	0.7173325
3	0xbf121823	-0.5706808
4	0x3ee3e310	0.44509172
5	0x3eda0f75	0.42589918
6	0xbe04f86a	-0.12985387
7	0x3e8f5698	0.27995753
8	0xbcbac166	-0.022797298
9	0x3dc82256	0.09772174
10	0xbec59ecb	-0.38597712
11	0x3e23fb61	0.16013862
12	0x3e07dabd	0.13267036
13	0xbe774821	-0.24148609
14	0x3ed570c6	0.41687602
15	0x3f100472	0.56256783

onnx::Conv_227 f4 [16, 1, 3, 3]
0	0xbf3a87db	-0.7286355
1	0xbf692c4f	-0.91083235
2	0x3f96cda2	1.1781504
3	0x3f8b10c7	1.0864495
4	0xc032f0eb	-2.7959545
5	0x3ebd0202	0.36915594
6	0x3fe944ca	1.8224118
7	0xbf6c7392	-0.92363846
8	0xbfb61359	-1.4224654
9	0x4037992e	2.8687243
10	0x3fa6adbe	1.3021772
11	0xbf935f8b	-1.1513532
12	0x3ffcc8c0	1.9748764
13	0xbf913b27	-1.1346177
14	0xc014a589	-2.3226035
15	0xbf6b8c8e	-0.92011344
16	0xc0532770	-3.299282
17	0x3e15cec1	0.14629652
18	0x3ebdeb81	0.37093738
19	0x3ff56a31	1.9173032
20	0x3fcd672c	1.604711
21	0xbe568ce6	-0.20952186
22	0xbee60eec	-0.4493326
23	0xbe6e773a	-0.23287669
24	0xbf26d4e2	-0.65168583
25	0xbffa4da1	-1.955494
26	0xbfd311c6	-1.6489799
27	0x3f51253a	0.8169743
28	0x3fd0abd4	1.6302438
29	0x3fb4a28f	1.4112109
30	0x3f8dd1f5	1.1079699
31	0xbf129038	-0.5725131
32	0xbfd86011	-1.6904317
33	0xbebcf76f	-0.36907527
34	0xbfa97e9c	-1.3241763
35	0xbfda10de	-1.7036397
36	0xbcbdd806	-0.023174297
37	0x3db54bc7	0.08852344
38	0x3df1dc90	0.11809647
39	0x3da7d4c4	0.08194879
40	0x3e75e32d	0.24012442
41	0x3e3343af	0.17506288
42	0x3de4c5a0	0.111705065
43	0x3e1067d9	0.14102115
44	0x3d562ddb	0.052289825
45	0x3fa711fe	1.3052366
46	0x405079e2	3.2574391
47	0x40141a59	2.3141081
48	0x3e6064ed	0.219135
49	0x3f8c1114	1.0942712
50	0x3f81dadf	1.0144919
51	0xbfa4851c	-1.2853122
52	0xc03ef56e	-2.9837298
53	0xc060c919	-3.512274
54	0xc0bbb810	-5.8662186
55	0x40bc6e20	5.888443
56	0x3fd987c0	1.6994553
57	0x40cd15fb	6.408933
58	0x41ae0cd2	21.75626
59	0x418b1989	17.387468
60	0xc0bfcb66	-5.993579
61	0xc106c79c	-8.423733
62	0xc0eff3f5	-7.49853
63	0xbf036eae	-0.5134076
64	0xbe3cff9d	-0.18456884
65	0x3f19f3cb	0.60137624
66	0xbe125aae	-0.14292404
67	0xbf6f64dc	-0.93513274
68	0xbeece831	-0.46270898
69	0x3f0b044f	0.5430345
70	0x3d992433	0.074776076
71	0xbf33c90f	-0.70228666
72	0x40350d4a	2.828936
73	0xbf95b24a	-1.1695035
74	0x3f39b083	0.7253496
75	0x40806503	4.0123305
76	0xc0b87deb	-5.765371
77	0xbee23bea	-0.44186336
78	0x40546f42	3.3192906
79	0xc08c015e	-4.375167
80	0x3f9a0d22	1.2035258
81	0xc0cf96b9	-6.487149
82	0x4138f126	11.558874
83	0x3f052baa	0.5201975
84	0x408e65ca	4.4499254
85	0x41397266	11.590429
86	0xc122ffaa	-10.187418
87	0x40a6ae5d	5.2087846
88	0x3f9c94fb	1.2232965
89	0xc10b1a9d	-8.693997
90	0x3d0a5493	0.033772063
91	0x3e6b581b	0.22982828
92	0x3e03f5f3	0.12886791
93	0x3d6ef242	0.058336504
94	0x3edc0fb1	0.42980722
95	0x3ea8400d	0.32861367
96	0x3d4ebc42	0.050472505
97	0x3e863ecd	0.26219788
98	0x3ee59de8	0.44847035
99	0xc04945b3	-3.144879
100	0xc07e6faa	-3.9755654
101	0x402d4919	2.7075865
102	0xbf118a6d	-0.56851846
103	0x4087c175	4.2423654
104	0x402f0ae8	2.7350407
105	0x3f4da4d9	0.8032966
106	0x4023e988	2.5611286
107	0xbffaa3ce	-1.9581239
108	0xbdebb0ed	-0.11508355
109	0xbdc0e531	-0.09418715
110	0x3dc7bb1f	0.097524874
111	0xbdb7003f	-0.08935594
112	0xbec44fd8	-0.38342166
113	0xbecfb4c2	-0.40567595
114	0x3dab266e	0.08356939
115	0x3cc1d3d0	0.02366057
116	0xbdeaa156	-0.11456554
117	0x3f740fec	0.95336795
118	0xbff59a57	-1.9187726
119	0xbf89ec59	-1.0775253
120	0x402d5ee1	2.708916
121	0x3ef022e9	0.46901634
122	0xc06569f8	-3.5845928
123	0x3fd9cb24	1.7015119
124	0x402c8fe0	2.6962814
125	0xbfea7bd3	-1.8319038
126	0x3f0e7efa	0.556625
127	0x3f6007f8	0.8751216
128	0xc05ef9dc	-3.4840002
129	0x3f819844	1.0124593
130	0x3fbdf867	1.4841431
131	0xc05ccb95	-3.4499257
132	0x3e2efdea	0.17089048
133	0x40055e0c	2.0838652
134	0xc01e9bad	-2.4782517
135	0xbea724d5	-0.32645288
136	0x3fda81fc	1.7070918
137	0x400ab62b	2.1673687
138	0x3f832785	1.0246435
139	0x3f0eca9e	0.5577792
140	0xbfcbf75b	-1.5934862
141	0x3fe7aa18	1.8098783
142	0xbf88e7f6	-1.0695789
143	0xc0b0c3a2	-5.523881

onnx::Conv_228 f4 [16]
0	0x3f14d802	0.581421
1	0x3f1aed8d	0.60518724
2	0x3f2632a2	0.6492101
3	0xbe1f6604	-0.1556626
4	0x3f12d5b1	0.5735732
5	0xbdba04ee	-0.090829715
6	0x3fcd910c	1.605989
7	0x3f5ef733	0.87095946
8	0x3e890c40	0.26767159
9	0x3be3dcc0	0.0069538057
10	0x3e536104	0.20642477
11	0x3e81e6fb	0.25371537
12	0x3ef1c15a	0.47217828
13	0x3f029e27	0.5102257
14	0x3f8c2c6e	1.0951059
15	0x3f187d8c	0.5956657

onnx::Conv_230 f4 [16, 1, 3, 3]
0	0xbee11ecf	-0.43968818
1	0x3e61af0b	0.2203943
2	0xbfb299f5	-1.3953234
3	0xc031d9f7	-2.7789285
4	0x401b663c	2.428115
5	0xbf6d9e9f	-0.9282016
6	0xbe11f766	-0.14254531
7	0xbe7d33ce	-0.24726793
8	0xbed40ab9	-0.4141443
9	0xbf3e4c43	-0.74335116
10	0xbf5ca80f	-0.8619394
11	0x3e0b239b	0.13587801
12	0xbdb6536f	-0.089026324
13	0xbea6a758	-0.32549548
14	0x3f849a24	1.035954
15	0xbcfbfdde	-0.030760702
16	0x3e7d1fe0	0.2471919
17	0xbc5218ad	-0.012823266
18	0xbe52a5f4	-0.20571119
19	0x3ed51ad7	0.4162204
20	0x3e249f67	0.16076432
21	0xbeab01a6	-0.33399695
22	0x3f9138b0	1.1345425
23	0xbf06b51e	-0.5262011
24	0xbf5480d1	-0.8300906
25	0xbfc5c074	-1.5449357
26	0xbf1733d8	-0.5906348
27	0x3ec9408a	0.39307052
28	0x3e863c19	0.26217726
29	0xbf38d629	-0.7220178
30	0x3e662bab	0.22477596
31	0xbed83590	-0.42228365
32	0x3eb2d0ff	0.34925076
33	0x3ee20866	0.44147032
34	0x3e9027ab	0.28155264
35	0xbe84cac0	-0.25935936
36	0x3d231e01	0.039823536
37	0x3dcaa78b	0.098952375
38	0xbc896002	-0.016769413
39	0x3e3b3e2f	0.1828544
40	0xbeb2968d	-0.34880486
41	0x3e8ed0fa	0.2789381
42	0x3be180c4	0.006881805
43	0x3e823216	0.25428838
44	0x3e25626f	0.1615083
45	0xbc73ca55	-0.014879783
46	0xbe843ac7	-0.25826094
47	0x3e161365	0.14655836
48	0x3ea29501	0.31754306
49	0xbf07afda	-0.53002703
50	0x3ecf1cad	0.40451565
51	0x3e89cfce	0.26916355
52	0x3fe3c906	1.7795722
53	0xbe1da9fe	-0.15396878
54	0xbe85558b	-0.26041827
55	0xbf566dd6	-0.83761346
56	0xbe981c4f	-0.29709098
57	0xbe5d31c5	-0.21601017
58	0x3e26541e	0.16243026
59	0xbe58d0f5	-0.21173461
60	0xbd0f0e05	-0.03492548
61	0x3d30be51	0.04315025
62	0xbd7c1abf	-0.061548945
63	0xbeb9773f	-0.3622379
64	0x3fddf4ff	1.7340392
65	0x3fdb3aa6	1.7127273
66	0x3dda0d8f	0.10647117
67	0xc084841e	-4.1411276
68	0x3e053b7e	0.13010976
69	0x3fa68710	1.3009968
70	0xbdff4a6f	-0.12465369
71	0x3e4f0698	0.20217359
72	0xbed3259c	-0.4123963
73	0xbdf69bf0	-0.120414615
74	0xbdbe1cf5	-0.09282867
75	0xbf115298	-0.56766653
76	0x3f7a1e93	0.977029
77	0xbfd67c98	-1.6756773
78	0xbe0eab5a	-0.13932553
79	0xbe3b5043	-0.18292336
80	0xbd6052fb	-0.054766636
81	0x3cfc2409	0.030778902
82	0xbd676629	-0.056493912
83	0xbe7826d3	-0.2423356
84	0xbd034fbf	-0.032058474
85	0xbfb0c624	-1.3810468
86	0x3fa62599	1.2980224
87	0x3e3fc20e	0.1872637
88	0x3ea9b3a3	0.33144864
89	0xbe007295	-0.1254371
90	0x3e313fab	0.17309444
91	0xbefcf489	-0.49405316
92	0xbf24bf55	-0.6435445
93	0xbec1b23f	-0.37831303
94	0x3f143fd9	0.57909924
95	0x3eed9eaf	0.46410128
96	0xbf82d388	-1.0220804
97	0x3dc12872	0.094315425
98	0x3f9026e4	1.1261868
99	0xbeb7fe61	-0.35936263
100	0x3f3deb20	0.741869
101	0x3dbf260a	0.09333427
102	0x3f168e7e	0.58811176
103	0xbfa54571	-1.2911817
104	0x3fddf1da	1.7339432
105	0x3eee3f9c	0.46532905
106	0x3d2cdcd1	0.042202774
107	0xbfc96646	-1.5734336
108	0xbf89668f	-1.0734423
109	0xbfefbcc6	-1.8729484
110	0xbf4859c5	-0.7826198
111	0x3e5f5587	0.2180997
112	0xbf477307	-0.7790989
113	0x3efb6373	0.4909931
114	0x40513254	3.2686968
115	0x4021766c	2.522853
116	0xbf8dd82f	-1.1081599
117	0xbe0af15a	-0.13568631
118	0x3ea7aed8	0.32750583
119	0x3e46e657	0.19423805
120	0x3d9ffec4	0.078122646
121	0xbf22d0c0	-0.6359978
122	0x3e86943d	0.26284972
123	0xbee33a84	-0.4438058
124	0xbe3b4bfd	-0.18290706
125	0xbe060a57	-0.13089882
126	0xbdb80700	-0.0898571
127	0xbec6731c	-0.38759696
128	0x3eea4a0f	0.45759627
129	0x3f8499a5	1.0359389
130	0xc0227262	-2.5382314
131	0x3fc0ec65	1.5072142
132	0xbd94825e	-0.07251428
133	0x3e2dc414	0.16969329
134	0xbdf49345	-0.11942152
135	0xbeadb4f4	-0.3392712
136	0xbef40d35	-0.47666326
137	0xbf0c43c7	-0.5479092
138	0xbf4b18e0	-0.7933483
139	0xbe8f7ee0	-0.28026485
140	0x3e36bac5	0.17844684
141	0xbf49b866	-0.78796995
142	0x3fb62cd4	1.423243
143	0x3e9891d8	0.2979877

onnx::Conv_231 f4 [16]
0	0x3e1d4da0	0.15361643
1	0x3f596b32	0.8492919
2	0x3f3a9f57	0.72899383
3	0xbf27b68f	-0.6551294
4	0xbe910f77	-0.2833211
5	0xbd86af58	-0.06576413
6	0x3fcff88e	1.6247728
7	0xbeefb80d	-0.46820107
8	0x3e2a5070	0.16632247
9	0xbecbd961	-0.39814284
10	0x3f4060c1	0.75147635
11	0xbf69c3e6	-0.9131454
12	0x3dab2aa0	0.083577394
13	0x3e2e7a81	0.17038919
14	0xbec816ac	-0.39079797
15	0x3f8babf3	1.091185

onnx::Conv_233 f4 [16, 1, 3, 3]
0	0x3a5b70d9	0.00083710026
1	0xbec010ca	-0.3751281
2	0x3ee76b87	0.45199224
3	0x3e3896d5	0.18026288
4	0x3e0b9709	0.13631834
5	0x3f335334	0.7004883
6	0x3cd1b4a7	0.025598837
7	0x3e547cb2	0.20750692
8	0xbe038a46	-0.12845716
9	0xbe2dd200	-0.1697464
10	0xbe51907a	-0.2046527
11	0x3ebf8aa9	0.37410477
12	0xbf35e541	-0.7105294
13	0x3e17784c	0.14791983
14	0x3dd8880c	0.10572824
15	0x3eb44a23	0.35212812
16	0x3eb1fb7c	0.3476218
17	0x3caf6ed3	0.02141515
18	0x3dc4b16b	0.09604152
19	0x3e62e158	0.22156274
20	0x3e03942c	0.12849492
21	0xbde5c0fd	-0.1121845
22	0x3cf74941	0.030186297
23	0x3f1c83bd	0.61138517
24	0xbe62c4f6	-0.22145447
25	0x3ecdd3a5	0.40200534
26	0xbf118c08	-0.56854296
27	0x3b99601a	0.0046806457
28	0x3dc4e809	0.0961457
29	0xbd0745f2	-0.03302569
30	0x3d8d8597	0.06910246
31	0x3d4cf17b	0.05003498
32	0x3ee6dd97	0.45090935
33	0x3d567045	0.052353162
34	0x3c7d6598	0.015466116
35	0x3e5e0913	0.21683149
36	0xbe5a0d1c	-0.21294063
37	0x3de8a0f5	0.11358825
38	0xbe55c27f	-0.20874976
39	0xbe8bdf76	-0.27318925
40	0x3e995e82	0.29954916
41	0x3cf357f8	0.029705033
42	0xbe860579	-0.2617605
43	0x3e7b1f38	0.24523628
44	0xbe6e5e77	-0.23278223
45	0xbeb372c2	-0.3504849
46	0x3eb201d8	0.34767032
47	0xbe7976e2	-0.24361756
48	0xbd8daf45	-0.06918196
49	0xbeab3515	-0.33438936
50	0x3e8dbb02	0.27681738
51	0xbd059a80	-0.032618046
52	0x3e254d0b	0.16142671
53	0x3e4e8eb1	0.2017162
54	0x3e051d53	0.12999468
55	0x3ef1cf42	0.47228438
56	0x3e347cd8	0.17625749
57	0xbde48227	-0.11157637
58	0xbf8e6ddf	-1.112728
59	0xbe801b72	-0.2502094
60	0xbe7b0ee1	-0.24517395
61	0x3e6ee89b	0.2333092
62	0xbddf5072	-0.109040156
63	0x3d9f1818	0.077682674
64	0x3d5bb4d2	0.05363924
65	0x3eafde38	0.34349227
66	0x3e4ea16f	0.2017877
67	0x3d120bcb	0.035655778
68	0x3ec18664	0.37797844
69	0x3e9ce24b	0.30641398
70	0x3f072c45	0.52801925
71	0xbe1f9470	-0.15583968
72	0xbdf79db9	-0.1209063
73	0x3eafe482	0.34354025
74	0x3ea31acd	0.31856385
75	0xbe20259e	-0.1563935
76	0xbfefbc99	-1.872943
77	0x3fb89f3c	1.4423594
78	0xbdbcd2f4	-0.092199236
79	0x3e9f3acd	0.3109955
80	0x3f11f768	0.57018137
81	0x3c72163d	0.01477581
82	0x3e8ea1ef	0.2785792
83	0x3d9e0dc1	0.07717467
84	0xbb40d27b	-0.002942233
85	0xbeadd25c	-0.33949554
86	0xbd3ee332	-0.04660339
87	0x3da1d01e	0.07901023
88	0x3ea43a04	0.32075512
89	0xbdb8444a	-0.089974
90	0x3d50f695	0.05101641
91	0x3de9bb4b	0.114126764
92	0xbf164df6	-0.5871271
93	0x3efed1ea	0.49769527
94	0x3f1b865f	0.6075191
95	0xbea17682	-0.31535727
96	0x3dc3ba6d	0.09557042
97	0xbde54a20	-0.11195779
98	0xbd686ffb	-0.056747418
99	0xbe64ad8c	-0.22331828
100	0x3ed8069f	0.42192551
101	0xbd70e326	-0.058810376
102	0x3daa5d82	0.083186164
103	0x3ed7c7e5	0.42144695
104	0x3c5466fe	0.012964008
105	0x3e1fde0b	0.15612046
106	0xbed5dcce	-0.41770023
107	0xbf1e2d88	-0.61788225
108	0x3e6c04b9	0.23048677
109	0xbe98b7b3	-0.2982765
110	0xbf3b12d1	-0.73075587
111	0x3e94642e	0.2898268
112	0xbe8e9043	-0.27844438
113	0xbe4b0697	-0.19826733
114	0xbfa5c029	-1.2949268
115	0xbe16a953	-0.1471303
116	0x4004ecaa	2.0769448
117	0x3d9797b2	0.074019805
118	0x3e581d01	0.21104814
119	0x3caf5b4b	0.021405837
120	0x3d2f2026	0.04275527
121	0x3d170aba	0.036875464
122	0x3e362fc0	0.17791653
123	0x3e06ad84	0.13152128
124	0xbe775ce6	-0.24156532
125	0x3e603047	0.21893416
126	0xbeb87b22	-0.36031443
127	0x3d7e6f8c	0.0621181
128	0xbdb0f353	-0.086401604
129	0x3e08b883	0.13351636
130	0xbd430896	-0.04761561
131	0x3ea5dcf7	0.32395145
132	0x3e62305b	0.22088759
133	0x3e2ab2a7	0.16669713
134	0xbc99d6fe	-0.018779274
135	0xbe31462f	-0.17311929
136	0x3d531ad2	0.05153925
137	0x3ce45c05	0.02787591
138	0x3e070195	0.13184197
139	0xbef573ac	-0.47939813
140	0x3f8b77ef	1.0895976
141	0x3d291f1b	0.04128943
142	0xbf168d7e	-0.5880965
143	0xbc51b268	-0.012798883

onnx::Conv_234 f4 [16]
0	0xbe583f0c	-0.211178
1	0x3d164944	0.036690965
2	0xbe2502f9	-0.16114415
3	0x3e7ec594	0.24880058
4	0x3fadf8b6	1.3591526
5	0xbd4b55c0	-0.049642324
6	0x3ecc8910	0.3994832
7	0x3d6076f0	0.054800928
8	0xbec5d234	-0.38636935
9	0xbf3758e0	-0.7161999
10	0x3f54e712	0.83165085
11	0xbdc612e3	-0.09671571
12	0xbe0fd3e9	-0.14045681
13	0x3ef423b7	0.47683498
14	0xbddd9789	-0.10819919
15	0xbca6cc64	-0.020361133

onnx::Conv_236 f4 [64, 16, 1, 1]
0	0x3e1d95b1	0.15389134
1	0x3e857235	0.26063696
2	0xbeb97cdf	-0.36228082
3	0xbe0fc9fc	-0.14041895
4	0xbec3a91a	-0.38214952
5	0x3e624fa4	0.22100693
6	0xbf354254	-0.70804334
7	0xbe64058a	-0.22267738
8	0x3e2c70da	0.16839924
9	0x3d6ac1d0	0.05731374
10	0x3ed8f6bb	0.4237574
11	0xbd7e2346	-0.062045358
12	0xbbf01d4b	-0.0073277107
13	0x3c408bef	0.011752113
14	0x3daa6f9c	0.08322069
15	0x3c2cb69d	0.010541585
16	0x3e4b072b	0.19826953
17	0x3d8c704b	0.06857356
18	0x3e03b70e	0.12862799
19	0xbdb06872	-0.08613671
20	0x3d862c9a	0.06551476
21	0x3dfb61ec	0.122745365
22	0x3df98c62	0.12184979
23	0x3c50193f	0.012701332
24	0x3e809fa3	0.25121793
25	0x3e3c08c2	0.18362716
26	0x3dbe76be	0.09299992
27	0x3e80e205	0.2517244
28	0xbd96f6ad	-0.073712684
29	0xbd0ed494	-0.0348707
30	0x3e811b2a	0.25216037
31	0xbdbe728c	-0.09299192
32	0xbcd02a51	-0.025410803
33	0x3ba9db29	0.0051835966
34	0xbae7c41e	-0.0017682349
35	0xba00461b	-0.0004893259
36	0xbc888a10	-0.016667396
37	0xbde243b8	-0.110480726
38	0xbdf57c37	-0.11986583
39	0xbd92d2be	-0.07169102
40	0xbd90f64b	-0.07078227
41	0xbdb4ff48	-0.088377535
42	0xbc7755e1	-0.015096159
43	0xbe077270	-0.13227248
44	0xbdd49499	-0.10379905
45	0x3cdd35b5	0.027003149
46	0xbda20548	-0.079111636
47	0x3dc28554	0.094980866
48	0xbe33aaf0	-0.17545676
49	0xbe33a251	-0.17542388
50	0xbd37c4c5	-0.04486539
51	0xbf54f9bb	-0.8319356
52	0xbe8c897a	-0.27448636
53	0x3b5b6435	0.0033476476
54	0xbef76431	-0.48318627
55	0x3cbfd37d	0.023416275
56	0xbe3bdc46	-0.18345746
57	0x3e395165	0.18097456
58	0x3d8b8e12	0.06814207
59	0x3e2c9e28	0.16857207
60	0xbf25ca4c	-0.64761806
61	0xbd8ce235	-0.06879083
62	0x3d2c53b6	0.04207202
63	0xbe1bbac7	-0.15207969
64	0xbe561703	-0.20907216
65	0xbe489c72	-0.19590929
66	0xbe5a8ebd	-0.21343513
67	0xbdc5bdd5	-0.09655348
68	0xbe56db64	-0.20982128
69	0xbe8f29f1	-0.27961686
70	0xbe5d4240	-0.21607304
71	0xbd88d57d	-0.06681345
72	0x3cdf4755	0.027255693
73	0x3d1497d5	0.03627761
74	0xbeabcecd	-0.33556214
75	0x3dea6d2f	0.11446606
76	0xbe582147	-0.21106444
77	0xbe521e8e	-0.20519468
78	0xbdd5bbe1	-0.10436226
79	0x3ccf2643	0.0252868
80	0x3bfb54a9	0.0076700044
81	0x3dfee974	0.124468714
82	0xbea950d2	-0.33069474
83	0xbd26ec2b	-0.04075257
84	0xbe29d600	-0.16585541
85	0x3da3769f	0.079816096
86	0x3d9d54a6	0.07682161
87	0xbb2e841c	-0.0026629036
88	0x3e91567e	0.283863
89	0x3e68830e	0.22706243
90	0xbdb06796	-0.086135074
91	0x3ec82668	0.39091802
92	0x3e1d3205	0.15351112
93	0xbebd5345	-0.36977592
94	0x3df44019	0.11926288
95	0xbda1d79c	-0.07902452
96	0x3f283ee3	0.6572096
97	0xbddb1366	-0.10697059
98	0xbe91c7e3	-0.28472814
99	0xbc1d05ac	-0.009583872
100	0xbe74f44d	-0.23921318
101	0xbe1d80f2	-0.1538122
102	0xbeda5dbb	-0.42649636
103	0xbdb7fa7b	-0.08983322
104	0x3f006d57	0.5016684
105	0x3c687e98	0.014190339
106	0xbea9a381	-0.33132556
107	0x3e086fd0	0.13323903
108	0xbd9bb5f5	-0.07603065
109	0x3eb8a3db	0.36062512
110	0x3f03c328	0.5146966
111	0x3dff0f2f	0.12454068
112	0xbdef0518	-0.116708934
113	0xbea5c127	-0.32373926
114	0x3eb685df	0.3564901
115	0x3ef66e14	0.48130858
116	0x3e3d1cc2	0.18468001
117	0xbf1a8aa3	-0.6036779
118	0x3f75de87	0.96042675
119	0xbe229d25	-0.15880258
120	0xbf2fe288	-0.68705034
121	0xbf2c11be	-0.6721457
122	0xbe797af4	-0.24363309
123	0xbeccd07e	-0.40002817
124	0x3e8e00e1	0.27735046
125	0xbebe9925	-0.37226215
126	0xbe1f7a44	-0.15573984
127	0xbe2b9308	-0.16755307
128	0x3e076ce7	0.13225137
129	0xbe5b595c	-0.21420807
130	0x3dd1c03f	0.10241746
131	0x3e049025	0.12945612
132	0x3e49e59c	0.19716495
133	0x3db23895	0.087021984
134	0x3e468e3f	0.193902
135	0x3e6b1b69	0.22959675
136	0xbe13c3f4	-0.14430219
137	0xbd493fb6	-0.049133025
138	0xbda34e63	-0.079739355
139	0x3d1f6e28	0.038923413
140	0xbe01ba60	-0.12668753
141	0x3e9e5bec	0.30929506
142	0xbe04b84d	-0.1296093
143	0xbe5952f1	-0.21223046
144	0xbde2067c	-0.11036393
145	0xbcd1b426	-0.025598597
146	0xbd215974	-0.03939195
147	0x3d2a2d59	0.041547153
148	0xbe162296	-0.14661631
149	0xbd3d3f53	-0.04620297
150	0x3d3d0996	0.04615172
151	0xbe80199a	-0.25019532
152	0x3cf9f90e	0.030514266
153	0x3d831191	0.06399835
154	0x3d7d6bb1	0.06187028
155	0x3dc5c36e	0.09656416
156	0xbc9c7fe9	-0.019103961
157	0xbd01793d	-0.031609762
158	0xbe03074c	-0.12795752
159	0xba05f0f7	-0.0005109454
160	0xbe01ee5a	-0.1268858
161	0xbdd322c0	-0.103093624
162	0x3ca02655	0.019549528
163	0x3d100ae3	0.035166632
164	0xbe335feb	-0.17517059
165	0xbe228d51	-0.1587422
166	0x3cac8e0d	0.021063829
167	0x3cfe9365	0.031076143
168	0xbe0636da	-0.13106862
169	0xbdec9956	-0.11552684
170	0xbe27ab3f	-0.16373919
171	0x3c9b2f5f	0.018943487
172	0xbd91c746	-0.071180865
173	0xbe182f79	-0.1486186
174	0xbe0c487f	-0.1369953
175	0xbe45f311	-0.19331004
176	0x3e0262b4	0.12732965
177	0x3d7f6204	0.062349334
178	0xbde4b5ae	-0.11167465
179	0xbe887e49	-0.26658848
180	0xbd8fd0ba	-0.07022233
181	0xbca7c33d	-0.020478839
182	0xbeb50ae2	-0.35359865
183	0xbdf8412a	-0.12121804
184	0x3d2eaa6e	0.042643003
185	0x3dc9ac52	0.098473206
186	0xbe9d4952	-0.3072
187	0xbc846b6f	-0.01616451
188	0xbe2b95bf	-0.16756342
189	0xbe5e0d78	-0.21684825
190	0x3e0b719c	0.13617557
191	0x3d2dde7e	0.042448513
192	0xbdb5ed65	-0.0888317
193	0xbe817ae6	-0.25289077
194	0xbdad92c7	-0.08475261
195	0x3d81b878	0.06334013
196	0xbd8781db	-0.06616565
197	0x3e6bd62f	0.23030923
198	0x3d9a3125	0.07528905
199	0xbd74a5c9	-0.059728418
200	0xbdedcca5	-0.116112985
201	0xbc2f7107	-0.0107081
202	0x3bd72d0d	0.00656665
203	0x3e23ed7f	0.16008566
204	0x3f008811	0.5020762
205	0xbea3b42d	-0.319734
206	0x3d569df3	0.052396726
207	0xbe929220	-0.2862711
208	0x3b9e5ca3	0.0048328205
209	0xbd7d9c1b	-0.061916452
210	0xbd437d20	-0.04772675
211	0xbc24473e	-0.010026751
212	0xbd1128bb	-0.035439234
213	0xbd4ea4fc	-0.05045031
214	0xbd3608c6	-0.04444196
215	0x3d867ea4	0.065671235
216	0x3dbe0c02	0.09279634
217	0xbc73b196	-0.014873883
218	0xbeae6fc3	-0.34069642
219	0xbe2909c0	-0.16507626
220	0xbe073e09	-0.13207258
221	0xbe013d38	-0.1262101
222	0x3d42e840	0.047584772
223	0xbd90388c	-0.070420355
224	0x3ed11717	0.4083793
225	0xbe34f07e	-0.17669865
226	0x3c8c682a	0.017139513
227	0xbec13d0a	-0.37741882
228	0x3dfcea13	0.123493336
229	0xbe00609b	-0.12536852
230	0x3ec9fecc	0.39452207
231	0xbea39bfe	-0.3195495
232	0x3eaf78f5	0.3427197
233	0x3e9bd6f7	0.30437443
234	0x3f04b958	0.5184531
235	0xbe85d05b	-0.26135525
236	0x3e80faea	0.25191432
237	0x3e4bf301	0.19916917
238	0x3f26913d	0.65065366
239	0xbe440b6b	-0.1914498
240	0xbe37e063	-0.1795669
241	0x3da4f3cc	0.08054313
242	0x3dc830cf	0.097749345
243	0x3e1b6641	0.15175726
244	0xbd34d1e1	-0.04414547
245	0x3dd37ee7	0.10326939
246	0x3ebbca64	0.3667785
247	0xbd384914	-0.044991568
248	0xbef36771	-0.47539857
249	0xbe37faf6	-0.17966828
250	0x3d98c5da	0.07459612
251	0x3e0edc93	0.1395133
252	0x3e0ddee5	0.13854559
253	0xbe90007a	-0.28125364
254	0xbe4d7217	-0.20063053
255	0x3c42fe99	0.011901521

onnx::Conv_237 f4 [64]
0	0x3eaf45cc	0.34232938
1	0xbd78cf60	-0.060744643
2	0x3f43ca9f	0.7648105
3	0x3fea1d9c	1.8290286
4	0x40377b75	2.8669102
5	0x3f6cbb92	0.9247371
6	0x3fb982ac	1.4493003
7	0x3ef09bc9	0.46993855
8	0xbf1953db	-0.5989358
9	0x3e9c07ca	0.30474693
10	0x3fde9a6d	1.7390877
11	0x3fef7fe6	1.8710907
12	0x3f92fd69	1.1483585
13	0x3f7f111e	0.99635494
14	0xbfff08d6	-1.9924572
15	0x3d26d640	0.04073167
16	0xbe3d0514	-0.18458968
17	0xbc114960	-0.008867592
18	0xbf84eb2c	-1.0384269
19	0xbf197162	-0.59938633
20	0x3e460435	0.19337542
21	0x3f0c388c	0.54773784
22	0x3f3176f6	0.69322145
23	0x3f9ff91e	1.24979
24	0x3f032bc4	0.51238656
25	0xbffac58c	-1.9591537
26	0x400ce9f6	2.2017798
27	0x3fdddc68	1.7332888
28	0xbfc8b0d2	-1.5678961
29	0xbea3f3fe	-0.3202209
30	0x3f917da9	1.1366473
31	0x3f51db1a	0.8197495
32	0xbe78f1d4	-0.24311
33	0xbfa56029	-1.2919971
34	0xbd80adec	-0.06283173
35	0xbd89a5a8	-0.067210495
36	0x3f9c5862	1.2214472
37	0x3f839492	1.0279715
38	0x3ff1d823	1.8894085
39	0xbfe02ff7	-1.7514638
40	0x3ef83519	0.4847801
41	0x3f5465be	0.82967746
42	0xbf8cb781	-1.0993501
43	0xbfb41db3	-1.4071563
44	0x3e4d3e98	0.20043409
45	0xbf7156a8	-0.9427285
46	0x3f9150fe	1.1352842
47	0x3f7f6bae	0.9977368
48	0x3f842b8c	1.032579
49	0x3f8ca52a	1.0987904
50	0x3ea00948	0.3125708
51	0x3fc8f9b7	1.5701207
52	0xbf9bbbc9	-1.2166682
53	0x40248e31	2.5711787
54	0xc084fc1a	-4.155774
55	0x3f94ef34	1.1635499
56	0x3d9fa740	0.07795572
57	0x3f657adf	0.8964061
58	0x3fa5e381	1.2960054
59	0xbfab74f8	-1.3395071
60	0x3e8a8936	0.2705781
61	0x3f0cfbc9	0.55071694
62	0xbec5f5e4	-0.38664162
63	0x3faa478a	1.3303082

onnx::Conv_239 f4 [64, 1, 3, 3]
0	0xbe8d1e6b	-0.2756227
1	0xbef677af	-0.48138186
2	0xbea2dbc2	-0.31808287
3	0xbeb39a9a	-0.3507889
4	0xbe723838	-0.23654258
5	0xbecb86c7	-0.39751264
6	0xbd9606a3	-0.073254846
7	0xbd35e3d6	-0.044406734
8	0xbf07a9dc	-0.5299356
9	0xbe79d8b7	-0.24399076
10	0xbdfe27f6	-0.12409966
11	0xbe693fb3	-0.22778206
12	0x3e47064d	0.19435997
13	0x3e9dde06	0.30833453
14	0x3e5936e3	0.21212344
15	0x3ded15f7	0.11576455
16	0x3e968b4f	0.2940316
17	0x3e4807ba	0.19534197
18	0x3f83d031	1.029791
19	0x3f6c47e1	0.9229718
20	0xbed19d74	-0.4094044
21	0x3fbdb496	1.4820735
22	0x3f5ca8e6	0.8619522
23	0xbf8d5ad2	-1.1043341
24	0xbf5d84a8	-0.8653054
25	0xbfd6e501	-1.6788636
26	0xc03598ec	-2.8374586
27	0xbef1ff3d	-0.47265044
28	0x3f06b435	0.52618724
29	0x3ec7dc29	0.39035156
30	0xbb629ade	-0.0034577171
31	0x3f17fe23	0.59372157
32	0x3f64f6c2	0.8943902
33	0xbddce8c0	-0.10786581
34	0x3f3e3774	0.74303365
35	0x3f16dbae	0.58928955
36	0xbf1f9db5	-0.62350017
37	0xbede8b4c	-0.4346565
38	0xbf0d83a8	-0.55279016
39	0x3f21007e	0.62891376
40	0xbeacdceb	-0.33762297
41	0xbf179a16	-0.5921949
42	0x3f7d9473	0.9905464
43	0xbe489f3e	-0.19591996
44	0xbf65afae	-0.8972119
45	0xbebe1b85	-0.3713037
46	0xbe266076	-0.16247734
47	0x3ee6bbed	0.4506525
48	0xbe964d39	-0.2935579
49	0xbf4e397d	-0.8055647
50	0xbf46a1d8	-0.77590704
51	0x3e7cdb89	0.24693121
52	0x3c674e1e	0.014117746
53	0xbf3f43ee	-0.7471303
54	0x3c8d0360	0.017213523
55	0xbe8836a1	-0.2660418
56	0xbdd45d69	-0.10369379
57	0x3c30d165	0.010792111
58	0xbf0e29c0	-0.55532455
59	0xbeae77fc	-0.34075916
60	0x3cc01ca4	0.023451157
61	0xbef05d8a	-0.46946365
62	0xbe96eb44	-0.29476368
63	0xbd45bb3e	-0.04827427
64	0x3c15776e	0.009122713
65	0xbd6c1b8a	-0.05764345
66	0x3e7d66fc	0.24746317
67	0x3ea329c0	0.3186779
68	0x3ea41d35	0.32053533
69	0x3e2244ac	0.15846509
70	0x3daf7ec5	0.08569101
71	0x3dd1edcf	0.102504365
72	0x3f1203b5	0.57036906
73	0x3ed17b7c	0.40914524
74	0xbf67ec4a	-0.90594923
75	0x3ee09946	0.43866938
76	0xbcf75271	-0.030190678
77	0xbf6c6c72	-0.92352974
78	0x3e1bfb6f	0.15232633
79	0xbf272bc1	-0.6530114
80	0x3e413098	0.18866193
81	0xc019698c	-2.397067
82	0x3f867ee8	1.0507479
83	0x3fc87ff0	1.5664043
84	0x3f1f10bf	0.6213493
85	0x3fcb18f3	1.5866989
86	0x3f8f5568	1.1197939
87	0x3feb225a	1.8369858
88	0x40344834	2.816907
89	0x3fc04ab1	1.5022794
90	0xbf0bd6cb	-0.54624623
91	0x3f272d59	0.6530357
92	0x40060eda	2.0946565
93	0xbedde9df	-0.43342492
94	0xbf083162	-0.5320035
95	0x3ff19f95	1.8876826
96	0xbf439c37	-0.7641024
97	0xbfb2f1e9	-1.3980075
98	0xbedb83b6	-0.42873925
99	0xbefd9ec3	-0.49535188
100	0xbe883eb8	-0.2661035
101	0x3f18db7d	0.5970991
102	0xbed924bc	-0.4241084
103	0xbf52fc2b	-0.8241603
104	0xbe1fcff3	-0.1560667
105	0xbedd2d20	-0.4319849
106	0xbf7c288e	-0.9849938
107	0xbf6a49d4	-0.915189
108	0xbe950d69	-0.29111794
109	0x3e852985	0.2600824
110	0xbc7a16f8	-0.015264265
111	0xbc7f83dc	-0.015595403
112	0x3f61efe5	0.88256675
113	0x3e1c6424	0.15272576
114	0xbf24dfd5	-0.6440404
115	0x3e0035a1	0.12520458
116	0xbce745d4	-0.028231539
117	0xbf1b58c9	-0.6068235
118	0xbf949dde	-1.1610677
119	0xbe22a022	-0.15881398
120	0xbdafde76	-0.08587353
121	0xbff38737	-1.9025639
122	0xbffe59b2	-1.9871123
123	0xbe872e86	-0.26402682
124	0xc0074716	-2.1137137
125	0xbfc9fe6f	-1.5780772
126	0xbcbc6e1c	-0.023001723
127	0xbe072b6a	-0.13200155
128	0xbed65ea3	-0.41869077
129	0xbedb6233	-0.42848358
130	0xbe8d9412	-0.2765203
131	0x3b49c93e	0.0030790116
132	0xbe03fe1c	-0.12889904
133	0x3d3aa127	0.045563843
134	0x3edaf59d	0.42765513
135	0xbf6de626	-0.92929304
136	0xbf092258	-0.5356803
137	0x3f1c9ca4	0.61176515
138	0xbf2d9f87	-0.67821544
139	0xbec70d3f	-0.38877293
140	0x3f87b795	1.06029
141	0x3e592b25	0.21207865
142	0x3f951823	1.1647991
143	0x3f469fba	0.77587473
144	0xbeef2ce1	-0.46713927
145	0xbf1016e1	-0.5628491
146	0xbf17c499	-0.5928436
147	0xbf3814dc	-0.7190683
148	0xbeddd3ea	-0.4332574
149	0xbf79f114	-0.9763348
150	0xbe41d2d4	-0.18928081
151	0x3db9fd6b	0.09081539
152	0xbe394b92	-0.18095234
153	0xbfc1722f	-1.5112971
154	0xbe66f665	-0.2255493
155	0x3ef097e2	0.46990877
156	0xbfdd45d0	-1.728693
157	0xbf73e037	-0.95264
158	0x3fa663fc	1.2999263
159	0xbe345850	-0.17611814
160	0xbf931967	-1.1492127
161	0x3f01363b	0.50473374
162	0x3e4eb31c	0.20185512
163	0xbee2454f	-0.44193503
164	0xbe2b1f54	-0.1671117
165	0xbef17ce4	-0.47165596
166	0xbdb69ad2	-0.089162484
167	0x3f04d40a	0.51886046
168	0xbf52411c	-0.821306
169	0x3f53ae39	0.8268772
170	0x3dd38d54	0.103296906
171	0xc029bf9b	-2.6523197
172	0xc087dd95	-4.2457986
173	0xc094c6d5	-4.6492715
174	0xbf8d7bf7	-1.1053456
175	0xbf996710	-1.1984577
176	0x3fd6f812	1.6794455
177	0xbeaa7ffb	-0.33300766
178	0x3f2b1286	0.6682514
179	0x408592b4	4.174158
180	0xbeb05f8f	-0.34447905
181	0xbdf5a485	-0.1199427
182	0x3bfb9e65	0.007678794
183	0xbec8661a	-0.39140397
184	0xbe94182e	-0.28924698
185	0x3ce79a5c	0.028271846
186	0xbf83678c	-1.0265975
187	0xbe3e064a	-0.18557087
188	0xbd6f5ab2	-0.058436103
189	0xbf80ff80	-1.0077972
190	0xbf61a4f2	-0.8814231
191	0xbf167edb	-0.58787316
192	0x3f258edc	0.6467111
193	0x3f23c5f6	0.6397394
194	0xbeaedc17	-0.3415229
195	0xbebdf50d	-0.3710102
196	0x3d9f4a70	0.0777787
197	0xbf0f1f8f	-0.5590753
198	0x3eae6563	0.34061727
199	0x3eeab6c9	0.4584258
200	0xbeb59926	-0.35468405
201	0x3f57d2c4	0.8430598
202	0x3f238a30	0.6388273
203	0x3e15e488	0.14637959
204	0xbe66c98b	-0.2253782
205	0x3f0a0d4a	0.5392653
206	0x3dfd524a	0.12369211
207	0x3e96f67c	0.29484928
208	0x3e2da6e2	0.16958192
209	0xbe00cb33	-0.12577514
210	0xbf76f1fa	-0.96462977
211	0xbe8c6f8f	-0.27428862
212	0xbea47f7a	-0.32128507
213	0xbf5012ac	-0.8127849
214	0xbeccd0ad	-0.40002957
215	0xbc2f2951	-0.010691003
216	0xbe77ac9b	-0.24186938
217	0xbf1114c9	-0.5667234
218	0xbfd9772a	-1.6989491
219	0x3fcc44d8	1.595851
220	0x3f930927	1.1487168
221	0xbe9d8f21	-0.3077326
222	0xc0430a83	-3.0475166
223	0xbe0144f7	-0.12623964
224	0x3fa29b6e	1.2703683
225	0xbd69aecd	-0.05705147
226	0x3d8429b0	0.06453264
227	0x3e918ebc	0.2842921
228	0xbe2b0fea	-0.1670529
229	0xbdc44c3c	-0.09584853
230	0xbd812788	-0.06306368
231	0xbf0cc324	-0.5498526
232	0xbec11344	-0.3771001
233	0xbe858817	-0.2608039
234	0x3f212419	0.62945706
235	0x3f81129f	1.0083808
236	0xbea945fe	-0.33061212
237	0xbf59a72f	-0.85020727
238	0xbf4d711a	-0.80250704
239	0x3e2d6de7	0.16936456
240	0xbe83166d	-0.25603047
241	0xbf8b5c15	-1.0887476
242	0x3f513781	0.8172532
243	0xbd83af71	-0.06429947
244	0x3db4c53f	0.08826684
245	0xbd7ae944	-0.061257616
246	0xbe258bc0	-0.16166592
247	0x3edbfc93	0.42966136
248	0x3f2fa4a2	0.68610585
249	0xbdeaf6f8	-0.11472887
250	0x3e19e657	0.15029274
251	0x3ed67be0	0.41891384
252	0xbe61d998	-0.22055662
253	0xbe8df12b	-0.2772306
254	0x3e860bd0	0.26180887
255	0x3bb1a0cd	0.0054207803

onnx::Conv_240 f4 [64]
0	0x3f6ac7da	0.917112
1	0xbf3967c3	-0.7242395
2	0x3f911a7d	1.1336209
3	0xbdebfc00	-0.115226746
4	0x3f2c22f5	0.6724084
5	0x3fd79be1	1.6844445
6	0x3fa31338	1.274024
7	0x3e1f49bc	0.15555471
8	0x3f311e04	0.69186425
9	0x3e85ec1f	0.2615671
10	0x3d9e75d3	0.07737317
11	0x3f997827	1.1989793
12	0xbd4b7678	-0.049673527
13	0x3eedccb9	0.46445253
14	0x3f540db9	0.8283344
15	0xbf3adb6e	-0.72991073
16	0x3f7ae0a2	0.9799901
17	0x3f36996f	0.7132787
18	0x3b3f5410	0.0029194392
19	0xbed3de7b	-0.41380677
20	0x3f9f88f4	1.246367
21	0x3f416178	0.7553935
22	0x3e5b1804	0.2139588
23	0x3f93b073	1.1538223
24	0xbe5d6602	-0.21620944
25	0x3f37d57e	0.7181014
26	0x3f2d7db8	0.67769957
27	0xbe8dffde	-0.27734274
28	0x3f53dbb5	0.8275712
29	0x3ea4b6b9	0.32170656
30	0x3fb3664c	1.4015594
31	0xbf0defbd	-0.55443937
32	0x3f7a0527	0.9766411
33	0x3faa0081	1.3281404
34	0x3e3411f9	0.17584981
35	0x3f7f4d83	0.9972765
36	0x3e74c5d2	0.23903587
37	0x3ebf0844	0.37310994
38	0xbead1a64	-0.33809197
39	0x3f085c40	0.5326576
40	0x3ed9b9aa	0.42524463
41	0x40143974	2.3160067
42	0x3f9ca433	1.223761
43	0x3ed5af26	0.4173519
44	0x3e6af6b5	0.22945674
45	0x3db79ce0	0.089654684
46	0x3f63287b	0.88733643
47	0x3f9dab72	1.2317946
48	0x3e835afe	0.2565536
49	0x3f795a71	0.9740363
50	0xbe0212c0	-0.12702465
51	0x3f01e502	0.50740063
52	0x3f02054a	0.5078932
53	0x3fbc4c7f	1.4710845
54	0x3f015950	0.50526905
55	0x3e211362	0.1573005
56	0xbec13240	-0.3773365
57	0x3fb80711	1.4377156
58	0x3cc63178	0.02419351
59	0x3ea8a5ec	0.32939088
60	0x3fd66784	1.675034
61	0xbeb33e2a	-0.35008365
62	0xbee42836	-0.4456193
63	0xbeee2be5	-0.46517864

onnx::Conv_242 f4 [32, 64, 1, 1]
0	0xbc8ac179	-0.016937958
1	0x3c9185a3	0.017763918
2	0x3e6774c6	0.2260314
3	0xbe0cd121	-0.13751651
4	0x3da3c362	0.07996251
5	0xbe284430	-0.16432261
6	0xbe3145e1	-0.17311813
7	0x3e6b7e02	0.22997287
8	0x3ea0b716	0.31389683
9	0xbec85366	-0.39126128
10	0xbc3ee2ef	-0.011650785
11	0xbc95bdd7	-0.018279
12	0x3dd888cc	0.10572967
13	0x3cb81dc6	0.022475135
14	0x3e41404c	0.18872184
15	0x3d67f272	0.0566277
16	0xbe620371	-0.22071625
17	0x3d2e9295	0.04262026
18	0x3c23ca86	0.009997016
19	0xbc80f18c	-0.015740179
20	0xbe67660f	-0.22597526
21	0x3d9063c8	0.07050282
22	0xbe301efe	-0.17199323
23	0x3e5ce172	0.21570376
24	0xbdc2e501	-0.09516335
25	0xbd8569b5	-0.06514303
26	0xbee37827	-0.44427606
27	0x3e6516be	0.22371957
28	0xbe0ef119	-0.13959159
29	0x3dd463ad	0.10370574
30	0xbe684812	-0.22683743
31	0xbeb1cff5	-0.3472897
32	0xbf290265	-0.6601928
33	0xbdb83e62	-0.089962736
34	0xbf05f7ec	-0.52331424
35	0xbf136963	-0.5758268
36	0xbd9c5c16	-0.076347515
37	0xbdd565c5	-0.104198016
38	0x3d0aef23	0.033919465
39	0xbe40dbf1	-0.18833901
40	0xbe47ef95	-0.19524987
41	0x3ee95448	0.45572114
42	0x3e2d3343	0.16914086
43	0xbe4de819	-0.2010807
44	0x3cc5130d	0.024056936
45	0xbee82c60	-0.45346355
46	0xbe294de4	-0.16533619
47	0x3e4722de	0.19446895
48	0xbe941a15	-0.2892615
49	0xbd6c895b	-0.05774818
50	0x3d15f86c	0.036613867
51	0xbe497929	-0.19675125
52	0xbdd8f1bf	-0.105929844
53	0x3d31dc14	0.043422773
54	0xbe390755	-0.18069203
55	0xbd251017	-0.040298548
56	0x3daf9c42	0.08574726
57	0xbd82542e	-0.06363712
58	0x3db8ef35	0.0903
59	0x3e2e38db	0.17013876
60	0x3dfc1b3b	0.12309881
61	0x3e071fe6	0.13195762
62	0x3e118709	0.14211668
63	0x3d7aeabb	0.061259013
64	0x3d7ea551	0.062169377
65	0xbc9993f8	-0.018747315
66	0xbdcc1d9a	-0.099665835
67	0xbd8560ac	-0.06512579
68	0x3e113285	0.14179428
69	0xbee03404	-0.43789685
70	0xbe9dff97	-0.30859062
71	0xbe4ef6fe	-0.20211408
72	0x3d375d00	0.044766426
73	0xbe4f18d4	-0.20224315
74	0xbea183e8	-0.3154595
75	0xbd2a77dd	-0.041618217
76	0x3eb17275	0.34657636
77	0xbeb3cebf	-0.35118672
78	0x3e1396bd	0.14412971
79	0xbe2e7db1	-0.17040135
80	0xbe8101a5	-0.25196567
81	0x3dad467d	0.0846071
82	0xbdc8f27b	-0.098118745
83	0xbe20133c	-0.15632337
84	0xbe17de1a	-0.14830819
85	0x3db9f9d5	0.09080855
86	0xbe3bc039	-0.18335046
87	0xbdd55d50	-0.104181886
88	0xbe99b4d9	-0.30020788
89	0x3b4c9133	0.0031214475
90	0xbd7b0341	-0.0612824
91	0xbe2887ed	-0.16458102
92	0xbead88e5	-0.33893505
93	0x3bfab37c	0.0076507907
94	0xbe272d8a	-0.16325966
95	0x3a60d751	0.00085770065
96	0xbec0f9a6	-0.37690467
97	0x3e25adc7	0.16179572
98	0x3d4454ca	0.047932424
99	0xbe752204	-0.23938757
100	0x3dcfd410	0.101478696
101	0xbef4731d	-0.47744074
102	0xbd5e034d	-0.054202367
103	0x3daa754e	0.08323155
104	0x3c7c1aab	0.0153872175
105	0xbed68159	-0.4189556
106	0x3ddc4d62	0.10756947
107	0x3e9d4884	0.30719388
108	0xbe13b56f	-0.1442468
109	0xbe1c63f8	-0.1527251
110	0xbdecf91b	-0.115709506
111	0xbc1eb179	-0.0096858675
112	0xbe34ef2c	-0.17669362
113	0xbd2fd30f	-0.04292589
114	0x3e086e6b	0.13323371
115	0x3c0b9f5d	0.008521882
116	0xbedb36c7	-0.4281523
117	0xbca8d46f	-0.020609109
118	0xbba76438	-0.0051083826
119	0xbe8db164	-0.276744
120	0x3ee3b5d9	0.44474676
121	0xbd175266	-0.036943816
122	0xbde9ee3e	-0.11422394
123	0x3d4cdc43	0.050014745
124	0x3daa57d9	0.08317537
125	0xbc6957de	-0.014242141
126	0xbdbbf9c5	-0.09178499
127	0xbad617c9	-0.0016333993
128	0xbe214710	-0.15749764
129	0xbb2c714a	-0.0026312643
130	0xbe14e0fc	-0.1453895
131	0xbd14ccc6	-0.0363281
132	0x3d3287e3	0.043586623
133	0xbdaed698	-0.08537024
134	0xbe988885	-0.29791656
135	0xbddf5cb3	-0.10906353
136	0xbd871e51	-0.06597579
137	0xbe77b1a7	-0.24188863
138	0xbd924fa6	-0.07144098
139	0xbe54f6c5	-0.2079726
140	0xbcd80966	-0.026371669
141	0xbe0f8971	-0.14017273
142	0xbdb50aab	-0.088399254
143	0xbd0f6425	-0.035007615
144	0xbe50f7e1	-0.20407058
145	0x3eb521a7	0.35377237
146	0xbea9645c	-0.3308438
147	0xbd200c93	-0.03907449
148	0xbda29a33	-0.079395674
149	0xbde09d37	-0.10967486
150	0xbe6f8e38	-0.23394096
151	0xbea2d953	-0.3180643
152	0x3e232c5a	0.15934888
153	0x3e2bc19c	0.16773075
154	0xbd19961d	-0.037496675
155	0xbdb3c07a	-0.08776946
156	0xbbe76ba1	-0.007062391
157	0xbdcb1922	-0.09916903
158	0xbe9ae5cd	-0.3025345
159	0xbe33b11f	-0.17548035
160	0x3ea63ad8	0.3246677
161	0x3ed0f0b8	0.40808654
162	0x3dc58595	0.096446194
163	0xbe4e70eb	-0.20160262
164	0xbc9a1127	-0.018807007
165	0x3e473936	0.19455418
166	0x3e940816	0.2891242
167	0xbd329f23	-0.043608796
168	0xbdc3f5f2	-0.09568395
169	0xba9815ba	-0.0011603155
170	0xbd69576c	-0.056968138
171	0xbe2065c8	-0.15663826
172	0x3e612228	0.21985686
173	0x3e2d891b	0.16946833
174	0x3d6977d7	0.056999054
175	0x3ecf9ddb	0.40550122
176	0x3dd81825	0.1055148
177	0x3efa89c2	0.48933226
178	0x3ea78242	0.32716566
179	0x3e001d23	0.12511115
180	0x3eaa413f	0.33252904
181	0x3e90cb26	0.2827999
182	0xbc92400f	-0.017852811
183	0x3cf74524	0.030184336
184	0xbe821c61	-0.25412276
185	0xbe91a0a5	-0.28442875
186	0x3dfb3460	0.12265849
187	0x3dfbf1e1	0.12301994
188	0xbe2140fe	-0.15747449
189	0xbd8aa4b7	-0.06769698
190	0xbc0bdd2b	-0.008536617
191	0xbe73c98e	-0.23807356
192	0xbdc84747	-0.0977922
193	0xbd132cca	-0.035931386
194	0xbc12c66d	-0.008958441
195	0x3e6689f1	0.22513558
196	0x3d865925	0.06559972
197	0xbd5d601e	-0.054046743
198	0xbd404e0a	-0.046949424
199	0xbdff11bb	-0.12454554
200	0x3d98ac21	0.07454706
201	0xbe4421be	-0.19153497
202	0xbce3aa03	-0.027791029
203	0x3dfdf23a	0.12399717
204	0x3d9d593e	0.07683037
205	0x3e0ba537	0.13637243
206	0xbe5ec125	-0.21753366
207	0x3d4f6377	0.050631966
208	0xbddb9950	-0.107226014
209	0xbe271168	-0.16315234
210	0xbdcd59dd	-0.10026906
211	0xbe892996	-0.2678954
212	0x3e78320a	0.24237838
213	0xbba1bfb9	-0.004936185
214	0x39708357	0.00022937111
215	0xbcc6bfda	-0.024261404
216	0x3d23581a	0.039878942
217	0xbd33e472	-0.043919034
218	0xbe04bca2	-0.12962583
219	0x3cbc6a52	0.022999916
220	0x3c7adf96	0.015312096
221	0x3cbc2ec4	0.022971518
222	0x3d1ccfbe	0.038284056
223	0xbe039cdd	-0.12852807
224	0xbe705374	-0.23469335
225	0xbe493fd8	-0.1965326
226	0xbe9180f9	-0.2841871
227	0xbc58363c	-0.013196524
228	0x3da14176	0.07873814
229	0xbceb16ad	-0.028697336
230	0xbc2387bc	-0.009981092
231	0x3d17fdac	0.037107155
232	0xbe76e688	-0.24111378
233	0xbe35d795	-0.1775802
234	0x3d374777	0.04474589
235	0x3e530e76	0.20610985
236	0x3df81f83	0.121153854
237	0x3e59de82	0.21276286
238	0xbe042d20	-0.12907839
239	0xbce429e4	-0.027852006
240	0xbe9c2973	-0.30500373
241	0x3d620777	0.0551829
242	0xbd654393	-0.055972647
243	0xbe3fd4c0	-0.18733501
244	0xbe23be36	-0.15990528
245	0x3e4e4b67	0.20145951
246	0xbe2b56e8	-0.16732371
247	0xbe86e114	-0.26343596
248	0x3d8b4e0b	0.06801995
249	0x3dcac35b	0.09900542
250	0xbdbdeb25	-0.09273366
251	0x3d5100f0	0.051026285
252	0x3c923d79	0.017851578
253	0xbe239b6d	-0.15977259
254	0xbe687103	-0.2269936
255	0xbe16b5e6	-0.14717826

onnx::Conv_243 f4 [32]
0	0x3fb0438f	1.3770617
1	0x3ff48be4	1.9105191
2	0x3e64d8f6	0.22348389
3	0x3f3c8d70	0.73653316
4	0x3faf6bc6	1.3704765
5	0xbd7f26f8	-0.062293023
6	0xbfc81456	-1.5631206
7	0x3f1ee3c2	0.6206628
8	0x3f994e26	1.1976974
9	0x3e790dfa	0.24321738
10	0x3e4a7348	0.19770539
11	0x3ef44857	0.4771144
12	0xbe503583	-0.20332913
13	0x3f851ed9	1.0400039
14	0x3e03f09d	0.12884755
15	0x3f0d0445	0.5508464
16	0x3e3088fc	0.17239755
17	0xbea45b1b	-0.32100758
18	0x3f85871a	1.0431855
19	0x3f4f4176	0.8095926
20	0xbfa06b97	-1.2532834
21	0x3e3a12be	0.18171212
22	0xbf94d9b2	-1.1628935
23	0x3c7b6eb0	0.015346214
24	0x3f52c1e2	0.8232709
25	0xbf330ac7	-0.6993832
26	0xbe16f5a2	-0.14742139
27	0x3b86825c	0.0041048955
28	0x3fce9e08	1.6141977
29	0x3fa325da	1.2745926
30	0x3f2ebd13	0.68257254
31	0xbf1d3762	-0.6141263
