vision_models/best_model_weights (3).pth (torch, 97282 bytes, 27 tensors)

conv1.weight f4 [8, 1, 3, 3]
000000 cf f8 e0 3e ba 30 99 3c e2 5a a2 3e 82 bc 55 3e
       0.43939826 0.018699992 0.31709963 0.20872691
000010 50 84 d7 be 38 4d c1 be e6 90 63 3e 5f 02 72 be
       -0.42093134 -0.37754226 0.22223243 -0.23633717
000020 0e 18 ee bb 92 2b 79 3e e4 5f 3e 3c 57 e6 03 be
       -0.007266051 0.24333027 0.011619542 -0.12880836
000030 31 c6 b0 3e da 1d b2 3d f8 aa 5b 3e 5c 33 b8 be
       0.34526208 0.086971 0.21451938 -0.35976684
000040 96 2d be 3e a1 09 b8 be 34 d5 70 be 36 de c0 3d
       0.37144154 -0.35944846 -0.2351883 0.094173834
000050 8d be 96 3d 45 4a f1 3e 07 92 85 3e 15 b6 a3 3d
       0.073605634 0.47126976 0.26087973 0.07993714
000060 c1 3d 15 3f bf 38 bb bd 1b 95 7f 3e de ad 5f 3e
       0.58297354 -0.09141683 0.24959223 0.21843669
000070 db 72 84 bd 9b 56 a9 be c9 44 1d bd d7 ab 9d bc
       -0.064672194 -0.33073887 -0.038395677 -0.019246979
000080 65 89 8c be 79 3e 0d 3e bd e6 c7 3e f1 66 ff be
       -0.27448574 0.13793363 0.39043227 -0.49883226
000090 9a 67 f8 be 8b e7 93 be 46 2c dc 3e 99 ef 99 3e
       -0.48516542 -0.2888759 0.43002528 0.3006561
0000a0 28 25 bc 3d 09 f0 ea 3c 6a c8 3b be aa 72 f0 3d
       0.091867745 0.02867891 -0.1833817 0.117406204
0000b0 2e d7 cd bc a5 14 b4 3c 55 81 98 3c 64 df db 3e
       -0.02512702 0.0219825 0.018616358 0.4294387
0000c0 4d dc 58 be 2c 7d 75 be 03 4e 6a 3e 64 b0 b1 be
       -0.21177788 -0.2397353 0.22881322 -0.34704888
0000d0 3e 9e 70 be 58 cb b5 3e 3a c8 fd be 79 3a b8 bd
       -0.23497865 0.355067 -0.49566823 -0.08995528
0000e0 01 b8 3c 3e f8 0f 45 3e 68 6e b1 3e 93 0e 16 3e
       0.18429567 0.19244373 0.34654546 0.14653997
0000f0 ca a1 81 3e 8b 2f c4 be 6f 41 0f bd 67 d5 93 3d
       0.25318748 -0.38317522 -0.03497451 0.07218438
000100 b1 b6 8b be 4c 33 88 be 9f a8 84 bd aa 8a f0 3d
       -0.2728782 -0.26601636 -0.064774744 0.11745198
000110 eb 4a e1 be 9a 21 7b be 35 50 e4 3e e0 d6 d5 3e
       -0.4400247 -0.24524537 0.44592443 0.417655

conv1.bias f4 [8]
000000 60 75 1b be 48 87 a2 3e f3 d1 b3 bd 34 e3 c0 3e
       -0.15181494 0.31743836 -0.08780279 0.37673342
000010 07 08 80 3e 43 af b5 be 66 b7 24 be ab ca 60 3d
       0.25006124 -0.35485277 -0.16085586 0.05488078

bn1.weight f4 [8]
000000 b8 d3 83 3f 71 02 14 3f 0c 51 32 3f dc 80 9d 3f
       1.0298986 0.57816225 0.6965492 1.230495
000010 d8 1e 83 3f d1 a1 a1 3f bd d6 6c 3f 55 87 92 3f
       1.0243788 1.2627507 0.92515165 1.144755

bn1.bias f4 [8]
000000 94 4a aa bd 02 9d c4 be dd d6 dd bd 86 9d fe 3b
       -0.08315006 -0.38401037 -0.108319975 0.007770243
000010 58 ae 67 be 58 09 56 be 89 1c 68 bc 4c 45 92 3d
       -0.226251 -0.20902002 -0.01416696 0.071421236

bn1.running_mean f4 [8]
000000 75 d7 df bd 6b 13 df 3e a7 bd a4 3e c0 47 73 3e
       -0.10929767 0.43569502 0.32175943 0.23757839
000010 2f c7 79 3e 82 e0 b4 be 59 bf 01 be be c4 01 bc
       0.24392389 -0.35327536 -0.1267065 -0.007920442

bn1.running_var f4 [8]
000000 e6 94 4c 3d 85 34 5e 3d f5 0a bc 3e 20 00 98 3d
       0.049946688 0.054249305 0.3672711 0.07421899
000010 59 c2 e6 3c 83 cc 4f 3d b6 1f fd 3c 87 14 72 3d
       0.028168844 0.050732147 0.03089891 0.059101608

conv2.weight f4 [16, 8, 3, 3]
000000 13 77 13 bd 91 fc 85 3e d9 9c 14 3e a7 33 b5 3d
       -0.03600223 0.26169255 0.14512958 0.088477425
000010 02 08 99 3e f6 41 48 3e 0d e3 8d 3e 26 cf a2 3d
       0.29888922 0.19556412 0.27712288 0.07949667
000020 29 41 b0 be cf 9a 44 3e 3c de c1 3d e2 fa b3 bc
       -0.34424713 0.1919968 0.09466216 -0.021970216
000030 20 d4 14 be 2e 1c 5f 3e a7 86 b0 bd 0c 9d 15 be
       -0.14534044 0.21788093 -0.08619433 -0.1461069
000040 20 51 f7 bd c5 5f 25 3d 4d 6c 7c 3d 96 9a c7 bd
       -0.1207602 0.040374536 0.06162672 -0.09746282
000050 96 36 95 bd 63 f9 28 bd ce 8d a4 be 96 51 ca be
       -0.07285802 -0.04125346 -0.32139438 -0.3951537
000060 fc be 4d be 80 f8 77 be 12 22 a3 be c0 48 dc 3d
       -0.20092386 -0.24215889 -0.3186193 0.107560635
000070 a5 25 13 3e db 12 f6 bd 3a cc 37 be c5 7c 13 be
       0.14369829 -0.12015315 -0.17949 -0.14403065
000080 17 11 f9 3d 13 03 81 3c 96 c8 6f 3e df 38 62 3e
       0.12161463 0.015748536 0.23416361 0.22092007
000090 83 b0 ee be a0 0e de be ac a0 de bd 9b 08 aa bd
       -0.46619043 -0.43370533 -0.108704895 -0.083024226
0000a0 0f f3 bf be 5b 30 dd be 94 b4 48 3e f3 ee 34 3c
       -0.37490126 -0.43200955 0.19600135 0.011043298
0000b0 27 f8 d8 be 71 b8 b3 bc c5 f4 9d bd df 6e 0f be
       -0.42376825 -0.021938534 -0.07712702 -0.14007138
0000c0 26 9f ba 3b 88 c4 e2 be 5d 64 22 3c a2 09 94 3d
       0.0056952415 -0.44290566 0.009911624 0.072284
0000d0 37 08 b2 be d9 6b 83 be 0a 83 65 be 04 b4 ac b9
       -0.34771892 -0.2566822 -0.22413269 -0.0003294052
0000e0 3a 27 9c 3d 72 da f4 bb 16 26 c0 be 6d c5 07 bf
       0.076246694 -0.00747233 -0.37529057 -0.5303562
0000f0 ef 0c 8e 3e ff 42 86 be 4d 28 67 be 6b 24 30 be
       0.27744243 -0.2622299 -0.22573967 -0.17201392
000100 ff 37 92 3d 08 72 22 3e 7f 79 84 be 14 0f 7a 3e
       0.07139587 0.15863812 -0.25873944 0.24419814
000110 8a 11 ae bc 38 bc 6a bc 49 2d 61 be da 95 8d be
       -0.021248598 -0.014327101 -0.21989931 -0.2765339
000120 f4 7f 8e 3e 30 78 b9 3e af a4 88 bc b0 86 ed 3e
       0.27831995 0.36224508 -0.01668009 0.4639182
000130 6d ef c5 3e 65 fb dc bd 1e 3e 50 3e 46 f2 36 3d
       0.3865923 -0.10790137 0.20336196 0.044664644
000140 cf 11 0d bf bc 5b d9 3d 91 35 d4 be 8d 48 e8 3e
       -0.551053 0.106132 -0.41447118 0.45367852
000150 f7 93 38 bc 4a 87 f0 3c 88 61 7f be 80 4c 83 3e
       -0.011265746 0.029361386 -0.24939549 0.25644302
000160 61 2e 1f bc b0 d4 ab be 06 41 c3 3d 5d 00 01 3e
       -0.009715647 -0.33560705 0.095338866 0.12597795
000170 16 da b5 be 49 5b c1 3a ff 13 61 be 0c 2c 31 be
       -0.3551795 0.0014751937 -0.21980284 -0.17301959
000180 2a 19 1b 3e 0c 8b 0b bd 61 f1 70 3d ca 83 75 3c
       0.15146318 -0.034068152 0.058823947 0.014985034
000190 3b 70 7c bd 21 a2 16 be 35 f9 1a 3e f6 e9 58 3d
       -0.06163047 -0.14710285 0.15134127 0.052957498
0001a0 4c c7 c2 3e 33 78 9c 3e 5f 2f b1 3d d1 0a 63 be
       0.38042676 0.30560455 0.086516134 -0.22172095
0001b0 d9 2c ad 3e 28 cc 3e bd e4 b6 95 bd a4 77 07 3e
       0.3382328 -0.046581417 -0.07310274 0.13229233
0001c0 3a d9 1e be 42 0a d7 bd 16 56 33 bd 9f c2 ab bd
       -0.15512553 -0.105000034 -0.04378327 -0.083867304
0001d0 10 4d 73 bd 6e be 10 3e 77 f6 63 3e f9 05 71 3e
       -0.059399664 0.14135143 0.22261988 0.23537435
0001e0 3b 9d eb 3d e6 e2 24 3e 03 63 06 bd 74 7b 18 be
       0.11504599 0.1610218 -0.03280927 -0.14890844
0001f0 21 33 d0 3d 01 36 7f be 6a fb 8d 3e 39 bc 92 3e
       0.10166002 -0.24922945 0.27730876 0.28659227
000200 2b c9 18 be 9f f8 a4 be 5e a1 5f be bf 22 56 be
       -0.1492049 -0.32220933 -0.218389 -0.20911692
000210 41 68 6c be a1 e8 c1 3d dd e2 0f 3e e8 41 84 bc
       -0.23086645 0.094681986 0.14051385 -0.016144708
000220 9b 66 73 bd 9f fa 2c be be 3b 57 3c fb a6 e8 3d
       -0.059424024 -0.1689248 0.013136802 0.11359974
000230 2d e2 8a bd b0 7d 6f 3c b7 0b d1 bd 55 14 81 3e
       -0.06781421 0.014617369 -0.102073126 0.25210825
000240 1d 80 83 bd a4 44 8c be 5d 10 51 bd 6e c4 04 3e
       -0.0642092 -0.2739612 -0.051040996 0.12965557
000250 2e fa e7 3d 84 cf 32 3e 8e 1d 61 3e b3 a6 09 3c
       0.11327015 0.17461973 0.2198393 0.008401561
000260 b4 04 05 be c4 5a 97 be 39 fd 8d be 52 3e ee bd
       -0.12990075 -0.29561436 -0.27732256 -0.116329804
000270 89 e8 83 be 53 2b 8e be cd b8 11 bd 7a f7 dc 3c
       -0.25763348 -0.2776743 -0.03557663 0.026973475
000280 28 42 69 3e 9c 20 89 bd 10 81 2e 3d 5c f2 19 be
       0.22779143 -0.06695673 0.042603552 -0.15033859
000290 93 38 9b bd cd 40 b9 3e d9 e6 b4 3d f2 4f 86 3c
       -0.0757915 0.36182252 0.08833093 0.016395543
0002a0 95 52 c5 3e e4 18 9b bc 53 ad 78 3d 35 21 3e 3e
       0.38539568 -0.018932767 0.06071217 0.18567355
0002b0 32 a3 3c 3e 04 2b 47 be 72 34 ac 3b 3f ae bc bd
       0.18421629 -0.19450003 0.0052552754 -0.09212922
0002c0 6c 57 ab be 33 e8 74 bd c1 7b ec bd 35 75 00 3c
       -0.33465135 -0.059791755 -0.11547042 0.007840444
0002d0 40 08 e1 3e 19 11 13 3e 1d b6 0f bc a2 3c 08 3d
       0.43951607 0.14361991 -0.0087714465 0.03326095
0002e0 2e e7 76 3e d1 60 bf 3c ff 8a c0 be b4 58 e4 bd
       0.24111626 0.023361595 -0.37606046 -0.11149731
0002f0 33 80 8e be 5e 25 94 bd 83 97 85 bd 4f eb 89 be
       -0.27832183 -0.0723369 -0.06523039 -0.2693734
000300 1d 33 85 be 55 1e f1 bc f4 19 c5 3d db 53 39 be
       -0.2601556 -0.029433409 0.09624091 -0.18098395
000310 b4 4e c6 be 2e 53 1b be 28 22 af 3e 3c 4c 88 3e
       -0.3873192 -0.1516845 0.34205747 0.26620662
000320 6c c4 5e 3e 7b 32 2e 3e 22 51 54 3e c4 bf 9a bd
       0.21754616 0.17011444 0.20734075 -0.07556108
000330 8f 63 17 be 02 a2 9f bd ae f6 e5 be 19 ad c0 3e
       -0.14784072 -0.077945724 -0.44914764 0.37632063
000340 cc ef 96 3d 10 03 33 be 0c 9e 18 be 3d 79 40 3e
       0.073699564 -0.17481637 -0.1490404 0.18796249
000350 42 ed 31 3e b5 39 ae be bf 43 9c be 6b 43 8c 3d
       0.17375663 -0.34028402 -0.30520436 0.068487965
000360 2b 18 b2 3e 91 74 86 3e bd 81 f5 3d a3 78 17 3e
       0.34784064 0.26260808 0.11987636 0.14792113
000370 da 5c ba be 90 23 fc bd cc 50 64 3d cc 2f 9f bd
       -0.36398965 -0.123114705 0.055741116 -0.077727884
000380 34 d7 c8 3b 85 90 af bd 5f 6e 51 bd a0 8b 4a bd
       0.00612917 -0.08572487 -0.05113065 -0.049449563
000390 b2 d8 28 3c 31 80 7e 3d 44 8c 27 be 13 1e 6c be
       0.01030557 0.06213397 -0.16362101 -0.23058347
0003a0 50 89 a8 be 5a be 4b 3d f6 4e 90 bd b5 38 91 3c
       -0.3291726 0.04974208 -0.070463106 0.017727235
0003b0 89 2b 99 bd 11 b6 13 be 3e 1b c4 bd 56 75 11 be
       -0.07479007 -0.14424922 -0.095755085 -0.14204916
0003c0 cc 1a f1 be d1 ef c6 be 7c b1 1e be cc 92 61 be
       -0.47090757 -0.3885484 -0.15497392 -0.22028655
0003d0 39 8f 24 3e c7 4c ee bb 26 b6 0d 3e a8 08 41 be
       0.1607026 -0.007272336 0.13839015 -0.18850958
0003e0 68 8e b6 bd 87 29 72 be f9 a6 52 3e f6 d1 01 be
       -0.089138806 -0.23648654 0.20571508 -0.1267775
0003f0 78 e0 8d be b3 62 77 be 60 54 ac be 82 a5 77 bd
       -0.2771032 -0.24158745 -0.33658123 -0.060460575

conv2.bias f4 [16]
000000 5d fa b8 3d 8d 02 d4 bd b7 8e 24 39 71 24 72 bd
       0.09032128 -0.10352049 0.00015693424 -0.059116784
000010 f1 a7 98 3c 5f 36 21 be 05 b8 ec 3d b5 64 ae bd
       0.018634768 -0.15743397 0.115585364 -0.08515302
000020 f3 4a fc bd 55 a2 da bd 42 d0 dd 3d b7 54 a3 3d
       -0.12318983 -0.10675494 0.10830738 0.079751424
000030 8e fb 0e 3e ea e9 77 3d f4 5e ee bd f7 59 01 3e
       0.13963148 0.060525812 -0.116392046 0.12631975

bn2.weight f4 [16]
000000 fd b4 85 3f 79 65 66 3f 92 84 61 3f 2a 72 87 3f
       1.0445858 0.89998585 0.8809291 1.0581715
000010 c1 0c 89 3f 7e f9 5b 3f 57 a4 a0 3f c7 eb 6d 3f
       1.0707017 0.8592757 1.2550153 0.9293789
000020 60 88 97 3f d4 4a 41 3f 8e 11 8a 3f 3d 52 78 3f
       1.1838493 0.75504804 1.0786607 0.97000486
000030 b1 2f 7b 3f 14 43 90 3f 2d ea 8d 3f ed 06 9d 3f
       0.98119646 1.1270471 1.108709 1.2267739

bn2.bias f4 [16]
000000 73 2f 6f bd ed d0 4c be a2 b8 06 be 11 b9 80 be
       -0.05839486 -0.20001574 -0.1315637 -0.25141194
000010 21 d0 5f be 28 43 31 be be 84 94 3d 67 2c 03 be
       -0.21856739 -0.17310774 0.07251881 -0.12809907
000020 bc 14 8a 3e 27 7c b3 be 8d b1 ae be 52 42 60 be
       0.26968944 -0.35055658 -0.34119835 -0.21900299
000030 6a e6 f4 bd 10 6b a0 be 71 ca 80 be 88 23 60 be
       -0.119580105 -0.31331682 -0.2515445 -0.21888554

bn2.running_mean f4 [16]
000000 a0 e2 93 bf 78 63 c6 3e 8f a0 ac be 7f 34 86 bf
       -1.1553535 0.38747764 -0.33716246 -1.048477
000010 1b a2 fe be de 52 3d 3d 84 eb 40 bf 08 e8 af bd
       -0.49733052 0.046221606 -0.7535937 -0.08589178
000020 9e 80 78 bf 37 2b d5 3f 2e ab c7 bc dc e9 8b bd
       -0.97071254 1.6653813 -0.024373617 -0.068317145
000030 9a ec dc be 1e a0 1a bf c1 c1 86 bf 6c 84 36 bf
       -0.43149263 -0.6040057 -1.0527879 -0.7129581

bn2.running_var f4 [16]
000000 f5 e4 a3 40 10 09 35 40 06 9d 19 40 9f 3b 3d 40
       5.121699 2.8286781 2.400209 2.956764
000010 22 96 3e 40 96 ca d0 3f 82 e1 3a 40 bc b4 05 40
       2.9779134 1.6311824 2.920014 2.0891562
000020 a3 0d 21 40 bd 77 2b 40 e5 1f 23 40 c5 a0 a0 3f
       2.5164573 2.6791832 2.5488217 1.2549063
000030 ad 6f 2f 40 ab 54 19 40 d3 c4 15 40 77 c5 e3 3f
       2.7411911 2.3957927 2.3401382 1.7794636

conv3.weight f4 [32, 16, 3, 3]
000000 15 bd 63 3e 59 f5 57 be 32 83 74 bb 90 87 19 bc
       0.22240098 -0.21089686 -0.0037309644 -0.0093706995
000010 cd 3b 86 3e 87 08 82 be 19 c0 0a bd 20 95 42 be
       0.262175 -0.2539713 -0.033874605 -0.19002199
000020 e6 0b 5c be fb e1 50 3d 1b 6c 64 3e cb 82 b1 be
       -0.21488914 0.05099676 0.22306864 -0.346701
000030 77 62 13 3e 38 a5 1f be 37 94 05 bb 88 a9 8e 3e
       0.1439303 -0.1559037 -0.0020382532 0.27863717
000040 2c b9 9f bc e4 3a df 3e 41 11 7f 3c 25 88 5d 3e
       -0.019497477 0.43599617 0.0155680785 0.21633966
000050 d7 eb c8 be dc c8 10 be 76 4c d6 be c3 3a 15 3e
       -0.39242432 -0.14139122 -0.4185521 0.14573197
000060 3d 85 9f 3e 07 79 c0 bd 90 db 77 be 10 37 9d 3e
       0.3115634 -0.09398084 -0.2420485 0.30706072
000070 c1 d5 a9 3e 6e 6b 17 3e f9 77 aa bd 9d 0d c9 3c
       0.33170894 0.14787075 -0.08323664 0.024542624
000080 9e df 82 3c 99 2d 55 bd 59 15 10 bd 8d 2e 57 3e
       0.01597577 -0.05204544 -0.03517661 0.21013851
000090 42 db ab 3d 3d cb 87 be 0d aa 88 be 2d ca f9 3e
       0.083914295 -0.26522246 -0.26692238 0.4878706
0000a0 90 3a 34 3d d9 df 44 3e 4b eb 63 3e 5a 12 cd bc
       0.044001162 0.19226016 0.22257726 -0.025033165
0000b0 51 34 29 3e bc df 11 3d 17 0d 6f 3e 29 a4 37 bc
       0.16523863 0.03561376 0.23344837 -0.011208572
0000c0 6b 38 7c be 93 d0 93 3d 35 14 c3 3e 1b 39 a9 3e
       -0.24630897 0.07217517 0.38101354 0.3305138
0000d0 fd 4c e6 3c ca 86 26 3e af 3e 31 3e c8 47 c2 3e
       0.028112883 0.16262355 0.17309068 0.3794539
0000e0 88 55 86 be 42 a7 8c 3e eb 2d eb bc b3 dd 02 bd
       -0.2623713 0.27471358 -0.028708419 -0.03194971
0000f0 5d 09 40 3c 28 0e ce 3e 1a 7b be 3c 7d 69 44 3e
       0.011720982 0.40245175 0.023252059 0.19180866
000100 ff 62 a9 3d c4 6e 00 be 41 7f d0 3d d0 34 94 3d
       0.08270835 -0.12542254 0.10180522 0.07236636
000110 0d c9 4b 3e 04 65 b8 bc ec 37 ef bc ff 6a 80 3d
       0.19900914 -0.022509106 -0.02920147 0.06270408
000120 7e b0 a9 3c a0 ec a4 be 2e 84 57 3c 9c 40 1d be
       0.02071404 -0.3221178 0.013154073 -0.15356678
000130 5e 0a 07 be cc 98 07 3e 74 02 b7 3e ed 14 b9 3d
       -0.13187549 0.13241881 0.3574406 0.090371944
000140 1f 9c f3 3d c6 d7 fe 3d 60 9c 4c 3d fb 67 94 be
       0.11895012 0.12443499 0.04995382 -0.2898558
000150 28 f7 0b 3d f6 1a 3e be ff 46 da bc 69 59 23 bd
       0.034171253 -0.18564972 -0.026645182 -0.03988019
000160 f6 17 94 3d 59 b0 44 bd c2 67 3e 3e a4 9a 3a 3e
       0.07231133 -0.04801974 0.18594268 0.18223053
000170 4a 70 98 be d1 47 74 bd 23 7a 0a be e9 7e 97 3e
       -0.2977317 -0.059638802 -0.13523154 0.29589012
000180 94 51 d8 3d 36 bd 78 be 77 e3 62 bd 8d b5 06 be
       0.10562435 -0.24290928 -0.05539271 -0.13155194
000190 2a 8e a9 3d ee 58 27 be c2 3f 82 be 1d 0a ce bc
       0.08279069 -0.16342518 -0.25439268 -0.025151307
0001a0 e0 52 a0 3e 3e 19 b4 3d 69 b0 11 be d4 26 84 3e
       0.3131323 0.08793877 -0.14227451 0.25810874
0001b0 cc 9a 04 be f5 5d c8 3b 7e e4 a1 be 2f 46 8d 3d
       -0.12949675 0.006114716 -0.31619638 0.06898152
0001c0 5d 6a 65 3e ec 57 ad 3d e0 fe cb bd f3 90 bc 3d
       0.22403856 0.084640354 -0.09960723 0.09207334
0001d0 c9 93 94 3e 06 2c b4 3e 77 47 cf 3d 69 3c 7e be
       0.29019 0.35189837 0.10121053 -0.24827732
0001e0 d8 41 3a be f0 7f 89 3e b0 a8 df 3d 06 b8 a5 3c
       -0.1818918 0.2685542 0.109208465 0.02022935
0001f0 66 5a f7 bd 9f 85 9c 3d 03 e5 29 3e a3 43 8e be
       -0.12077789 0.07642674 0.16591267 -0.27785978
000200 2a 2a 65 be ab 63 c0 3e fe f6 5a bd 91 a9 89 bc
       -0.22379366 0.3757604 -0.053458206 -0.016804488
000210 26 15 78 be ce a8 04 3d ec ab 85 3e 3c e5 11 3e
       -0.24226817 0.032387547 0.26107728 0.14247602
000220 cf 0d dc 3e 85 41 b3 bd af e0 1a 3e 96 2f ab 3d
       0.42979285 -0.08752731 0.15124772 0.08358686
000230 76 35 a8 3e 30 60 58 3e 80 5d e6 bd 4c aa fb 3d
       0.32853287 0.21130443 -0.112483025 0.12288341
000240 93 51 8c 3e 40 86 1f be 97 5c b1 be 89 98 b4 3d
       0.27405986 -0.15578556 -0.34640953 0.08818156
000250 82 b0 fb bd 90 f1 8c be 68 17 92 bd 78 7d 07 bf
       -0.122895256 -0.27528048 -0.07133371 -0.52925825
000260 15 fd 2a be 3d d2 80 3e bb 4c ae be 4f 67 28 3e
       -0.16698106 0.251604 -0.34042916 0.16445659
000270 86 03 d4 3e 31 de 86 be ef 92 9d be 30 58 cf bd
       0.41408938 -0.26341394 -0.30776164 -0.10124242
000280 32 09 b5 3d ad b0 49 bc 9b e7 29 3e 9f 24 1f bc
       0.088396445 -0.012310189 0.16592257 -0.009713321
000290 fc e1 8d 3d 67 59 50 3e 13 b1 09 be c8 ca 72 be
       0.06927869 0.20346604 -0.13446455 -0.23710167
0002a0 8d af 26 be 7b 0a 63 3c aa 7a 99 be 1f 3d 83 3e
       -0.16277905 0.013857479 -0.29976398 0.2563257
0002b0 e5 73 d3 3e f7 bb d7 3c fb b4 82 bd 62 eb 3b 3e
       0.41299358 0.026334746 -0.063821755 0.1835151
0002c0 f4 f1 bb 3c 7f 37 b2 bd 9c b2 e4 bc 4d 52 1d be
       0.02294252 -0.08701991 -0.027917199 -0.15363427
0002d0 32 58 a8 be c6 9a c1 3d 65 3e 18 3f da 91 5e 3e
       -0.32879788 0.09453349 0.59470206 0.21735325
0002e0 e1 dc 7b 3e 46 a5 b2 3d 26 37 f9 3c 2f fd e9 3e
       0.24595977 0.0872293 0.030421805 0.45700976
0002f0 70 e2 0b 3c 42 7a 03 3e 86 d3 9c 3c 41 ab be 3e
       0.008537874 0.12839606 0.019143831 0.3724003
000300 a1 c2 46 3e 57 92 1d 3d 0b 09 47 3e 9f 95 25 3d
       0.19410183 0.03846964 0.19437043 0.040425893
000310 27 67 07 3f 00 2a 39 bd 28 47 be bd 0a 2b 60 3d
       0.52891773 -0.04520607 -0.09290916 0.054728545
000320 36 eb d6 3d 12 14 15 be 89 6e 0e bd ed 08 16 be
       0.10494082 -0.14558437 -0.034773383 -0.14651842
000330 86 4c b0 be 14 25 83 3e 48 26 a7 bd 6c 40 f9 bd
       -0.34433383 0.25614226 -0.081615984 -0.121704906
000340 c0 f0 9b bc 12 43 59 3e 67 37 91 3e 0b 1d b1 3e
       -0.019035697 0.21216992 0.2836258 0.3459247
000350 d1 fc 14 be c6 c2 81 bd 41 c4 a8 3e cc e1 34 3e
       -0.14549567 -0.06335978 0.3296223 0.1766426
000360 3b e4 a9 be 1e 14 7b 3b c8 ab 14 3d c3 4f db 3e
       -0.3318194 0.0038311551 0.036296636 0.4283429
000370 91 b2 93 bd 13 67 91 bd 9f eb ac 3e 6c 54 79 bc
       -0.07211793 -0.07099738 0.33773515 -0.015217882
000380 1b e9 30 3b 88 40 4a be 30 54 31 3d f8 ed 86 3c
       0.002699441 -0.19751179 0.043293178 0.016470894
000390 be 8d 81 be a8 d2 f2 3d ef 30 23 3d fc aa 50 3e
       -0.25303453 0.11856586 0.03984159 0.20377725
0003a0 ff 53 3b 3e 93 86 9f 3e 0c 27 2a 3e 6a de 8f 3c
       0.1829376 0.3115736 0.16616458 0.01756211
0003b0 4e 60 40 3e 96 1a 87 3e b6 5b a8 bd 21 03 be 3d
       0.18786737 0.2638747 -0.082206175 0.092779405
0003c0 ca 48 11 3d 40 4c 1e 3e b2 d8 40 bd 1c 46 49 be
       0.035469808 0.15458775 -0.047081657 -0.19655651
0003d0 12 24 f5 3d de 54 ac 3d 79 7d 22 3e 8a 6a 9a bd
       0.119697705 0.08414625 0.15868177 -0.07539852
0003e0 a6 c2 93 bd 17 65 33 be f0 ec 1c 3e 1a 26 5f 3c
       -0.072148606 -0.17519031 0.1532476 0.013619924
0003f0 7c 96 2c bd 11 36 ff bc c6 19 08 be 7a 31 f0 bc
       -0.0421357 -0.03115371 -0.13291082 -0.029320467

conv3.bias f4 [32]
000000 ca 3a 84 bc 06 4b ec bc 82 cc 3e 3d 68 84 b5 3d
       -0.016141314 -0.028844368 0.046581753 0.08863145
000010 14 79 15 3e 25 f5 e1 bd ba 23 68 3d 3c 4e 7a 3d
       0.14596969 -0.11033086 0.056674697 0.061109766
000020 d2 d0 ef 3c 3e 19 5f bc 66 94 62 bd 5c 39 92 bd
       0.029274378 -0.013616858 -0.055317305 -0.07139847
000030 e3 a4 8f bc 2b 62 17 bd 49 28 0a 3d 00 69 53 bd
       -0.017534679 -0.036958855 0.033729825 -0.051613808
000040 92 ac c1 bb 07 28 22 bd fd 80 f8 3b 51 a7 c4 3b
       -0.0059104646 -0.039588954 0.007583736 0.006001391
000050 a0 2c bd bd c0 16 09 bb 0f 2d 06 3b 4c b4 64 bd
       -0.09237027 -0.00209181 0.0020473634 -0.055836007
000060 58 1f 93 3d c9 e1 07 be 17 91 40 bd e7 2d 1c bd
       0.07183713 -0.13269724 -0.04701337 -0.038129713
000070 3a 19 1e 3d 69 4c d8 3b d2 f4 b8 bc a8 c1 03 3b
       0.038598277 0.0066009057 -0.022577677 0.0020104442

bn3.weight f4 [32]
000000 0f a0 61 3f 2d f0 57 3f 07 4a 7b 3f c3 43 9a 3f
       0.88134855 0.84350854 0.9815983 1.2051929
000010 15 24 7b 3f 36 ce 65 3f 65 8c 49 3f b8 8a 6f 3f
       0.9810193 0.8976778 0.7872985 0.93571043
000020 a2 1d 71 3f 6f dc 43 3f 15 34 60 3f 2d d2 87 3f
       0.9418584 0.7650823 0.8757947 1.0611016
000030 66 df 97 3f 94 c4 64 3f c3 85 95 3f e9 f8 97 3f
       1.1865051 0.89362454 1.1681446 1.1872836
000040 6d ee 5f 3f a9 7d 90 3f 28 13 8a 3f f4 46 94 3f
       0.87473184 1.1288348 1.0787096 1.1584153
000050 16 8e 22 3f ec c6 8e 3f c5 5d 91 3f 19 ff 58 3f
       0.63498056 1.1154456 1.1356741 0.8476425
000060 08 0a 38 3f a7 5c 81 3f 60 43 81 3f 71 73 6b 3f
       0.71890306 1.01064 1.0098686 0.91973025
000070 e7 80 85 3f 1d 3e 70 3f 9a 68 79 3f 19 a1 95 3f
       1.0429963 0.9384478 0.97425234 1.1689788

bn3.bias f4 [32]
000000 bc ab 95 be 9b 20 38 bf 75 86 fd bd 58 3e cb be
       -0.29232585 -0.7192475 -0.12379161 -0.39696002
000010 6b c4 82 be b3 25 94 be 31 fa 17 bf a4 fa 15 bf
       -0.2554048 -0.28935012 -0.59366137 -0.5858557
000020 f3 5e 6c be 13 46 93 be f7 8c da be 90 f1 26 be
       -0.23083095 -0.287644 -0.42685673 -0.16303086
000030 17 cf 89 be 38 c0 02 bf 7f 68 ca be 02 12 07 bf
       -0.2691581 -0.5107455 -0.3953285 -0.5276185
000040 e1 3e 4b be 63 44 ca be ea 6d 8a be 29 e6 b9 be
       -0.19848205 -0.395053 -0.27036983 -0.3630841
000050 c4 ad ea be 89 2c d0 be c8 72 88 3d 9f 8d 5e bf
       -0.45835698 -0.40658978 0.06662518 -0.86934847
000060 06 b4 38 bf 61 33 b9 be c1 34 9c be 01 33 0d bf
       -0.72149694 -0.36172011 -0.30508998 -0.5515595
000070 5b 1a dc be 51 4d d0 be 59 61 dd be 6e d7 f0 be
       -0.42988858 -0.40683988 -0.43238333 -0.4703936

bn3.running_mean f4 [32]
000000 53 c3 3d 40 05 42 da 3f 7a a2 1d 3f cd d1 2e c0
       2.9650466 1.7051398 0.61576045 -2.7315552
000010 c6 89 07 bf 6e ba 8f 3c f7 4d 2d 3e 41 05 05 be
       -0.529446 0.017544951 0.16924272 -0.12990285
000020 f3 f8 7a 3e 81 07 91 bf b1 fc d5 3f 03 22 d0 bf
       0.24509029 -1.1330415 1.671774 -1.626038
000030 b0 d9 20 c0 ab 13 68 be 77 71 9e c0 76 f3 5e c0
       -2.5132866 -0.22663753 -4.9513507 -3.4836097
000040 6b 13 26 c0 28 70 08 3e 39 9b 0b bf c9 31 d9 bf
       -2.5949352 0.13324034 -0.54533726 -1.6968318
000050 c5 35 17 40 1f d4 6d bf ec 62 1e c0 c0 e7 19 bf
       2.3626568 -0.92901796 -2.4747877 -0.6011925
000060 8b 9d c0 3f 61 22 ce bf 52 df 7d be 34 b9 ec 3f
       1.5048078 -1.6104242 -0.24792221 1.849402
000070 e5 5d a3 bf 51 75 a9 3e 84 85 81 bf 1d 52 5c bf
       -1.2763029 0.33097318 -1.0118871 -0.86062795

bn3.running_var f4 [32]
000000 e3 8b ef 40 b3 cd 02 41 cd 2a c9 40 31 32 46 41
       7.485826 8.17522 6.2864747 12.387254
000010 7f f1 b0 40 36 69 07 41 a9 7f bc 40 6e 2b ce 40
       5.5294795 8.463186 5.8905835 6.4428015
000020 cc a9 13 41 07 1b b1 40 83 b9 00 41 ec 26 25 41
       9.228954 5.534549 8.045291 10.322002
000030 6a 87 4f 41 3c be f4 40 8f ec 6c 41 3b 6b 31 41
       12.97056 7.648222 14.807754 11.088679
000040 58 ac 39 41 ba 91 ac 40 69 ba be 40 97 43 dd 40
       11.604576 5.392789 5.960255 6.9145007
000050 39 8d 0c 41 92 26 09 41 60 94 19 41 95 f7 c9 40
       8.784478 8.571917 9.598724 6.3114724
000060 ee 38 cd 40 06 32 bf 40 9c d2 1a 41 38 16 c8 40
       6.4131994 5.9748564 9.676418 6.2527122
000070 bb c0 ec 40 b2 60 62 41 da 75 de 40 ec 1d 66 41
       7.3985267 14.148607 6.951886 14.382305

conv4.weight f4 [32, 32, 3, 3]
000000 9e 0d 66 be 01 af 98 3d ca 9e 86 3e 30 90 d4 bd
       -0.22466132 0.07455254 0.2629302 -0.10379064
000010 07 85 ff bb 1c b6 9a 3e 3f 6b 25 be 7d f8 24 bd
       -0.0077978405 0.30217063 -0.16154192 -0.04027604
000020 53 0b 36 be 4a c6 04 be 6d 9f f7 3d 44 40 ba 3e
       -0.17777757 -0.12966266 0.12090955 0.36377156
000030 3b 2e 3d bd 35 69 c3 3d 2b 67 7f 3e 12 c8 03 3d
       -0.046186667 0.09541551 0.24941699 0.032173224
000040 b8 3c 1e 3e 91 f1 59 3d f4 a4 09 be eb 53 22 3e
       0.1545285 0.05320889 -0.13441831 0.15852325
000050 43 8a 69 bd 6e 08 46 3d a6 e5 41 3e 6e 02 b1 3d
       -0.057016622 0.048347883 0.1893526 0.086430416
000060 8a 54 47 be 4d 85 1d 3e 12 56 ce be 4f 41 9f 3e
       -0.19465843 0.15382881 -0.4030004 0.31104514
000070 bc 4c 85 3e 80 dc 38 be 67 95 2b 3d 12 6b d4 3c
       0.26035106 -0.18052864 0.041890528 0.025929961
000080 95 dc 93 bd df b1 82 3d 69 d4 e3 bd ee 8f ff 3d
       -0.07219807 0.063815825 -0.111244984 0.12478624
000090 90 fa 87 be 91 3d 3c 3e d5 d9 05 be 29 1a bf b9
       -0.26558352 0.1838286 -0.13071378 -0.0003644985
0000a0 35 73 6d 3e d3 1f ba 3d b4 ea 60 be 3f ea c7 bd
       0.23188479 0.09088101 -0.21964532 -0.09761476
0000b0 7a 3d c7 be 59 32 0d 3e 3d 7d 18 be 3d ee 38 be
       -0.3891409 0.13788737 -0.14891525 -0.1805963
0000c0 65 a9 64 3e 68 eb 19 bc c9 73 5a 3e 25 11 07 3e
       0.22330244 -0.009394504 0.21333231 0.13190134
0000d0 0b b9 1b be 27 73 56 3e 7d df 85 bd 00 ea 70 bd
       -0.15207307 0.20942365 -0.06536768 -0.05881691
0000e0 9d 9b 84 be 57 7a 3d be f3 13 17 3e 8c 2f 9e 3e
       -0.25899974 -0.185037 0.14753704 0.3089565
0000f0 0d cb 58 be 2a b4 a0 3a 75 eb 00 be dc 7a 0c 3f
       -0.21171208 0.0012260724 -0.1258982 0.5487497
000100 65 3d 2e 3c e0 44 0a be 01 45 bf be e5 59 d7 bd
       0.010634755 -0.13502836 -0.37357333 -0.10515193
000110 3b 1e 95 bd 22 24 9a 3d 97 d0 39 3e 12 37 08 3e
       -0.07281157 0.07526423 0.18145977 0.13302258
000120 56 b2 b2 3e 98 5e 05 bd dd 3b db be 39 b9 a0 3d
       0.34901685 -0.032560915 -0.4281911 0.078478284
000130 25 84 4a 3d 13 60 e7 bd 0d af d8 3e e2 e2 12 3e
       0.04944243 -0.112976216 0.42321053 0.14344361
000140 ab 38 75 bd 8b 54 11 be 8d 0e 38 3e ca 28 30 3e
       -0.059868496 -0.14192407 0.179743 0.1720306
000150 e1 8c 80 be 06 06 40 3e 0b d3 00 3e eb 6b 68 bd
       -0.25107482 0.18752298 0.12580507 -0.056743544
000160 54 84 17 3e 22 a0 97 3d 02 47 a6 3c f0 74 fd bc
       0.14796573 0.0740359 0.020297531 -0.03093955
000170 aa d7 17 3d 19 97 8f bd eb 34 21 bd f8 5f b0 3c
       0.037070908 -0.070112415 -0.039357107 0.021530136
000180 e3 42 6b be c3 30 8f be fe ea 16 3e ef 04 5f 3d
       -0.22974734 -0.2796689 0.1473808 0.054448064
000190 41 76 3e 3e e1 88 92 3e f9 40 ff bd 76 4d b6 3d
       0.18599798 0.28620055 -0.124635644 0.08901493
0001a0 1a 20 a9 be 2e 44 fc 3d a4 58 a8 3d 36 ef 3c be
       -0.33032304 0.12317692 0.08220032 -0.18450627
0001b0 72 c6 ff bd 57 df 98 3d 38 fb dd 3d c6 a4 0f 3e
       -0.12489022 0.07464474 0.10838932 0.140277
0001c0 2b ba a6 3c 61 a9 70 bd 64 65 c3 3e 14 4e 13 bd
       0.020352444 -0.058755282 0.38163292 -0.035963133
0001d0 c1 ce a8 3a 8e ab 41 3e a2 c6 ec 3b 5f 09 81 be
       0.0012879 0.18913099 0.0072258273 -0.25202462
0001e0 94 50 7d 3e 4e 01 47 38 84 0d 2c 3d 28 99 8f bd
       0.2473777 4.7446512e-05 0.042005077 -0.07011634
0001f0 ad af c2 bd 65 5f 3e bc 1c 1a b7 3c f8 e9 9f 3d
       -0.09506164 -0.0116194235 0.022351317 0.07808298
000200 aa 81 dc be 7e 6e a2 3e 1b a8 7c bc fa b2 b2 3e
       -0.43067676 0.31724924 -0.015420939 0.34902173
000210 e3 94 bf bd a8 1b 7f 3c 81 78 12 be 3c 61 c3 be
       -0.0935457 0.015570559 -0.14303781 -0.3816012
000220 bc 37 8b bc cb f9 79 3e b8 d8 f0 bd a7 fb 84 3c
       -0.01699435 0.24411695 -0.11760086 0.016233278
000230 ca a6 14 3e 79 55 35 3e 89 e9 01 3e d3 f4 08 bf
       0.1451675 0.17708386 0.12686743 -0.5349857
000240 32 ef d4 be 31 65 a5 be c0 7c 3d be 5e f6 62 be
       -0.41588742 -0.32303765 -0.1850462 -0.22164294
000250 d8 7f b3 3c d3 4b 8b 3e 62 ff 38 bd 75 5e 62 3e
       0.021911547 0.27206287 -0.045165427 0.22106345
000260 6d 05 8f 3e cb d7 d0 3d 62 b3 3b bd 87 bf f6 ba
       0.27933827 0.10197409 -0.04582537 -0.001882539
000270 22 3e 58 be 70 3e 61 bc e9 b5 b2 be d2 ff 53 3e
       -0.21117452 -0.013747796 -0.3490441 0.20703056
000280 33 ac a6 3d a6 82 82 be 90 12 cb bd 40 c9 8f be
       0.08138313 -0.25490302 -0.0991565 -0.2808323
000290 47 9c 68 3d 69 5a 3a bc 2b 2f a9 3d 85 1f 05 3f
       0.056789663 -0.0113740945 0.0826095 0.5200122
0002a0 8e 1c b0 bd f9 d7 c3 3e 49 75 66 3e 67 c9 0f 3f
       -0.085991964 0.38250712 0.22505678 0.5616669
0002b0 1f 7e e8 bd 1d 0c 72 be b0 28 3a be 25 50 a4 3d
       -0.11352181 -0.23637433 -0.18179584 0.08023099
0002c0 dd 92 bd bd da ae 9c 3e ab 94 d0 3d 60 4b 9a bd
       -0.092565276 0.3060215 0.10184606 -0.07533908
0002d0 46 91 5f 3e e8 43 a5 be cb 88 08 3f 5e e6 c6 3e
       0.21832761 -0.3227837 0.5333373 0.3884763
0002e0 3a c1 99 3d ad f7 95 bd 9b b1 87 3e 4e 21 c2 3e
       0.07507558 -0.07322631 0.2650269 0.37916034
0002f0 10 4f c0 3e a0 11 2a be 1f 3b 38 3e 4c 9a 13 3f
       0.3756032 -0.16608286 0.17991303 0.57657313
000300 4c 9b ad bd d1 65 07 3d e8 e3 0b be b2 2f 48 be
       -0.08476886 0.033056084 -0.13661158 -0.19549444
000310 88 11 c5 3d 60 57 28 be 3a ff 55 3e 4a fc 3d bd
       0.096224844 -0.16439581 0.20898142 -0.04638318
000320 ab 25 1c 3e 4a ce 42 be cc db 8d be e1 4a f5 bd
       0.15248744 -0.19024006 -0.27706754 -0.11977173
000330 2f 29 a6 bb dd c9 ca bd c0 f3 1f 3e 74 b1 b0 3d
       -0.0050708274 -0.099017836 0.15620327 0.086275965
000340 9d 27 cb 3d fc dc 98 3d 86 3d 0b 3e 71 2c e2 3d
       0.09919665 0.074640244 0.13597688 0.11043633
000350 01 a4 8e bd 04 31 c2 3b 89 23 e9 3d 36 02 88 bc
       -0.06964875 0.0059262533 0.11383731 -0.016602617
000360 86 d1 dc 3d 02 66 d6 be 55 41 dd 3e 42 41 62 3e
       0.10782151 -0.418747 0.43213907 0.22095206
000370 bd 25 46 3e 3f 3b bc 3d 07 61 e4 bd ac 99 60 3e
       0.19350334 0.09190988 -0.11151319 0.21933621
000380 c1 be 84 3e 6f f5 9d 3d 46 13 b7 3d 43 97 2a be
       0.25926784 0.07712828 0.08939223 -0.16659264
000390 d0 19 62 bc 48 a0 e9 3d c0 f4 eb bc fb 78 58 3e
       -0.0138000995 0.11407524 -0.02880323 0.211399
0003a0 de 9d 8c bd 7a 58 a6 bd 50 85 a2 3d cb c2 9f 3b
       -0.06866048 -0.08122344 0.079355836 0.004875516
0003b0 c1 b8 e8 be 3e 80 df bd 5f 91 af 3e d7 6d 34 be
       -0.45453456 -0.10913132 0.34290597 -0.17620026
0003c0 5d d0 01 bd a8 aa 6a bc f6 37 50 3e c6 93 33 3e
       -0.03169285 -0.014322914 0.20333847 0.1753684
0003d0 28 fc f4 bd ae 63 be 3e 40 bf 30 be 9c f2 62 bd
       -0.119621575 0.37185425 -0.17260456 -0.05540715
0003e0 ee cc ab be 73 b7 f6 3d d1 4c 5c bd 13 78 9b be
       -0.33554786 0.12046709 -0.053784195 -0.30365047
0003f0 56 72 a1 3e b3 85 67 be 80 70 80 bd 13 3c 9c 3d
       0.31532544 -0.22609596 -0.06271458 0.07628646

conv4.bias f4 [32]
000000 d8 bd 78 bc 99 a4 8d 3c c7 c8 77 3d 74 7f 62 bd
       -0.015181981 0.0172904 0.06049421 -0.05529733
000010 d3 b8 48 bd d8 39 0e bc 35 59 b1 bc f9 90 40 3d
       -0.049004387 -0.008680783 -0.021648983 0.047013257
000020 86 22 d6 3c 3c f7 6f bb 6b 4e 05 3d e4 08 0c 3c
       0.026139509 -0.003661587 0.03254549 0.008547042
000030 be 2e 1c bc bb a5 b6 3c 68 f8 b2 bb 9e 54 b1 bc
       -0.009532629 0.022295823 -0.0054617412 -0.021646794
000040 97 ce 8a 3d e0 53 c2 bc 9c 0a 36 3d 69 98 d1 3c
       0.06777685 -0.023721635 0.04444371 0.02558537
000050 5f 13 a8 3a 75 9e 8d 3d 29 65 54 bd 31 ce ac bb
       0.0012823156 0.06914989 -0.051854286 -0.0052736034
000060 ea df 3a 3b c3 8c 26 3d f8 d6 b4 bc b7 56 5b bc
       0.002851481 0.040661585 -0.022075161 -0.013387374
000070 50 ed 29 3d 85 ba a1 3c a2 79 b0 bc ad 73 19 3c
       0.041486084 0.01974226 -0.021542374 0.009365958

bn4.weight f4 [32]
000000 17 7a 9a 3f 2b ba a2 3f 52 f1 9b 3f 79 64 9e 3f
       1.2068509 1.2713064 1.218302 1.2374412
000010 73 66 99 3f 37 63 91 3f 53 4d 83 3f e2 d9 5d 3f
       1.198439 1.1358403 1.0257972 0.8666059
000020 23 e3 59 3f c2 3b a0 3f eb 65 85 3f fb 4d 6e 3f
       0.8511221 1.2518237 1.0421728 0.9308774
000030 b9 03 8c 3f fe dd 54 3f 65 6a a5 3f 5f 11 86 3f
       1.0938636 0.83151233 1.2923094 1.0474051
000040 9a 51 a3 3f 73 15 7e 3f df da 89 3f 44 19 8f 3f
       1.2759278 0.9925148 1.0769919 1.1179585
000050 35 41 90 3f 2f fa 74 3f 54 ad 8c 3f 16 8f 67 3f
       1.12699 0.9569425 1.0990396 0.90452707
000060 a2 38 a3 3f a3 78 84 3f a5 c4 9f 3f 65 df 94 3f
       1.2751658 1.0349315 1.2481886 1.1630675
000070 c4 73 86 3f 5e af 8d 3f 43 1b 8f 3f 48 36 9a 3f
       1.0504079 1.1069143 1.1180195 1.2047815

bn4.bias f4 [32]
000000 20 93 de be a0 4a 18 bf d5 ba aa be 91 f6 8b be
       -0.43471622 -0.5948887 -0.33345667 -0.27336553
000010 eb 0d ac be 7c 63 83 be 6f 6d e5 be 0c 35 0c bf
       -0.3360437 -0.25661838 -0.44810054 -0.54768443
000020 b9 4d fe be f9 c1 c9 be 78 69 ae be 5e ee 86 be
       -0.49668673 -0.39405802 -0.3406484 -0.26353735
000030 3e 9d 90 be ce 82 bc be 7f 8d 1d bf d3 cc 8c be
       -0.28244966 -0.36818546 -0.6154403 -0.27500018
000040 0e 50 99 be 1e 74 ef be 33 ee 10 bf 81 a9 e2 be
       -0.2994389 -0.46768278 -0.56613463 -0.44269946
000050 d8 41 c3 be ed 3e 32 be 8b 3c 9b be ee 15 f0 be
       -0.38136172 -0.17406817 -0.30319628 -0.4689173
000060 5a a5 02 bf c3 73 c2 be 3b 26 01 bf 4b 5f 1a bf
       -0.51033556 -0.37978944 -0.5044896 -0.60301656
000070 71 53 0f be 73 99 fb be 97 89 cb be d2 ea 86 be
       -0.13996674 -0.4914051 -0.3975341 -0.2635103

bn4.running_mean f4 [32]
000000 fa 53 8f 3f 31 d8 1f 40 d5 5b 69 c0 f3 d4 2c 3f
       1.1197503 2.4975703 -3.64623 0.67512435
000010 89 6d c4 3f 55 89 6a be aa 50 91 c0 3d 3b 73 bf
       1.5345927 -0.2290395 -4.5410967 -0.95012265
000020 65 c0 d8 c0 db 17 a6 be f5 83 e8 bf 46 74 00 3f
       -6.7734857 -0.32440075 -1.816527 0.5017742
000030 fd 99 db c0 c6 58 33 c0 fa 99 c7 bf b1 b7 ec 3f
       -6.8625474 -2.8022933 -1.5593865 1.8493558
000040 a8 c6 0e 40 65 ba 76 bd 2b 5e 31 be 43 cb 8d 40
       2.230875 -0.060236353 -0.17321078 4.431062
000050 12 48 72 40 66 9e f3 c0 f0 a2 5d 40 31 e5 16 c0
       3.7856488 -7.6130857 3.46307 -2.3577387
000060 5b 51 a9 40 59 06 38 bf 1c 8a bb 40 55 46 f9 3f
       5.291181 -0.71884686 5.860609 1.9474589
000070 22 c0 aa bf 94 c1 c8 40 fa c7 3d 40 72 e7 2e c0
       -1.3339884 6.27363 2.9653306 -2.7328763

bn4.running_var f4 [32]
000000 2f 17 18 41 3d 0d 21 41 0c e7 8a 41 4a 54 38 41
       9.50566 10.065732 17.362816 11.520578
000010 14 b2 7e 41 e4 3f 04 41 a3 c7 2c 41 15 1d 52 41
       15.918476 8.265598 10.798739 13.1321
000020 c9 e3 48 41 b3 bc 66 41 d8 3c 5a 41 1f b9 80 41
       12.555612 14.421069 13.639854 16.090391
000030 bd 48 9b 41 eb ee 6b 41 34 a1 46 41 c0 84 5f 41
       19.410517 14.74583 12.414356 13.96991
000040 32 c5 2d 41 fd 37 69 41 a0 94 57 41 82 3c 55 41
       10.860643 14.576169 13.473785 13.327272
000050 f9 9c 4b 41 b1 90 ee 41 4f d2 9a 41 a8 73 29 41
       12.725823 29.82065 19.35269 10.590736
000060 0f 83 53 41 c1 35 34 41 90 7e 4f 41 65 de 74 41
       13.219497 11.2631235 12.968399 15.304296
000070 01 ef 44 41 8e d8 67 41 8a b0 62 41 35 d8 5d 41
       12.308351 14.49037 14.1681 13.865285

fc1.weight f4 [48, 128]
000000 89 2f a2 3d c5 09 29 3e a0 5d a9 3d a2 38 ad 3c
       0.07919223 0.16507633 0.08269811 0.021145169
000010 71 61 67 3d bf b8 5e bc dc e6 de 3e 0b 2d b0 bd
       0.05648941 -0.013593852 0.43535507 -0.08602341
000020 d9 25 b9 3d a4 b1 2e be 7e 8f 10 bf 0b f6 b6 be
       0.09040422 -0.17059952 -0.5646895 -0.3573459
000030 da 91 10 be d1 0a ef bd 3b 0f 98 3d 86 7b b4 3e
       -0.14118138 -0.11671985 0.0742478 0.3525049
000040 09 31 08 3e 04 e4 21 be cb fa 86 3e 54 c0 0b be
       0.13299955 -0.15809637 0.26363215 -0.13647586
000050 6f 38 7a 3d 63 2a 91 be 9b 6a 87 3e 76 64 55 3e
       0.061088976 -0.2835265 0.2644852 0.20839104
000060 c4 01 da be 87 be 01 be 10 b1 d9 be 2d 08 ff be
       -0.42579472 -0.12670337 -0.425179 -0.49810925
000070 ab 2b ef be 3a 4c f1 3d 39 49 1a bf d6 ff 9a bc
       -0.46713004 0.11782117 -0.6026798 -0.01892082
000080 7f bf 6e 3e 98 a6 e2 bd 97 ef 9c be b9 b4 d8 bd
       0.23315237 -0.110669315 -0.30651543 -0.10581345
000090 ba 43 48 be 5c b9 44 be 0d 5a 2d 3e 2d 13 b9 be
       -0.19557086 -0.19211334 0.16928883 -0.36147442
0000a0 65 93 29 be a1 31 5b 3e f1 52 f0 3d a5 7e 88 bb
       -0.16560133 0.2140565 0.1173457 -0.004165488
0000b0 ff 15 a7 be ab e4 e3 3c 73 26 8f be e2 19 20 be
       -0.3263397 0.027818998 -0.27959022 -0.15634874
0000c0 c1 86 76 3e ff c4 29 be da 85 0b bf 0d 74 44 bf
       0.24074842 -0.16579054 -0.54501116 -0.7673958
0000d0 dc 73 5d be e0 57 5f be 77 42 33 bf 43 c5 b4 be
       -0.21626228 -0.21810865 -0.7002329 -0.3530675
0000e0 98 af db 3d b3 d7 28 be 14 12 81 3e 00 e6 d0 be
       0.10726851 -0.16488533 0.25209105 -0.40800476
0000f0 96 ef fd bc 12 2b 84 3e f0 56 9f 3e 9d 9a 0c 3e
       -0.030998033 0.2581411 0.31121016 0.13730855
000100 b7 1e d5 3d 37 6a 2c 3e c2 ef 56 bd 23 a1 f8 3d
       0.10406249 0.16837393 -0.052474745 0.121401094
000110 e2 d6 93 be e2 8d 1f 3d 11 bf 46 bd d1 52 ce 3d
       -0.2887488 0.03895367 -0.04852206 0.1007439
000120 97 99 80 be 2e 0c 22 be b2 f6 b9 be 5c 71 ee be
       -0.2511718 -0.15824959 -0.36321026 -0.4657086
000130 eb 54 2b be e1 84 14 3c b3 e8 c0 bd fe 5b a5 bd
       -0.16731612 0.009064884 -0.09419384 -0.08074187
000140 a0 d9 7e 3e 9d 59 75 3e 79 b7 e1 3d 61 7c 8f bd
       0.24887705 0.23959966 0.11021323 -0.07006145
000150 dd 79 06 3d be ff 92 bd 69 62 dc be a0 87 ee bd
       0.03283106 -0.07177685 -0.4304383 -0.11646962
000160 07 e5 9d be 8e 57 06 bd 70 10 13 be 65 b3 6a be
       -0.30838796 -0.032798342 -0.14361739 -0.22919996
000170 2c 63 7b bd 3c 79 5d be fa be ca 3d c4 05 2a bd
       -0.061373875 -0.21628278 0.09899707 -0.041509405
000180 00 8b 5a 3d a8 52 35 3d 2a 79 df 3e f4 b6 bb 3e
       0.053355217 0.04426828 0.43647128 0.3666302
000190 68 ef a6 3c 2a 48 6c bd 06 7d ef bc 37 b5 6e 3d
       0.02037783 -0.05768601 -0.02923442 0.05827829
0001a0 e4 b3 8b 3e cd 10 d1 3d 31 15 a2 3e 03 bd 37 3e
       0.27285683 0.102082826 0.31656793 0.17943196
0001b0 c3 b2 03 be 0c a4 72 3d 7d 0d 9b 3d 3b e7 97 be
       -0.12861161 0.05923848 0.07570932 -0.29668602
0001c0 88 ec a5 bc 2b e7 ca bd 70 2e 36 3e 35 8e 6f 3e
       -0.020254388 -0.09907373 0.17791152 0.23394091
0001d0 45 f5 a7 3d 20 48 ce 3d 16 0d 16 3e 16 15 d7 bd
       0.08201078 0.100723505 0.1465343 -0.10502069
0001e0 62 da db 3d c6 58 07 3e 72 15 0a 3f 0a d0 0d 3c
       0.107350126 0.13217458 0.5393897 0.008655557
0001f0 13 4e 18 bf 19 9d 0b be dc d2 8f be 14 7b 4c be
       -0.5949413 -0.13634147 -0.2809056 -0.19968826
000200 0e 86 2a 3e 6d 5c 22 3e 17 ea 85 be 3a 6c ca be
       0.166527 0.1585557 -0.2615516 -0.39535695
000210 d3 af 12 3e ca c9 73 3e 24 69 e4 bb a8 e7 3a 3d
       0.14324884 0.23807445 -0.0069705416 0.04563108
000220 3c c2 41 be 73 4b 94 bd cf 34 83 3d 22 f0 6e 3b
       -0.18921751 -0.07240953 0.06406557 0.0036459048
000230 d2 09 9b 3c f7 b6 ab 3d 06 84 c5 bd 72 5e 83 3d
       0.018925581 0.08384507 -0.09644322 0.064144984
000240 e5 78 64 3e b8 26 79 bb 7b b0 4c be 2c 60 35 bd
       0.22311743 -0.0038017463 -0.19989197 -0.04428117
000250 4a a7 44 3e 04 2c d6 bd 24 b4 1e 3e 84 c0 34 be
       0.1920444 -0.10457614 0.15498406 -0.17651564
000260 44 d8 3f be 0a 25 4f bc f9 3e 9d 3d a4 98 e3 bc
       -0.18734843 -0.012643108 0.07678027 -0.027782746
000270 16 15 b6 3d 43 fc 0a be b1 94 d2 bd 9b 89 4f 3d
       0.088907406 -0.13572793 -0.10282267 0.05066834
000280 dd 80 20 be 0a c7 f5 3d 05 78 a8 bc 8c 06 4f bb
       -0.15674157 0.12000854 -0.020565042 -0.0031589596
000290 8a 3d ee 3d 74 86 ae be b6 74 06 3e ed b5 e4 3d
       0.116328314 -0.34086955 0.13130459 0.11167512
0002a0 2d 58 8b 3e d9 c3 9b 3e 3b 62 c5 3b 49 78 be bc
       0.2721571 0.30422857 0.006023673 -0.023250716
0002b0 4b ba 8f be bb 05 8f be d4 91 34 3e 66 73 2f 3d
       -0.28071818 -0.2793406 0.17633754 0.042834662
0002c0 20 d9 b6 be b8 cc 21 3d 69 d2 10 3e 61 c4 7a 3e
       -0.35712528 0.039501876 0.14142765 0.24488975
0002d0 be 8c 39 3e ac f9 79 3d d9 4b 1c bd 9a 25 a5 bc
       0.18120095 0.06102912 -0.03815827 -0.020159531
0002e0 b9 6c 2d 3b cf 89 3f 3d cc 9f d5 3d 0d 6c e7 bd
       0.0026462509 0.046762284 0.104308695 -0.11299906
0002f0 9e 99 d4 3d 66 88 2f 3d 44 26 8b bd 19 9a a9 ba
       0.10380863 0.04285469 -0.06794408 -0.0012939601
000300 d4 9e 20 3d 6a 92 32 bc c8 20 b0 3d bb 38 8a be
       0.03921397 -0.010899166 0.086000025 -0.26996407
000310 28 59 0d 3d 19 06 41 3e 21 45 3d 3e 3b 34 8c bd
       0.034508854 0.18849982 0.18483402 -0.068459
000320 3f b8 d6 bd 39 1b 5f 3e a4 cd 0f be 67 4f 05 3e
       -0.10484361 0.21787728 -0.1404329 0.13018571
000330 41 e4 c4 be 0a df 1b be 77 80 dc bc 84 7a 85 bc
       -0.38455394 -0.15221801 -0.026916726 -0.016293772
000340 ab 44 ca bd c8 d0 48 be 43 1f 88 bd af 8b 58 be
       -0.098763786 -0.19610894 -0.06646588 -0.21147035
000350 dd f1 06 bd 54 b1 e1 3d 97 ef cd 3d cf 60 68 3e
       -0.032945503 0.11020151 0.10055464 0.2269318
000360 f5 8e a1 be fb 1e 8e be d9 d7 52 3e 1d d3 0f bd
       -0.3155438 -0.2775801 0.20590152 -0.035113443
000370 1c 41 b8 3e ac 88 a5 3e 39 c1 ba 3c 16 d0 5e 3b
       0.35987175 0.32330835 0.022797214 0.003399854
000380 12 1c 30 be c0 10 35 3e 11 53 b1 be db 39 fd be
       -0.17198208 0.17682171 -0.34633687 -0.49458203
000390 ae d5 df bc af 99 97 be 50 74 4e 3e d3 4d dd ba
       -0.02732357 -0.2960944 0.20161557 -0.0016884155
0003a0 e0 f6 4b be 66 9a 9b be 1a 26 02 be 63 43 5b be
       -0.19918394 -0.30391234 -0.12709847 -0.21412425
0003b0 4a e8 92 be 27 30 39 bc 5a a5 47 be f1 13 a1 bd
       -0.28692847 -0.011302984 -0.1949667 -0.07865132
0003c0 d0 30 4c 3e 45 17 5b 3d 3d 54 da 3d 92 83 09 3a
       0.19940495 0.05348899 0.106605984 0.0005245741
0003d0 ba bf 07 bf 97 df bb bd c1 77 f7 be e7 7f 59 be
       -0.53026927 -0.09173506 -0.48333552 -0.21240197
0003e0 55 d3 43 3d a6 a3 dd bd 89 2f f0 bc a5 7c 81 3d
       0.047808964 -0.10822229 -0.029319542 0.06322602
0003f0 f9 cd 58 be 10 99 66 be 4c 8c 9f bc 2b 42 f2 bd
       -0.21172322 -0.22519326 -0.019476078 -0.11829027

fc1.bias f4 [48]
000000 63 b8 ca bd 3c fa 03 3e c4 03 4d 3e fc 8d 2a 3e
       -0.0989845 0.12888426 0.20020968 0.16655725
000010 c9 8c 37 bd 48 25 ea bd 3e fa 1c be 6b 89 5a bd
       -0.044811998 -0.11432892 -0.15329835 -0.05335371
000020 cc e1 14 be 25 a7 19 3d b2 00 0f bd 68 14 3c 3d
       -0.1453926 0.037512917 -0.034912772 0.0459179
000030 b0 fd 81 3c d9 0a b4 bc de 26 bb bd 90 bc 46 bc
       0.015868038 -0.021977829 -0.09138273 -0.012129918
000040 64 86 0b 3c c6 66 17 be 4e 65 a0 3d d0 6a e7 bd
       0.008515928 -0.14785299 0.07831822 -0.1129967
000050 80 c1 67 3d cb 1c 26 3e b8 6a 20 3e 81 eb 1b 3e
       0.05658102 0.16221921 0.1566571 0.15226556
000060 2f 79 87 bc 24 56 28 3e ac 0f e9 bd 61 be 06 bd
       -0.016537277 0.1643911 -0.11379942 -0.032896403
000070 2c db c9 3b f1 0a 02 be fd d8 29 3d e1 34 c8 3d
       0.0061601605 -0.12699486 0.0414667 0.09775711
000080 82 c1 d7 bd 0e 92 55 3e 84 3d a1 3d ed f1 d8 3d
       -0.105349556 0.20856497 0.07873061 0.10593019
000090 df 1d fb bd 64 8a 19 be 09 99 78 3e 1a ce 7b 3d
       -0.12261557 -0.14994198 0.24277128 0.06147585
0000a0 20 fa 5d bd e8 51 d9 bd 47 20 36 be 39 83 4f ba
       -0.054193616 -0.106113255 -0.1778575 -0.0007915977
0000b0 09 64 b6 3d 4c 75 b9 bd 88 a8 00 3d 0e 11 58 be
       0.08905799 -0.09055576 0.031410724 -0.21100256

fc2.weight f4 [1, 48]
000000 0c a4 15 bf 5b c7 27 be e4 02 14 bf 66 c6 e9 be
       -0.5845344 -0.16384642 -0.5781691 -0.45659178
000010 4d 0d 99 3e bf 6b 83 bd c5 82 99 3e 36 d8 92 be
       0.2989296 -0.06417035 0.29982582 -0.2868058
000020 86 ed ba 3e 44 65 f7 bb 84 3c 85 bc 75 d5 6a be
       0.3650934 -0.0075499136 -0.016264208 -0.2293299
000030 0d 45 bb be 0f 98 16 3f 7f 3c 6c 3b 9d 64 8a be
       -0.3657612 0.58825773 0.00360468 -0.27029887
000040 fe 7c bc 3d 75 40 01 3f 43 76 b2 be 2c 4b 06 3b
       0.09203528 0.5048898 -0.34855852 0.0020491583
000050 3c 2b 53 be c0 c5 31 be 86 9f e8 be 01 8c 89 be
       -0.20621961 -0.17360592 -0.45434207 -0.26864627
000060 ee 2b 98 bd 06 de 99 be c3 40 f2 3e 7a cc 86 3c
       -0.07430254 -0.30052203 0.47315034 0.016454924
000070 74 72 42 be 52 07 18 3f bd 6e 1f 3f 7b 71 af be
       -0.18988973 0.5938617 0.6227835 -0.34266266
000080 7e c5 ac 3e 21 47 8e be f1 7e c6 be df f9 59 be
       0.33744425 -0.27788642 -0.38768724 -0.21286725
000090 c7 3f 1b 3d 80 ff 41 3e cf 37 de be cb 88 17 bf
       0.03790262 0.18945122 -0.43401954 -0.59193105
0000a0 4d c0 c8 be 78 54 71 bd 44 b9 75 3e 36 81 7b 3d
       -0.39209214 -0.058918446 0.23996454 0.061402522
0000b0 2d a1 0b be 3e 09 8f bd c6 54 b5 be 65 52 c7 3e
       -0.13635702 -0.06984185 -0.3541624 0.3893005
