vision_models/field_detector (1).onnx (onnx, 68331 bytes, 39 tensors)

regression_decoder.linear.weight f4 [40, 18]
0	0xbe0fd0da	-0.14044514
1	0x3db80983	0.08986189
2	0xbdfe365c	-0.12412712
3	0xbe963f56	-0.29345196
4	0x3d2e5350	0.04255992
5	0x3db437eb	0.08799728
6	0x3dfc14f3	0.12308683
7	0xbe0df652	-0.13863495
8	0xbe8a679f	-0.27032182
9	0xbe8b913a	-0.27259237
10	0x3e7a3328	0.24433577
11	0xbd6a6343	-0.05722357
12	0x3d938b85	0.072043456
13	0xbd70ba27	-0.05877128
14	0x3d50be76	0.050962888
15	0xbd672508	-0.0564318
16	0xbcc455e8	-0.023966745
17	0x3dfcafbd	0.12338207
18	0xbdd03fa9	-0.10168392
19	0xbc1f740b	-0.009732257
20	0xbd9d95a7	-0.076945595
21	0xbe853fbc	-0.26025188
22	0x3d212bb6	0.039348327
23	0x3d17d009	0.037063632
24	0x3dc99463	0.09842756
25	0xbd23d430	-0.03999728
26	0xbe9e7727	-0.3095028
27	0xbe8b48ae	-0.27203888
28	0x3e6942d6	0.22779402
29	0xbca4b09c	-0.020103745
30	0x3e062487	0.13099872
31	0xbe79ce8f	-0.24395202
32	0x3e0247e9	0.12722744
33	0xbcdeae50	-0.027182728
34	0xbb9ae43e	-0.0047269156
35	0x3cf8dcf8	0.030378804
36	0xbde56f02	-0.11202814
37	0x3db28993	0.087176464
38	0xbdbecec1	-0.09316779
39	0xbe47e161	-0.19519569
40	0x3cf891ff	0.030343054
41	0xbd3ad5f3	-0.045614194
42	0x3dc15c69	0.09441454
43	0xbe02f950	-0.12790418
44	0xbe76e5c2	-0.24111083
45	0xbeaed92c	-0.34150064
46	0x3e74ed86	0.23918733
47	0x3da07704	0.078352004
48	0x3dfd6305	0.12372402
49	0xbd22816f	-0.03967422
50	0x3c98cf5b	0.018653562
51	0x3dcbbb2a	0.09947808
52	0xbc445395	-0.011982818
53	0xbe197c82	-0.14988902
54	0x3bd5e8f4	0.0065280143
55	0x3caa2edb	0.020774296
56	0xbdf0f7c2	-0.11766006
57	0xbe77e0c4	-0.24206835
58	0x3d44c0b7	0.04803535
59	0x3d8baca7	0.0682004
60	0x3db1b9e0	0.08678031
61	0xbd8050b4	-0.06265393
62	0xbe6a636f	-0.22889493
63	0xbe65737f	-0.2240734
64	0x3e35ee47	0.17766677
65	0xbd1ff213	-0.03904922
66	0x3e76719d	0.24066778
67	0xbe189869	-0.1490189
68	0xbc9d3be1	-0.019193592
69	0xbd6aa152	-0.057282753
70	0x3da0bc6c	0.078484386
71	0x3d87ecd7	0.066369705
72	0xbd7e4160	-0.062074065
73	0x3dbd1f5b	0.09234496
74	0xbddbd0b6	-0.10733168
75	0xbe5e7a60	-0.2172637
76	0x3d3c1568	0.045918852
77	0xbdc35e07	-0.09539419
78	0x3e0fc0a6	0.14038333
79	0xbdca1dc8	-0.098689616
80	0xbe5cb288	-0.2155248
81	0xbe602454	-0.21888858
82	0x3e37e9e4	0.17960316
83	0x3de3e923	0.11128452
84	0x3de9758a	0.11399372
85	0xbd11ab6b	-0.035563868
86	0xbd10a216	-0.035310827
87	0xbceb94cc	-0.028757475
88	0x3db19961	0.08671833
89	0xbe7f0695	-0.24904855
90	0xbd322384	-0.0434909
91	0x3d60ab0b	0.05485062
92	0xbd4fe8ee	-0.05075925
93	0xbe2f7909	-0.17136015
94	0x3d8b7415	0.0680925
95	0xbda7bf08	-0.08190733
96	0x3db351ef	0.08755862
97	0xbd844f00	-0.064603806
98	0xbe92f039	-0.286989
99	0xbe8f547c	-0.27994144
100	0x3e1c9748	0.15292084
101	0x3cde48a3	0.027134245
102	0x3e4582ed	0.19288225
103	0xbdb0c131	-0.08630598
104	0x3dd8e354	0.105902344
105	0x3d4ca2e7	0.049960043
106	0x3e07c9d8	0.13260591
107	0xbe1dd4fa	-0.15413275
108	0xbd8d5967	-0.06901818
109	0x3c510193	0.012756723
110	0xbdbde7c6	-0.09272723
111	0xbe179ccd	-0.14805909
112	0xbc07d28a	-0.0082899425
113	0xbb9773c1	-0.0046219532
114	0x3e685016	0.226868
115	0xbcd65252	-0.0261623
116	0xbe74f040	-0.23919773
117	0xbe650605	-0.22365578
118	0x3e3c23ec	0.18373078
119	0xbd619a8e	-0.055079035
120	0x3ca0b42d	0.019617165
121	0xbe154313	-0.14576368
122	0x3c38e53b	0.011285122
123	0x3ce96406	0.028490078
124	0x3d10a6c9	0.03531531
125	0xbc047836	-0.008085301
126	0xbe117fa8	-0.14208853
127	0x3d225cbd	0.039639223
128	0xbe04d25a	-0.12970868
129	0xbdb88ec7	-0.090116076
130	0x3d20c380	0.039248943
131	0xbcd5b7e8	-0.02608867
132	0x3e76d2e9	0.24103893
133	0xbcd650b8	-0.026161537
134	0xbe1bc6dd	-0.15212579
135	0xbe8d36a2	-0.27580744
136	0x3e128195	0.14307244
137	0x3c25dd0d	0.010123503
138	0xbd8b808b	-0.06811627
139	0xbde76641	-0.112988
140	0xbe17b522	-0.1481519
141	0x3e0d014d	0.13770027
142	0x3e107062	0.1410537
143	0xbdbb9c11	-0.09160627
144	0xbe247229	-0.16059174
145	0x3c8b4ffa	0.01700591
146	0xbd6c9392	-0.05775792
147	0xbe11e32b	-0.14246814
148	0xbd4f2cc7	-0.050579812
149	0xbdb8123d	-0.08987854
150	0x3e29d319	0.16584434
151	0xbad226a1	-0.0016033241
152	0xbe3d47f2	-0.18484476
153	0xbe8b2846	-0.27179164
154	0x3e6ba227	0.23011075
155	0x3d4d1878	0.050072163
156	0xbc521b97	-0.012823961
157	0xbe117edf	-0.14208554
158	0xbd793ab6	-0.060847007
159	0x3d4c057d	0.04980992
160	0xbd1404c3	-0.036137354
161	0xbe45129a	-0.19245377
162	0xbdabfbb5	-0.08397619
163	0x3dc0f9ba	0.094226316
164	0xbe0168ce	-0.12637636
165	0xbe4be8fc	-0.19913095
166	0x3d3b4be4	0.04572667
167	0xbdcc9f49	-0.09991319
168	0x3dfd980e	0.12382518
169	0xbd1d885f	-0.03846013
170	0xbe09999d	-0.13437505
171	0xbe28b5c3	-0.16475587
172	0x3e003d71	0.12523438
173	0x3d24c833	0.040229987
174	0x3dcae62e	0.099071845
175	0xbc6b884a	-0.014375756
176	0xbe37ee1f	-0.1796193
177	0xbdd3dc15	-0.10344712
178	0x3e38d95a	0.18051663
179	0xbe4c6d8a	-0.19963661
180	0x3cd107e4	0.025516458
181	0x3cfd5abd	0.030927056
182	0x3af9d4d4	0.001906062
183	0xbe324226	-0.17408046
184	0xbdaecfdd	-0.085357405
185	0x3cc5f3b6	0.024164062
186	0x3e261554	0.16219074
187	0xbb81492b	-0.00394549
188	0xbe5cb893	-0.21554784
189	0xbdfc6944	-0.12324765
190	0x3e3f1baa	0.18662897
191	0xbd7adfcd	-0.06124859
192	0x3e23e878	0.16006649
193	0xbd98dca9	-0.074639626
194	0x3c87a5c6	0.01655854
195	0xbdf78193	-0.12085261
196	0xbae75897	-0.0017650303
197	0x3c17d887	0.009267933
198	0xbde37d61	-0.111078985
199	0x3d5a33be	0.053272
200	0xbcb62437	-0.022234065
201	0xbdb85370	-0.090002894
202	0xbdaeba59	-0.08531637
203	0xbcb12ec9	-0.021628754
204	0x3e387998	0.18015134
205	0x3c06f203	0.008236411
206	0xbe3fffb5	-0.18749888
207	0xbe62a5d9	-0.22133578
208	0x3e4ed259	0.20197429
209	0xbd4feb79	-0.050761674
210	0x3c51fa47	0.012816018
211	0xbd7eee84	-0.062239185
212	0xbd2e0bea	-0.04249183
213	0x3d3c87c8	0.04602793
214	0xbc767071	-0.015041457
215	0xbd1664f2	-0.036717363
216	0xbe015d3f	-0.12633227
217	0x3d95fb85	0.07323364
218	0xbd1e1917	-0.038598146
219	0xbdf58d4e	-0.11989842
220	0xbd86dcf9	-0.06585116
221	0xbd416076	-0.047211133
222	0x3e052174	0.13001043
223	0x3c993194	0.018700399
224	0xbe28e39c	-0.16493076
225	0xbe449ffe	-0.19201657
226	0x3e3adcef	0.18248342
227	0xbd29d11d	-0.04145919
228	0x3d3e195d	0.046410907
229	0xbd3507f3	-0.044197034
230	0xbdbb6207	-0.091495566
231	0xbcc469e0	-0.023976266
232	0x3d032dd7	0.03202614
233	0xbd8bafd1	-0.06820644
234	0xbe0632d8	-0.13105333
235	0x3e08c5f9	0.1335677
236	0x3cda2221	0.026627602
237	0xbdeafb0d	-0.114736654
238	0xbd449c3e	-0.048000567
239	0xbd8f6361	-0.07001377
240	0x3e24f94b	0.16110723
241	0xbd30b3da	-0.04314027
242	0xbe410acc	-0.18851775
243	0xbe45a9fe	-0.19303128
244	0x3e1b9718	0.15194356
245	0xbd0d90cf	-0.03456193
246	0x3c341fbb	0.010993893
247	0x3dd6de8b	0.104916655
248	0xbc13bd33	-0.009017277
249	0xbd0666a0	-0.032812715
250	0x3dbcc0a0	0.09216428
251	0xbdd358bb	-0.10319658
252	0xbdd2f87f	-0.10301303
253	0x3d9ba82f	0.07600438
254	0xbc4934f9	-0.012280696
255	0xbdec6fb8	-0.11544746

regression_decoder.linear.bias f4 [40]
0	0x3db8b796	0.09019391
1	0x3dbbb237	0.09164851
2	0x3dbacdb5	0.09121267
3	0x3dcf83b1	0.1013254
4	0x3ddbae13	0.107265614
5	0x3dafa209	0.08575828
6	0x3dd1b201	0.1023903
7	0x3dda1479	0.10648436
8	0x3dbf08e1	0.093278654
9	0x3dc73aa1	0.097279795
10	0x3de6fa0f	0.11278164
11	0x3dcbdcd4	0.09954229
12	0x3dc068b7	0.09394973
13	0x3dbee3ef	0.09320819
14	0x3dc992bb	0.0984244
15	0x3dcb9d67	0.099421315
16	0x3dd26278	0.10272688
17	0x3dd34938	0.103167
18	0x3dfb0b28	0.12257987
19	0x3de2d946	0.11076598
20	0x3defd452	0.11710419
21	0x3df58b7a	0.11989494
22	0x3dd713ed	0.105018474
23	0x3df29210	0.118442655
24	0x3dfdd1f0	0.12393558
25	0x3def2574	0.116770655
26	0x3df14597	0.11780851
27	0x3e017744	0.12643152
28	0x3df61be0	0.120170355
29	0x3dffec7d	0.124962784
30	0x3e137947	0.14401732
31	0x3dfb3027	0.12265044
32	0x3e080c2e	0.13285896
33	0x3e1d874d	0.15383644
34	0x3e1ba0e2	0.1519809
35	0x3dfe404e	0.12414609
36	0x3e157455	0.14595158
37	0x3dff0028	0.12451202
38	0x3e08a554	0.13344318
39	0x3e1482f5	0.14503081

regression_decoder.conv2.weight f4 [3, 8, 1, 1]
0	0x3e13121e	0.1436238
1	0xbe0b60a2	-0.13611081
2	0xbe65a178	-0.22424877
3	0xbe2b7ee8	-0.1674763
4	0xbdb82f9d	-0.089934565
5	0xbe47ddd6	-0.19518217
6	0x3ba868b5	0.005139435
7	0xbe4d33a5	-0.20039232
8	0xbe785133	-0.24249725
9	0x3e1ca5c9	0.15297617
10	0x3e4ef0ab	0.20208995
11	0xbda80f6b	-0.08206066
12	0x3e8dc567	0.2768967
13	0x3d9e6f90	0.077361226
14	0x3e2c5905	0.16830833
15	0xbe4e859a	-0.20168152
16	0xbe3d2cc0	-0.18474102
17	0x3e165540	0.14680958
18	0x3e6f9934	0.23398286
19	0x3d3bbdcc	0.0458353
20	0x3e2e8e1f	0.17046402
21	0x3e0b4b59	0.13602962
22	0x3d94edec	0.072719425
23	0x3c924fa0	0.017860234

onnx::Conv_191 f4 [8, 3, 1, 1]
0	0xbb04d0b7	-0.0020266005
1	0x3cb04df7	0.021521552
2	0xbd05b840	-0.032646418
3	0x3c055b71	0.008139477
4	0xbc47ea57	-0.012201867
5	0x3a9713c2	0.0011526274
6	0x3b1a8545	0.002357797
7	0xbd1c75f9	-0.038198445
8	0x3d17b2cd	0.037035752
9	0xbcabcfe6	-0.020973157
10	0xbc977cb6	-0.018492084
11	0xbc510340	-0.0127571225
12	0xbc24e3b2	-0.010064052
13	0x3d106316	0.035250746
14	0x3c7052a8	0.014668144
15	0xbc4e2f18	-0.01258447
16	0xbbea2e33	-0.0071466207
17	0xbbf00a58	-0.007325452
18	0xbb31c1f2	-0.0027123657
19	0xbc72236d	-0.014778954
20	0xbcecab90	-0.028890401
21	0xbc582208	-0.013191707
22	0xbca6e18e	-0.020371225
23	0xbc6d6bb2	-0.014491009

onnx::Conv_192 f4 [8]
0	0x3fca2cd3	1.5794929
1	0x3f649706	0.89292943
2	0xbdc0ec65	-0.09420089
3	0x40aa9fc8	5.3320045
4	0xc08fbfcf	-4.492164
5	0x403d95f9	2.9622786
6	0x40ac65ea	5.3874407
7	0x40a91c33	5.2846923

onnx::Conv_194 f4 [8, 1, 3, 3]
0	0xbf0626b2	-0.52402794
1	0xbfc882b5	-1.5664889
2	0xbf3ca599	-0.7369018
3	0x3ecc3ac2	0.3988858
4	0xbf23a8f1	-0.6392966
5	0xbe64b17d	-0.22333331
6	0xbe8db8e0	-0.2768011
7	0x3f0a9c8b	0.54145116
8	0x3ec2069d	0.3789567
9	0xbe0d094a	-0.13773075
10	0x3e41e7eb	0.18936126
11	0x3eafcf4a	0.34337837
12	0xbd201145	-0.03907897
13	0x3e0a3a3d	0.13498779
14	0x3eabd79b	0.3356293
15	0x3ef671de	0.4813375
16	0x3e876bc9	0.2644942
17	0x3ed63bab	0.41842398
18	0xbd4d8723	-0.050177705
19	0x3ed02d35	0.4065949
20	0xbd0fc341	-0.035098318
21	0xbde40b83	-0.11135008
22	0x3e8f2489	0.27957562
23	0x3e7d688e	0.24746916
24	0xbcfcb494	-0.030847825
25	0x3e7da0a5	0.24768312
26	0x3ede0f7a	0.43371183
27	0x3f05e0b8	0.5229602
28	0x3e25c691	0.16189028
29	0xbd8e1f44	-0.06939557
30	0xbce2f718	-0.027705714
31	0x3e5e4f9e	0.21710059
32	0x3ebe4a40	0.37166023
33	0x3eaff209	0.34364346
34	0x3f0872cf	0.53300184
35	0x3e1ff992	0.15622547
36	0xbe1926c0	-0.14956188
37	0x3e62b406	0.22138986
38	0x3dc98ab2	0.09840907
39	0x3ea4b76c	0.3217119
40	0x3ec4ec64	0.38461602
41	0x3cff619e	0.031174477
42	0xbca20f7b	-0.019782772
43	0x3eff8d19	0.49912336
44	0x3ee96008	0.4558108
45	0xbf3b78a6	-0.7323097
46	0xbed3b4db	-0.4134892
47	0xbc3a66ba	-0.011377031
48	0x3ee89ec3	0.45433626
49	0xbdfcd41c	-0.12345144
50	0xbf0bc3bb	-0.54595536
51	0xbebe86eb	-0.3721231
52	0xbbba6902	-0.0056887874
53	0xbf69a9d9	-0.9127479
54	0xbe55533b	-0.20832531
55	0xbe98063b	-0.29692253
56	0xbe358a84	-0.17728621
57	0xbdef4d98	-0.11684722
58	0xbf0c8301	-0.54887396
59	0xbee10596	-0.43949574
60	0xbc841582	-0.016123537
61	0xbea5410a	-0.32276183
62	0xbde997e9	-0.11405928
63	0xbf9ec0c7	-1.2402581
64	0xbf83ea20	-1.0305824
65	0xbc61e576	-0.013787618
66	0x3fa1d973	1.2644485
67	0xbe88da04	-0.26728833
68	0x3fc2f0e7	1.5229768
69	0xbfa8441d	-1.3145787
70	0x3ffeebdc	1.9915729
71	0xbf927680	-1.1442413

onnx::Conv_195 f4 [8]
0	0x3eb7b2be	0.35878557
1	0xbf119f1e	-0.5688342
2	0xbe861a1a	-0.2619179
3	0xbe72bc38	-0.23704612
4	0x3d1552b8	0.03645584
5	0x3e3eb5ae	0.18623993
6	0x3f5cd716	0.86265695
7	0xbef046ce	-0.4692902

onnx::Conv_197 f4 [16, 8, 1, 1]
0	0x3f06a115	0.5258954
1	0x3adc543c	0.0016809772
2	0x3efd1559	0.4943035
3	0x3f0f0288	0.5586324
4	0x3f7a4cee	0.97773635
5	0xbf00495e	-0.5011195
6	0x3d18b3fc	0.03728102
7	0x3d89f9e5	0.06737117
8	0x3f33b817	0.70202774
9	0xbe1bd0da	-0.1521639
10	0x3f0b276c	0.5435703
11	0x3d2399d0	0.03994161
12	0xbf66e9bb	-0.90200394
13	0xbf8a10fd	-1.0786434
14	0xbee80568	-0.45316625
15	0x3f47d643	0.7806131
16	0x3f5a6f29	0.85325867
17	0xbe92a302	-0.2863999
18	0x3eb3b41a	0.35098344
19	0xbf1843a0	-0.5947819
20	0x3f1aba04	0.6044009
21	0xbef5c751	-0.4800363
22	0xbc615a62	-0.013754459
23	0x3d851ba9	0.064994164
24	0x3da9a867	0.08284073
25	0x3e0abdae	0.1354892
26	0xbe5f8162	-0.218267
27	0x3f1043bd	0.5635336
28	0xbf092cf8	-0.5358424
29	0x3d95d4f9	0.07316012
30	0xbf3319ff	-0.6996154
31	0x3dc076a4	0.09397629
32	0xbf181b38	-0.5941653
33	0xbf016853	-0.5054981
34	0xbf5f7e69	-0.8730226
35	0xbf1b3a09	-0.6063543
36	0x3d1623e0	0.036655307
37	0x3e13c332	0.1442993
38	0xbe35f78d	-0.17770214
39	0x3d819a94	0.063283116
40	0xbec37a4f	-0.38179252
41	0xbd66a349	-0.056308065
42	0xbf3b58e4	-0.7318251
43	0x3db9a3c4	0.09064439
44	0xbeabfba9	-0.3359044
45	0xbe084b9d	-0.13310094
46	0xbf1c93c4	-0.6116297
47	0x3e00b36e	0.12568447
48	0x3cc057f4	0.02347944
49	0x3dee8c8b	0.116479
50	0xbdd3b295	-0.10336796
51	0x3e2b8d3f	0.167531
52	0xbe6b1632	-0.22957686
53	0x3d207f63	0.039183985
54	0xbeebf74c	-0.4608711
55	0x3d0778f7	0.033074345
56	0xbf372cd6	-0.7155279
57	0x3e60634d	0.2191288
58	0xbed6e63a	-0.41972524
59	0xbf31b95a	-0.6942345
60	0x3ed61ecb	0.41820368
61	0xbf467d94	-0.77535367
62	0x3f5c88d8	0.86146307
63	0x3f1121b4	0.5669205
64	0xbda7b605	-0.08189014
65	0xbde8f23c	-0.113743275
66	0xbe8cfd8e	-0.27537197
67	0x3e83a7fa	0.25714093
68	0xbed64e2f	-0.41856524
69	0xbe92d89c	-0.28680885
70	0xbf7576c8	-0.9588437
71	0xbca35f39	-0.019942867
72	0xbf111134	-0.56666875
73	0xbf5c8803	-0.8614504
74	0x3c81bed9	0.015838074
75	0x3d4e7c5d	0.05041157
76	0x3ec3c704	0.38237774
77	0xbe7d055c	-0.24709076
78	0xbc7a30f8	-0.015270464
79	0x3e319523	0.17342047
80	0xbe331e4c	-0.17492026
81	0xbf6cd626	-0.92514265
82	0x3e95db9d	0.29269114
83	0x3f2446bc	0.6417043
84	0x3ef5c1da	0.4799946
85	0xbb11ec7e	-0.0022266204
86	0xbe8da9c5	-0.27668586
87	0xbec0959f	-0.37614152
88	0xbed86282	-0.42262655
89	0xbef473cb	-0.47744593
90	0xbeff5a84	-0.49873745
91	0x3e95db3d	0.29268828
92	0xbe2364be	-0.15956399
93	0xbd97135a	-0.07376738
94	0xbf17431e	-0.5908679
95	0x3d25dea0	0.040495515
96	0x3eacad8c	0.33726156
97	0x3eccc04e	0.39990467
98	0x3e7558e7	0.23959695
99	0x3f343812	0.70398057
100	0x3eac3b0f	0.33638808
101	0x3ed5f7f0	0.41790724
102	0x3fd57899	1.6677428
103	0xbe8659c8	-0.26240373
104	0x3e2bbb09	0.16770567
105	0x3da52eb8	0.080655515
106	0xbca4b456	-0.020105522
107	0x3e830f25	0.25597492
108	0xbe647f67	-0.22314225
109	0xbe934dd8	-0.28770328
110	0xbf726bda	-0.9469582
111	0x3d24b7cd	0.04021435
112	0x3f18b13c	0.5964544
113	0x3f2f4ef6	0.6847986
114	0xbc8e9845	-0.017406592
115	0x3f2b9d44	0.67036843
116	0x3f382e63	0.7194578
117	0x3d91f3f2	0.07126607
118	0x3f00c031	0.5029326
119	0x3d7ff560	0.062489867
120	0x3cca6e1f	0.024710713
121	0xbf9768cd	-1.1828858
122	0xbebbee20	-0.36705112
123	0xbe4c3690	-0.19942689
124	0x3ef064df	0.4695196
125	0x3df334fd	0.11875341
126	0xbf5daf12	-0.8659526
127	0xbe944b8a	-0.28963882

onnx::Conv_198 f4 [16]
0	0xbe68bb6e	-0.22727749
1	0x3f165d2e	0.5873593
2	0x3e1426d0	0.14467931
3	0x3f0f0c2b	0.5587794
4	0x3f136f64	0.57591844
5	0x3edf5601	0.43620303
6	0x3ef4a5d8	0.4778278
7	0x3c0107b0	0.007875368
8	0x3f1dc6b5	0.6163133
9	0x3ec86a94	0.39143813
10	0x3ddc109e	0.10745357
11	0x3f349d90	0.7055292
12	0xbf5cf492	-0.86310685
13	0x3f350f2f	0.70726293
14	0xbf4a71e4	-0.79080033
15	0x3f0ad931	0.5423766

onnx::Conv_200 f4 [16, 1, 3, 3]
0	0x3e342451	0.17591979
1	0x3e8ea779	0.27862146
2	0x3eba0c03	0.3633729
3	0x3ddd7d2f	0.108148925
4	0x3e0217a1	0.12704326
5	0x3e0c4a31	0.13700177
6	0x3e277d39	0.16356362
7	0x3cb25376	0.021768313
8	0xbe721df1	-0.23644234
9	0xbe89f576	-0.26945084
10	0xbe406fa9	-0.18792595
11	0x3d3c1cbd	0.045925844
12	0xbe87f6c0	-0.26555443
13	0x3a899232	0.001049584
14	0xbf1d0d69	-0.6134859
15	0x3e15bfce	0.14623949
16	0xbf0c9548	-0.54915285
17	0xbeee24bf	-0.4651241
18	0xbec5772f	-0.38567492
19	0x3f476f06	0.77903783
20	0x3f87a93e	1.0598524
21	0x3eca3b45	0.39498344
22	0x3e200525	0.15626962
23	0xbfc16ac0	-1.5110703
24	0xbebe9ea2	-0.37230402
25	0xbf014ca0	-0.50507545
26	0xbe9620a9	-0.29321793
27	0xbdd0c464	-0.101937085
28	0xbd522430	-0.051304042
29	0xbbddea6f	-0.0067723314
30	0xbe598d34	-0.21245271
31	0xbf5ac812	-0.85461533
32	0xbf4f3b16	-0.80949533
33	0x3d0a6019	0.033783052
34	0x3d5173fa	0.051135994
35	0x3e0b10e4	0.13580662
36	0x3f87376d	1.056379
37	0x3fd316ba	1.6491311
38	0x3fb0028c	1.3750777
39	0xbf0c81f5	-0.548858
40	0x3ec8368c	0.39104116
41	0xbf7e1407	-0.9924931
42	0xbf8f7dee	-1.1210306
43	0xbfcd409f	-1.6035346
44	0xbf8d657e	-1.1046598
45	0x3e9319c2	0.2873059
46	0xbf06645f	-0.52496904
47	0xbf4a78e8	-0.7909074
48	0xbf7e18e3	-0.99256724
49	0xbf031985	-0.51210815
50	0xbfc1dce6	-1.5145538
51	0x3ea6a364	0.32546532
52	0xbe664492	-0.22487095
53	0x3f293a6a	0.6610476
54	0x3f34fb18	0.7069564
55	0xc0596213	-3.396611
56	0xc05ecccf	-3.4812505
57	0x3e40020a	0.18750778
58	0x3f7bbb72	0.98332894
59	0xbeaca81a	-0.33722
60	0xbfcd6817	-1.6047391
61	0x4033f9af	2.8121145
62	0x408e5786	4.448184
63	0x3ea52967	0.3225815
64	0xbf8c891c	-1.0979342
65	0x3cce41c2	0.02517784
66	0x3f3a90ed	0.7287739
67	0x3ead1134	0.33802187
68	0x3e369a43	0.17832284
69	0xbeecb8e9	-0.46234825
70	0x3f6a19f0	0.9144583
71	0x3f65b999	0.89736325
72	0x3e96817b	0.2939566
73	0x3d90906d	0.07058797
74	0xbf6b2336	-0.918506
75	0x3e304249	0.17212786
76	0xbf51597d	-0.81777173
77	0xbf7b1598	-0.98079824
78	0xbf459689	-0.77182823
79	0x3e4912b0	0.19636035
80	0x3eaa6676	0.33281296
81	0x3dc54694	0.09632602
82	0x3eae2bda	0.3401783
83	0x3fb55a56	1.4168193
84	0x3f701147	0.93776363
85	0xbfa47a23	-1.2849773
86	0xbfcc2603	-1.59491
87	0xbf77cf55	-0.9680074
88	0x3d65726d	0.056017328
89	0xbebdfd51	-0.37107328
90	0x3ed70751	0.4199777
91	0x3e3a4b9a	0.18192902
92	0xbe3c70b6	-0.18402371
93	0x3ec9e5bf	0.39433095
94	0x3eae6606	0.34062213
95	0x3e5eab07	0.21744929
96	0x3e296fef	0.16546606
97	0x3e261877	0.1622027
98	0x3cabb065	0.020958135
99	0x3d64d0f9	0.055863354
100	0x3f012a51	0.50455195
101	0x3f1be53f	0.60896677
102	0x3ec01469	0.37515572
103	0xbeec85cc	-0.4619583
104	0x3f1eea48	0.62076235
105	0xbdf64c9d	-0.120263316
106	0x3e43a0a4	0.19104248
107	0x3f51003e	0.81640995
108	0xbeca6b3e	-0.39534944
109	0xbd42ab1a	-0.047526456
110	0x3e34cbd3	0.17655878
111	0x3e07454d	0.1321003
112	0x3eb3d365	0.3512222
113	0x3ef08af9	0.46981028
114	0x3eabf4fa	0.3358534
115	0x3dff362b	0.124615036
116	0x3e9500ed	0.2910227
117	0x3f221d31	0.6332579
118	0xbe43424b	-0.19068258
119	0x3e5e94c7	0.21736442
120	0xbefe4b6a	-0.4966691
121	0xbef89134	-0.4854828
122	0x3df179c7	0.11790805
123	0xbf098dd6	-0.5373205
124	0xbf86b908	-1.0525217
125	0xbe9dc091	-0.3081098
126	0xbf1d1cb7	-0.6137194
127	0x3f666558	0.8999839
128	0xbe8f5af4	-0.2799908
129	0xbeb44144	-0.35206044
130	0xbf345949	-0.7044874
131	0x3f417459	0.7556816
132	0xbf9b2548	-1.2120752
133	0x3fba3562	1.4547541
134	0x3f8ad2f1	1.0845624
135	0xbf9221da	-1.1416581
136	0xbdef7026	-0.116913125
137	0xbe44f8a2	-0.19235471
138	0x3f75ad4a	0.95967543
139	0x3e8b5c76	0.2721898
140	0x3f8077fc	1.0036616
141	0x3f068a73	0.52555007
142	0x3f243d9c	0.6415651
143	0x3ef33b15	0.47506014

onnx::Conv_201 f4 [16]
0	0xbe696a99	-0.2279457
1	0x3dc5024c	0.09619579
2	0x3efdd3e4	0.49575722
3	0x3ea4835c	0.3213147
4	0x3e87c463	0.2651702
5	0x3e828c0b	0.2549747
6	0xbe545f08	-0.20739377
7	0xbe6d19ae	-0.23154327
8	0x3e1d122c	0.15338963
9	0x3eb5a182	0.35474783
10	0xbe3bafc6	-0.18328771
11	0xbebc6201	-0.3679352
12	0xbea8d6c4	-0.32976353
13	0x3ef74777	0.4829671
14	0xbd644b3c	-0.05573581
15	0xbdcf7044	-0.10128835

onnx::Conv_203 f4 [16, 1, 3, 3]
0	0xbd064451	-0.032779995
1	0xbf21830e	-0.630906
2	0x3e19109f	0.14947747
3	0xbe0cc890	-0.13748384
4	0xbec7bbf1	-0.39010575
5	0xbf1e4a71	-0.6183234
6	0x3effecef	0.49985453
7	0x3e817e7e	0.25291818
8	0x3f1f0ee0	0.6213207
9	0x3dd6d5bc	0.10489985
10	0x3d75407e	0.059875958
11	0x3fd28bd9	1.6448928
12	0xbd1c2729	-0.038123284
13	0xbf239a25	-0.6390708
14	0x3d3b8a6b	0.045786303
15	0xbfff0cdc	-1.9925799
16	0xbf3c674e	-0.7359513
17	0xbfd0f6bc	-1.6325297
18	0x3f007416	0.50177133
19	0x3b23ba8c	0.0024983017
20	0xbe5f6e26	-0.21819362
21	0x3ea3106e	0.31848472
22	0xbfaa05b0	-1.3282986
23	0xbf4e17d5	-0.80505115
24	0xbf822817	-1.0168484
25	0x3f9b5959	1.2136642
26	0xbf2fcb18	-0.6866927
27	0x40337a6e	2.8043475
28	0x3f9a96a0	1.2077217
29	0x40097e27	2.1483247
30	0xbf87d42e	-1.0611627
31	0xbf909373	-1.1294998
32	0xbfe7a38d	-1.8096787
33	0xbf99df5e	-1.2021291
34	0xbf082ff2	-0.5319816
35	0x3f560abc	0.8361013
36	0xbf975e3f	-1.1825637
37	0xbf932752	-1.1496375
38	0x3f2421c7	0.6411404
39	0x3f3a0255	0.7265981
40	0xbf9e2615	-1.2355372
41	0xbeae509e	-0.3404588
42	0xbd7d75dc	-0.061879978
43	0x3eb0478a	0.3442958
44	0xbe52580d	-0.20541401
45	0x3f5b94dc	0.85774016
46	0xbf4ffc39	-0.81244236
47	0xbf7c4da3	-0.98555964
48	0x3f0a16ea	0.53941214
49	0x3f5b493f	0.8565864
50	0x3bd60edb	0.0065325326
51	0x3f6bc123	0.9209158
52	0x3f3980ab	0.72461957
53	0xbc6cfd91	-0.014464752
54	0x3ea34bfa	0.31893903
55	0x3de824e3	0.113351606
56	0x3ecb556a	0.39713603
57	0xbe85a80e	-0.26104778
58	0x3e0378a2	0.12838987
59	0x3e7367d3	0.23770075
60	0x3a3173ed	0.00067692884
61	0xbd9078fa	-0.070543244
62	0x3e63bba8	0.22239554
63	0x3e016572	0.12636355
64	0x3e532b92	0.2062209
65	0xbf0b18bc	-0.54334617
66	0xbeee8727	-0.46587488
67	0xbf05c36f	-0.52251333
68	0xbf69ba81	-0.9130021
69	0x3f6581ba	0.8965107
70	0x3f2b9a56	0.6703237
71	0x3f00ac66	0.5026306
72	0x3eb192f6	0.34682435
73	0xbe5fb47d	-0.21846195
74	0xbe27ed81	-0.16399194
75	0x3f52de53	0.8237049
76	0x3f944142	1.1582415
77	0x3f865e7e	1.0497587
78	0xbebd4c2e	-0.36972183
79	0x3e9fe683	0.31230554
80	0x3ed40041	0.41406444
81	0xbff40d42	-1.9066546
82	0xbe1ced5f	-0.15324925
83	0x3f200e7a	0.6252209
84	0xbf3f361c	-0.7469194
85	0xbf42ad26	-0.76045454
86	0x3f80d1da	1.0064042
87	0xbf459fd2	-0.7719699
88	0x3ff90ad7	1.9456433
89	0xbf1cae55	-0.6120351
90	0xbf27f818	-0.65612936
91	0xbf128290	-0.5723047
92	0xbe8cc814	-0.27496397
93	0xbe663686	-0.22481737
94	0x3eb5a1ef	0.35475108
95	0x3dbc7c80	0.09203434
96	0x3dc65c5d	0.09685586
97	0x3ce53af7	0.027982218
98	0xbe41f07b	-0.18939392
99	0x3ee8b858	0.45453143
100	0x3ed2e6fc	0.41191852
101	0x3ecd3506	0.40079516
102	0x3e9ba780	0.3040123
103	0x3d025e26	0.03182807
104	0xbda78577	-0.08179753
105	0xbe90983d	-0.2824115
106	0x3e8c6c4e	0.2742638
107	0xbe563101	-0.20917131
108	0xbec23e5e	-0.37938207
109	0x3e2c1068	0.16803133
110	0x3f43c0cf	0.7646608
111	0xbf370edd	-0.71507055
112	0x3f2e4288	0.6807027
113	0xbde06345	-0.10956434
114	0xbf775c32	-0.96625054
115	0xbf1e9928	-0.6195245
116	0x3f557637	0.83383507
117	0x3fd5a8a8	1.6692095
118	0xc0179246	-2.3683028
119	0x3e55c82e	0.20877144
120	0x3fc6ccd3	1.5531257
121	0xbee1bd5e	-0.44089788
122	0x3fdfc696	1.7482479
123	0x3f6fdd42	0.9369699
124	0xbed106b0	-0.40825415
125	0x3ecc6618	0.3992164
126	0xbeccc310	-0.3999257
127	0xbf62d465	-0.8860534
128	0xbcb5ec5f	-0.022207437
129	0x3cb981f1	0.022644969
130	0x3c4cac6f	0.012492283
131	0xbf0130f2	-0.5046531
132	0xbf83b36e	-1.0289133
133	0xbef03aa1	-0.4691973
134	0x3f02638d	0.5093315
135	0x3f01049c	0.5039766
136	0xbef2ddd5	-0.4743487
137	0x3f1b58af	0.60682195
138	0xbf123728	-0.5711541
139	0x3ec3164d	0.38102952
140	0x3ec28cf3	0.3799816
141	0xbf3613a6	-0.7112373
142	0xbf01daf4	-0.5072472
143	0xbeb8c282	-0.36085898

onnx::Conv_204 f4 [16]
0	0x3d1aec19	0.037822817
1	0x3d62afda	0.055343486
2	0x3efe3d63	0.4965621
3	0xbdf449ee	-0.119281635
4	0x3eaed5c7	0.34147474
5	0xbe06b1ea	-0.13153806
6	0xbe4bd358	-0.1990484
7	0x3e3e8dd1	0.18608786
8	0xbeab2619	-0.33427504
9	0xbd0fc4a0	-0.035099626
10	0x3e9a135f	0.30092904
11	0xbe2cf006	-0.16888437
12	0xbdd0395a	-0.10167189
13	0xbd9028c2	-0.07039024
14	0x3e86058a	0.261761
15	0x3d714546	0.058903955

onnx::Conv_206 f4 [16, 1, 3, 3]
0	0xbebe99e6	-0.3722679
1	0x3f07ead9	0.53092724
2	0x3f3b6fca	0.7321745
3	0xbf1c7604	-0.6111758
4	0x3e35aad6	0.1774095
5	0xbeeb0530	-0.45902395
6	0x3dd02787	0.10163789
7	0xbf0cb99e	-0.5497073
8	0xbebc812d	-0.36817303
9	0x3f4f3679	0.80942494
10	0x3f087b1b	0.53312844
11	0x3d0ddf69	0.03463689
12	0xbf788c66	-0.9708923
13	0xbfbbfd26	-1.468663
14	0x3f13d9ee	0.5775441
15	0x3fb4606c	1.4091926
16	0xbf01e13d	-0.5073431
17	0xbff05a2f	-1.8777522
18	0x3e37b466	0.1793991
19	0xbe33ee91	-0.17571475
20	0x3e78c294	0.24292976
21	0x3f25c715	0.647569
22	0xbd9a155a	-0.07523604
23	0x3f071e16	0.5278028
24	0x3e21b5ce	0.15792009
25	0xbde88ab8	-0.113545835
26	0x3ef672e2	0.48134524
27	0x3c737e72	0.01486169
28	0xbf04e001	-0.519043
29	0xbd63eb06	-0.055644058
30	0x3e42b71b	0.19015162
31	0xbf0be130	-0.54640484
32	0xbdaf0a6c	-0.0854691
33	0x3f19a099	0.6001068
34	0x3e8f0584	0.27933896
35	0x3f2d963f	0.6780738
36	0x3f2f9e83	0.68601245
37	0x3f030166	0.5117401
38	0xbd2f1c72	-0.042751737
39	0x3f2724c6	0.65290487
40	0x3e7f07bb	0.24905293
41	0x3f25eb1b	0.6481187
42	0x3f8aecda	1.0853531
43	0xbeb0db33	-0.34542236
44	0xbf647bf3	-0.8925163
45	0xbf18b907	-0.5965733
46	0x3d5d58ab	0.05403964
47	0xbf2bdfab	-0.67138165
48	0xbe04c456	-0.12965521
49	0x3e1431ca	0.14472118
50	0x3c0634f0	0.008191332
51	0x3df4f1ca	0.1196018
52	0xbe8c0189	-0.2734492
53	0xbe080711	-0.13283946
54	0xbf70c1ea	-0.9404589
55	0xbf771145	-0.96510726
56	0xbe2190b8	-0.15777862
57	0x3f1f48d8	0.62220526
58	0x3dddf2d1	0.10837329
59	0x3f0d22bb	0.5513112
60	0x3cf334e9	0.029688315
61	0xbe164aef	-0.14677022
62	0xbc450514	-0.0120251365
63	0x3ea15cbd	0.31516066
64	0x3ecfe394	0.40603316
65	0xbd064209	-0.03277782
66	0xbe98109c	-0.29700172
67	0x3e241299	0.1602272
68	0x3ea88ac1	0.3291836
69	0x3d97faf5	0.07420913
70	0x3e6af5eb	0.22945373
71	0xbdf46e82	-0.1193514
72	0x3d902857	0.07038944
73	0x3f07e4b7	0.53083366
74	0x3ef32910	0.47492266
75	0xbc435011	-0.011920945
76	0x3d7c90d2	0.06166155
77	0x3e66c2cf	0.22535251
78	0x3e33e5ec	0.17568177
79	0xbc0f49a1	-0.008745582
80	0xbe235752	-0.15951279
81	0xbf153ee4	-0.5829909
82	0x3dc7714a	0.09738405
83	0xbd10483a	-0.03522513
84	0x3f740c6b	0.9533145
85	0x3e902417	0.28152534
86	0xbeaca6dd	-0.33721057
87	0x3f53deaa	0.82761633
88	0xbee5f9f3	-0.4491726
89	0x3f3fd9dd	0.7494181
90	0xbeb60400	-0.35549927
91	0xbe9b24cd	-0.30301514
92	0x3e31fb7b	0.17381088
93	0x3ccde7d6	0.025134962
94	0xbf319106	-0.69361913
95	0xbeba1387	-0.36343023
96	0x3e0d7cad	0.13817091
97	0x3f58224a	0.8442732
98	0xbf5347ae	-0.8253125
99	0x3e811611	0.25212148
100	0xbbe1594f	-0.0068771015
101	0x3d176376	0.036960088
102	0xbc74c605	-0.01493979
103	0x3dc05073	0.093903445
104	0x3e3a9078	0.18219173
105	0x3e3ad832	0.18246534
106	0x3d27f144	0.041001573
107	0x3be45cf6	0.0069690896
108	0x3e27d2e1	0.16389038
109	0x3d0156fa	0.031577088
110	0xbcfcf128	-0.030876711
111	0xbe603289	-0.21894278
112	0xbe258a95	-0.16166146
113	0x3c018f6f	0.007907732
114	0xbeb8f291	-0.36122563
115	0x3e0dedd9	0.13860263
116	0xbed20436	-0.41018838
117	0xbe4b2e5d	-0.19841905
118	0x3d66733d	0.056262244
119	0x3e2e09c2	0.1699591
120	0xbe8d6d4b	-0.27622446
121	0x3f4ffc33	0.812442
122	0x3ef3250e	0.47489208
123	0xbef7e7f5	-0.48419157
124	0x3e8bcce9	0.27304772
125	0xbe8beee8	-0.27330709
126	0x3f0811a4	0.5315192
127	0xbedbfa84	-0.42964566
128	0xbe217435	-0.15766986
129	0xbf8a2f83	-1.079575
130	0x3cdeec9e	0.027212437
131	0x3eb75334	0.35805666
132	0x3f664854	0.89954114
133	0xbf74d6a1	-0.9564
134	0x3e327863	0.17428736
135	0x3d4156cc	0.047201917
136	0x3e0fcc82	0.14042857
137	0x3ec46fd0	0.38366556
138	0x3d56a4d3	0.052403282
139	0x3e1a2f79	0.15057172
140	0xbdd08963	-0.101824544
141	0x3e40a3f6	0.18812546
142	0x3e55ca38	0.20877922
143	0x3dfbb6e4	0.12290743

onnx::Conv_207 f4 [16]
0	0x3e1daf20	0.15398836
1	0x3e82c0a9	0.25537613
2	0xbedd0342	-0.43166548
3	0xbc9a6384	-0.01884628
4	0xbf2d703c	-0.6774938
5	0x3f09f516	0.53889596
6	0x3ec455c4	0.38346684
7	0xbec854d0	-0.39127207
8	0xbe886566	-0.2663986
9	0xbf0b7682	-0.54477704
10	0x3ec82cf2	0.3909679
11	0xbe4f3754	-0.2023595
12	0x3df60553	0.12012734
13	0xbe9974fc	-0.29972064
14	0x3d090bd8	0.03345856
15	0xbeb2839f	-0.34866044

onnx::Conv_209 f4 [64, 16, 1, 1]
0	0x3e8444de	0.25833791
1	0x3e4e8362	0.20167306
2	0xbd214a99	-0.039377782
3	0x3ec9daad	0.3942465
4	0x3e733f5e	0.23754641
5	0xbe96a793	-0.29424724
6	0x3eacd12e	0.3375334
7	0x3e516ce4	0.20451695
8	0x3dcd88e6	0.10035877
9	0xbde479e0	-0.11156058
10	0xbd87326e	-0.066014156
11	0xbd2b33b9	-0.041797373
12	0xbea133b3	-0.31484756
13	0xbdf3514f	-0.11880743
14	0xbcacc28b	-0.021088859
15	0xbdae4962	-0.085100904
16	0x3e135915	0.14389451
17	0xbe221d65	-0.15831526
18	0xbc298590	-0.010346785
19	0x3dcfc712	0.101453915
20	0xbe6b73ff	-0.22993468
21	0xbeef48a4	-0.46735108
22	0xbd538e21	-0.051649217
23	0xbecd4a8c	-0.40095937
24	0xbe162d76	-0.1466578
25	0x3b71525b	0.003682277
26	0xbe703044	-0.23455912
27	0x3d1c8033	0.038208198
28	0xbe77567f	-0.2415409
29	0x3dd8da39	0.10588498
30	0x3e02d9ed	0.12778445
31	0xbe0fe222	-0.14051107
32	0xbe74b27f	-0.23896216
33	0xbef64e1a	-0.48106462
34	0x3c93b608	0.018031135
35	0xbeb2d2ff	-0.34926602
36	0xbe856b66	-0.260585
37	0xbdaf31f6	-0.08554451
38	0x3e52d343	0.20588402
39	0x3e40225e	0.1876311
40	0x3f076948	0.5289502
41	0xbead8fe8	-0.33898854
42	0xbe6943a4	-0.22779709
43	0x3e956c2f	0.291841
44	0xbeb27643	-0.34855852
45	0x3ec0eaa1	0.37679008
46	0xbea25936	-0.31708688
47	0xbdc6e4bb	-0.097115956
48	0xbd29af48	-0.041426927
49	0x3dd645c4	0.104625255
50	0x3eb1c4b7	0.34720394
51	0xbca5cfd1	-0.020240696
52	0xbe322867	-0.17398225
53	0xbf144acc	-0.5792663
54	0x3e6f8cc1	0.23393537
55	0x3dfa8ee2	0.12234284
56	0xbefc9917	-0.49335548
57	0xbe3f0563	-0.18654399
58	0x3ebdf164	0.3709823
59	0xbd35cc47	-0.044384267
60	0xbd575d03	-0.052578937
61	0x37efe4bb	2.8597531e-05
62	0xbd87281d	-0.06599448
63	0x3e8e9fac	0.27856195
64	0x3dd57c22	0.10424067
65	0xbdf3cad1	-0.119039185
66	0x3e8f59b7	0.27998134
67	0x3e7ca0bb	0.24670689
68	0x3e0a84f6	0.13527283
69	0xbe1e4e98	-0.15459669
70	0xbed149ec	-0.4087671
71	0xbd956db9	-0.072963186
72	0x3e8ec63a	0.2788561
73	0x3e1928bc	0.14956945
74	0xbe666bdd	-0.22502084
75	0xbe4a4cdf	-0.19755886
76	0xbd6adfc4	-0.057342306
77	0x3ca4213f	0.020035384
78	0x3ee9912a	0.45618564
79	0xbd532678	-0.05155036
80	0xbd304349	-0.043032918
81	0x3d51c83a	0.05121634
82	0xbe092feb	-0.13397186
83	0xbe5c37ee	-0.2150571
84	0x3cfb7890	0.030697137
85	0xbd59e3a7	-0.05319562
86	0xbddf28d0	-0.10896456
87	0xbd82e69c	-0.063916415
88	0xbe46a9d6	-0.19400725
89	0xbdc1954f	-0.094523065
90	0xbe2b2521	-0.16713382
91	0x3dd13212	0.10214628
92	0xbd3ce0b7	-0.046112742
93	0x3db9378d	0.090437986
94	0xbe216bb3	-0.1576374
95	0xbc7300b2	-0.014831709
96	0x3e7f2568	0.24916613
97	0x3e103bd2	0.1408532
98	0xbc901bab	-0.017591318
99	0x3ec00fc4	0.37512028
100	0x3ebc3360	0.36757946
101	0xbe4ce006	-0.20007333
102	0x3c5be687	0.013421661
103	0xbe5da4f0	-0.2164495
104	0x3d987efd	0.07446096
105	0xbea50acb	-0.32234797
106	0x3e01b0d9	0.12665118
107	0x3d4864d9	0.0489243
108	0xbebc8e6e	-0.36827415
109	0x3cb0fb20	0.02160412
110	0x3de76859	0.112991996
111	0xbcb68086	-0.022278082
112	0xbd69c955	-0.05707677
113	0xbe6d9f90	-0.232054
114	0xbd350e42	-0.04420305
115	0x3d99b62e	0.07505451
116	0x3d951dc0	0.07281065
117	0xbc1af493	-0.009457725
118	0xbe2da963	-0.16959147
119	0x3df93fd7	0.121703796
120	0x3e18def0	0.14928794
121	0x3d7baa46	0.061441682
122	0xbe1f5759	-0.15560664
123	0xbda63a4d	-0.08116589
124	0x3e604ace	0.21903536
125	0x3e9bf342	0.30459028
126	0xbd773d4f	-0.060361203
127	0xbd5a2714	-0.053259924
128	0x3e0e3f51	0.13891341
129	0xbd62d9c1	-0.055383448
130	0xbdcf911b	-0.101350985
131	0xbcac9185	-0.021065483
132	0x3d96946b	0.07352527
133	0xbe8c2494	-0.27371657
134	0xbbbda738	-0.0057877563
135	0xbc991608	-0.018687263
136	0x3dac4b07	0.08412748
137	0xbdba966d	-0.09110723
138	0x3e4ddbb4	0.20103341
139	0x3e0cf47c	0.13765138
140	0x3ea5bc72	0.32370335
141	0xbe4b653b	-0.19862835
142	0xbc4dbb8a	-0.01255692
143	0x3e9088a5	0.28229252
144	0x3a3f4261	0.0007295963
145	0x3e5e5f96	0.2171615
146	0xbe4f8ce5	-0.20268591
147	0xbd6ccaed	-0.057810713
148	0x3d8066d8	0.06269616
149	0xbe32edd3	-0.17473535
150	0xbde05cbd	-0.109551884
151	0xbe97d5e9	-0.29655388
152	0xbea9efba	-0.3319071
153	0x3d1318e7	0.03591242
154	0x3e89b20d	0.26893654
155	0xbd9e37d2	-0.07725491
156	0xbeb45a89	-0.35225323
157	0x3f17e49c	0.59333205
158	0xbeb3a470	-0.35086393
159	0xbd0612e3	-0.032732856
160	0xbe06ae3b	-0.13152401
161	0x3daac9d3	0.08339276
162	0x3e5e5d56	0.21715292
163	0xbea76c29	-0.32699707
164	0x3df0db67	0.11760598
165	0x3e32066f	0.17385267
166	0xbe3eb2ec	-0.18622941
167	0x3e1fbe40	0.15599918
168	0x3e022f13	0.1271327
169	0x3ea4dc15	0.3219916
170	0xbd833b43	-0.06407788
171	0xbe192684	-0.14956099
172	0xbe0266ee	-0.12734577
173	0x3de55c4f	0.11199247
174	0xbea0de1d	-0.3141946
175	0xbefbda41	-0.49189952
176	0xbc1da60a	-0.009622106
177	0xbd3dc486	-0.046329997
178	0xbd8eeaa0	-0.06978345
179	0xbe5621e7	-0.2091137
180	0xbd317411	-0.04332358
181	0xbd0f4e09	-0.03498653
182	0xbdf5ba3f	-0.11998414
183	0xbc176aa2	-0.009241732
184	0xbe2d47a1	-0.16921856
185	0x3cb21bdd	0.021741802
186	0xbda6afbc	-0.081389874
187	0x3d12af07	0.03581145
188	0xbe216ae8	-0.15763438
189	0xbd1c14e8	-0.038105875
190	0xbdcbab8b	-0.099448286
191	0xbc8181fe	-0.015809055
192	0xbe1e502d	-0.15460272
193	0x3e7de6e6	0.24795112
194	0x3cbf5bf7	0.023359282
195	0xbe9fbc7f	-0.311985
196	0x3e242c3d	0.160325
197	0xbe9ab6fc	-0.3021773
198	0xbe68c681	-0.22731973
199	0xbe658616	-0.22414431
200	0xbd2becc7	-0.041973855
201	0x3d66bf4e	0.056334786
202	0x3d7ace15	0.06123169
203	0xbdb5b55a	-0.08872481
204	0xbe56be84	-0.20971113
205	0xbd77c0bb	-0.060486536
206	0x3ba8ed7c	0.0051552635
207	0x3ea72387	0.32644293
208	0xbe9e3e8a	-0.3090709
209	0xbe0d6c8b	-0.13810937
210	0x3c9ed81a	0.019390155
211	0x3e02a0b7	0.1275662
212	0x3d9485e5	0.07252101
213	0xbcdd5523	-0.027018135
214	0xbe5f4f39	-0.21807565
215	0xbe8400b1	-0.25781778
216	0xbc8224cd	-0.015886689
217	0xbdde3224	-0.10849407
218	0xbf08f0ac	-0.53492236
219	0xbe52874f	-0.20559429
220	0x3eb8c23f	0.36085698
221	0xbe2dcee2	-0.16973451
222	0x3d84618a	0.064639166
223	0xbe3257f3	-0.17416362
224	0x3ed62907	0.41828176
225	0x3e2972bc	0.16547674
226	0x3e6214de	0.22078273
227	0xbe8ef4c4	-0.27921116
228	0x3c162a49	0.009165355
229	0x3dcd18d1	0.10014499
230	0x3e5b5079	0.21417417
231	0xbdf39eb4	-0.118955046
232	0xbe21f02a	-0.15814272
233	0xbe6f1c69	-0.23350681
234	0x3e90d2af	0.2828574
235	0xbe32f912	-0.17477825
236	0xbe019f49	-0.12658419
237	0xbe63167e	-0.22176549
238	0xbd588878	-0.05286452
239	0x3cbfb7b5	0.023403028
240	0xbd90ba1b	-0.07066747
241	0xbd714244	-0.058901086
242	0xbe27f72c	-0.16402882
243	0xbe06d4f6	-0.13167176
244	0xbd73c799	-0.059516523
245	0xbdf5bb1e	-0.119985804
246	0xbcef871a	-0.029239226
247	0x3c822049	0.015884535
248	0x3d59b36e	0.053149633
249	0xbeb630f2	-0.35584217
250	0x3c8dc8b9	0.017307626
251	0xbe9de3db	-0.30837902
252	0x3dd34901	0.10316659
253	0x3dc1d38a	0.09464176
254	0x3c5244a7	0.012833751
255	0xbdf86642	-0.12128879

onnx::Conv_210 f4 [64]
0	0xbecff5ff	-0.40617368
1	0x3f54be51	0.831029
2	0x3eab1e2e	0.33421463
3	0xbdc72dc5	-0.09725527
4	0x3d98b9a4	0.07457283
5	0x3f0a544e	0.5403489
6	0xbecc14f5	-0.3985974
7	0xbd357716	-0.044303022
8	0xbcbd3e90	-0.023101121
9	0x3e8555cd	0.26042023
10	0x3e90e18d	0.28297082
11	0x3f1c800f	0.611329
12	0x3f153ee8	0.5829911
13	0x3f4390a4	0.7639258
14	0x3d44a830	0.04801196
15	0x3f66cbc6	0.90154684
16	0x3d1029cc	0.03519611
17	0xbe82304f	-0.25427482
18	0x3f22c030	0.63574505
19	0xbe169756	-0.14706168
20	0xbe5f8ee4	-0.21831852
21	0xbe02affe	-0.12762448
22	0xbef57033	-0.47937164
23	0x3f1c815f	0.61134905
24	0xbe9e4986	-0.3091547
25	0x3f03f94d	0.5155228
26	0xbef1d10a	-0.47229797
27	0xbf5204fa	-0.82038844
28	0xbdf91762	-0.12162663
29	0xbdda7690	-0.10667145
30	0x3ef045a7	0.4692814
31	0x3f24338e	0.64141166
32	0x3f0e82af	0.5566816
33	0x3db56ab3	0.08858242
34	0xbe89af8b	-0.2689174
35	0xbe038a9e	-0.12845847
36	0x3aabd1c0	0.0013108775
37	0xbea42bbe	-0.32064623
38	0x3f5549b1	0.8331557
39	0x3f33b25d	0.70194036
40	0xbe39e044	-0.18151957
41	0xbe2de48f	-0.1698172
42	0xbdba3b92	-0.090933934
43	0xbec49b51	-0.38399747
44	0x3f1158b6	0.5677599
45	0x3f3b08c0	0.73060226
46	0x3f0db68c	0.5535667
47	0x3f0db83e	0.55359256
48	0x3e341ce0	0.1758914
49	0x3f02f940	0.51161575
50	0xbd6cfe71	-0.05785984
51	0x3f735eec	0.95066714
52	0x3f65a8d4	0.89710736
53	0x3f20b79c	0.62780166
54	0x3f1b2c34	0.60614324
55	0x3f527bc0	0.8222008
56	0xbf0dd8b7	-0.55408806
57	0xbf037af1	-0.5135947
58	0xbbcd3130	-0.006261967
59	0x3eb92a22	0.36164957
60	0x3f0334cd	0.5125244
61	0x3f12e010	0.5737314
62	0x3f065811	0.5247813
63	0x3f4d5528	0.80208063

onnx::Conv_212 f4 [64, 1, 3, 3]
0	0xbd8adef7	-0.067808084
1	0x3f0a6a2a	0.54068244
2	0x3eac213d	0.3361911
3	0xbf0fe9c7	-0.5621609
4	0x3e52f3d5	0.20600827
5	0xbf00a158	-0.5024619
6	0xbeaa375a	-0.33245355
7	0xbe4b347b	-0.19844238
8	0xbea37b35	-0.31929937
9	0x3eddcaaf	0.43318698
10	0xbe867a08	-0.26264977
11	0xbf1e3373	-0.61797255
12	0x3d24d805	0.040245075
13	0x3d10d921	0.03536332
14	0xbf32b825	-0.6981223
15	0xbe4e0d31	-0.2012222
16	0xbeefe47e	-0.46854013
17	0xc0036a61	-2.0533679
18	0x3ce0d7ff	0.027446745
19	0x3eaa4d83	0.33262262
20	0x3d6debc7	0.058086183
21	0x3e1f8964	0.15579754
22	0x3f0e7573	0.55647963
23	0x3eb118ee	0.34589332
24	0x3ef43b92	0.477017
25	0xbe3cb349	-0.18427767
26	0xbde0c0a7	-0.109742455
27	0xbf654840	-0.8956337
28	0x3e685f3d	0.2269258
29	0xbe1e5baf	-0.15464662
30	0x3d304d10	0.043042243
31	0xbe99514f	-0.29944846
32	0xbf3d9822	-0.7406026
33	0x3e7ccd6c	0.24687737
34	0x3cd1d020	0.025611937
35	0xbef87a53	-0.48530826
36	0x3d2ab450	0.041675866
37	0x3ee245bd	0.4419383
38	0x3f3a40cc	0.7275512
39	0xbed620af	-0.4182181
40	0xbe988906	-0.2979204
41	0xbf3b39b3	-0.7313492
42	0x3ebcba1b	0.36860737
43	0x3de4a03e	0.11163376
44	0xbedda2b2	-0.4328819
45	0x3edb966a	0.42888194
46	0x3f7fbd75	0.99898463
47	0xbf03559d	-0.5130251
48	0xbc35efd1	-0.01110454
49	0x3f635a43	0.88809603
50	0xbf9ac51c	-1.2091403
51	0xbf499236	-0.78738725
52	0xbfc335df	-1.5250815
53	0xbed19fa6	-0.40942115
54	0xbe7465d9	-0.23866977
55	0x3f286cc0	0.6579094
56	0x3ee7210b	0.45142397
57	0x3f71ae48	0.9440656
58	0xbeddc4db	-0.4331425
59	0x3f02f029	0.51147705
60	0xbe6f9467	-0.23396455
61	0x3f7efd5a	0.99605334
62	0xbed0db91	-0.40792516
63	0x3e324927	0.17410718
64	0x3eb91588	0.3614924
65	0xbb706f4c	-0.0036687432
66	0x3eccd288	0.40004373
67	0x3f10f123	0.56617945
68	0x3d90ba37	0.07066768
69	0xbe5a4c26	-0.21318111
70	0xbddfeb35	-0.10933534
71	0x3e12114a	0.14264408
72	0x3f3d6c7a	0.7399365
73	0xbf95df6c	-1.1708808
74	0x3e5ef365	0.21772535
75	0xbf25a6c0	-0.64707565
76	0x3ffe8878	1.9885397
77	0xbd6465f4	-0.055761293
78	0x3fb03b3d	1.3768078
79	0xbf90735a	-1.1285203
80	0xbfdcf831	-1.7263242
81	0xbe8e4065	-0.27783504
82	0xbf419233	-0.7561371
83	0xbf4e2c3a	-0.80536234
84	0xbe87b204	-0.26503003
85	0xbedfa8d8	-0.43683505
86	0xbf67c114	-0.9052899
87	0x3d00ed9a	0.031476595
88	0xbe93aaf2	-0.28841358
89	0xbea8f05f	-0.3299589
90	0xbf0387e7	-0.51379246
91	0xbf67eb01	-0.9059296
92	0xbe78f654	-0.24312717
93	0x3ed61d8a	0.41819412
94	0xbe56753c	-0.20943159
95	0xbf471502	-0.7776643
96	0xbd17a91f	-0.03702652
97	0x3d25fe2a	0.040525593
98	0xbf1747c9	-0.5909391
99	0x3e97a004	0.2961427
100	0x3fc0dcff	1.5067443
101	0xbf439885	-0.764046
102	0xbf3643d4	-0.7119725
103	0xc0099bbd	-2.1501305
104	0xbfd9dca7	-1.7020463
105	0x3f0437fc	0.51647925
106	0xbf4fe003	-0.8120119
107	0x3f0f79f4	0.5604546
108	0xbf1b6688	-0.60703325
109	0xbf22c7c0	-0.63586044
110	0xbd68ff38	-0.05688402
111	0xbdaa9b60	-0.08330417
112	0x3dd9ee9e	0.10641216
113	0xbfd83b11	-1.6893026
114	0xbe5c1229	-0.21491303
115	0x3f8a7aa8	1.0818682
116	0x3e87bbb3	0.2651039
117	0xbde23421	-0.11045099
118	0xbf3a01f3	-0.72659224
119	0xbe829b6e	-0.25509208
120	0x3fd85612	1.6901267
121	0xbf96eed6	-1.1791637
122	0xbf6c7f59	-0.9238182
123	0x3f07b0bd	0.53004056
124	0xbf8135ba	-1.0094521
125	0xbebfb52d	-0.37442914
126	0x3f737858	0.95105505
127	0xbed73751	-0.4203439
128	0xbe9e3ad6	-0.30904263
129	0xbf98d1fe	-1.1939085
130	0xbf0e3d58	-0.55562353
131	0x3f8ab5d9	1.0836746
132	0xbf15565a	-0.5833489
133	0xbf672685	-0.9029315
134	0x3f0ddb82	0.5541307
135	0x3f44c104	0.7685702
136	0x3f08bc81	0.53412634
137	0x3f508783	0.81456774
138	0xbf3a331b	-0.7273423
139	0x3f69d107	0.91334575
140	0x3fa47233	1.2847351
141	0x3e90e1e5	0.28297344
142	0xbfcca9da	-1.5989335
143	0x3e7d3d66	0.24730453
144	0xbeb92795	-0.3616301
145	0xbf0e5e12	-0.5561229
146	0x3b41e7c9	0.0029587618
147	0x3dcb1945	0.09916929
148	0xbf86ce0c	-1.053163
149	0xbef59b02	-0.47969824
150	0x3e2fbd6e	0.17162105
151	0x3e8dc5f5	0.27690092
152	0x3f23af6d	0.63939553
153	0x3e3a7b9b	0.18211214
154	0x3eca55f2	0.39518696
155	0x3f09d208	0.5383611
156	0xbd2893a0	-0.04115641
157	0xbe0fe87e	-0.14053532
158	0x3ec9c47a	0.39407712
159	0xbe69efeb	-0.22845428
160	0xbf0075ce	-0.50179756
161	0xbef00ffe	-0.468872
162	0x3fee1455	1.8599955
163	0xc0112f9a	-2.2685304
164	0xbfa0be86	-1.2558143
165	0x3eef73bb	0.46767983
166	0xbf1af3a7	-0.60528034
167	0x3e267bb1	0.16258122
168	0x3f7ebbc0	0.99505234
169	0x3fb18d42	1.3871233
170	0xbf44e9e7	-0.76919407
171	0xbec96669	-0.39335945
172	0xbe4eb5c0	-0.2018652
173	0xbeaa1f04	-0.33226788
174	0xbe91b7b6	-0.28460473
175	0xbead895d	-0.33893862
176	0xbeb4b00a	-0.35290557
177	0x3dacd407	0.084388785
178	0xbe5bb8bb	-0.21457188
179	0xbd1e24af	-0.038609203
180	0x3e9881f4	0.29786646
181	0x3f01f58f	0.5076532
182	0x3e542cbe	0.20720193
183	0x3d7c8afa	0.061655976
184	0x3eb83a15	0.35981813
185	0x3ecc2784	0.39873898
186	0xbeb846b4	-0.35991442
187	0x3ed50640	0.4160633
188	0x3e5a28fe	0.213047
189	0x3ee9b341	0.45644572
190	0x3e929eee	0.2863688
191	0x3f2aa19d	0.6665285
192	0x3f440262	0.76566136
193	0x3e3f2de2	0.18669847
194	0xbe299cb4	-0.16563684
195	0x3e64da62	0.22348931
196	0xbf89efd1	-1.0776311
197	0xbf4992b3	-0.7873947
198	0x3e40b6a9	0.1881968
199	0xbe64b940	-0.22336292
200	0x3e80723d	0.25087157
201	0x3de17999	0.11009521
202	0x3e31217f	0.17297934
203	0xbf583e31	-0.84469897
204	0x3eae7f58	0.3408153
205	0xbe31dd89	-0.17369665
206	0xbfbe4dc4	-1.4867482
207	0x3ec6b0a9	0.38806656
208	0x3e7c1e7b	0.24621002
209	0x3f062d99	0.52413327
210	0x3e06d239	0.13166131
211	0xbe8d436f	-0.2759051
212	0xbe962947	-0.29328367
213	0x3e51cd53	0.20488481
214	0x3f2b505b	0.6691949
215	0x3f08a896	0.5338224
216	0xbf010c5f	-0.504095
217	0x3d963fc8	0.07336384
218	0x3f3e34fc	0.742996
219	0x3f78da34	0.9720795
220	0xbe88c3cb	-0.26711878
221	0x3ed82906	0.42218798
222	0x3e8ce2a3	0.2751666
223	0xbf4d2424	-0.8013327
224	0xbf98cb8b	-1.1937116
225	0xbfa782a9	-1.3086749
226	0x3fb317df	1.399166
227	0x3d96ab83	0.07356932
228	0xbfc689b0	-1.5510769
229	0x402549f9	2.58264
230	0xbf8fbf4d	-1.1230255
231	0x3fa3401a	1.2753937
232	0x3eee71e9	0.46571282
233	0xc0452bde	-3.0808024
234	0x3f0e9802	0.55700696
235	0x3eb8bd7c	0.36082065
236	0xbe92ae3e	-0.2864856
237	0xbce0ea8b	-0.027455589
238	0xbf5adb45	-0.8549083
239	0xbdbeaaa0	-0.09309888
240	0xbe7f1435	-0.24910052
241	0xbf106770	-0.56407833
242	0x3e8dfd3c	0.27732265
243	0x3d70b495	0.058765966
244	0x3f1eb03e	0.61987674
245	0xbe3c9baf	-0.18418764
246	0x3e8b9dc7	0.27268812
247	0xbe759463	-0.23982386
248	0x3e95106f	0.291141
249	0xbf57f0af	-0.8435163
250	0xbd6aed69	-0.05735532
251	0xbee5b059	-0.44861105
252	0xbeed219c	-0.46314704
253	0xbee62eae	-0.4495749
254	0x3f890ac7	1.0706414
255	0x3f8c4a52	1.0960181

onnx::Conv_213 f4 [64]
0	0x3eda0257	0.4257991
1	0x3f675188	0.9035878
2	0xbeea2651	-0.45732358
3	0x3dba1fee	0.09088121
4	0xbd17b2a4	-0.0370356
5	0x3f0ad469	0.5423036
6	0xbee827e6	-0.4534294
7	0xbec0358c	-0.37540853
8	0xbe0290a5	-0.1275049
9	0x3ed02803	0.40655527
10	0x3ec86221	0.39137366
11	0x3f4bff59	0.79686505
12	0x3e35305a	0.17694226
13	0x3ef579f5	0.47944608
14	0x3df67bed	0.12035356
15	0xbf046010	-0.5170908
16	0x3b59e280	0.0033246577
17	0x3e015a4a	0.12632099
18	0x3e16f2e8	0.14741099
19	0x3f2fcf55	0.6867574
20	0xbecf0b3f	-0.40438268
21	0x3d2db140	0.042405367
22	0x3ecf157a	0.40446073
23	0xbf38e8bf	-0.7223014
24	0xbde3cc2c	-0.11122927
25	0x3cee8850	0.029117733
26	0x3e587f55	0.21142323
27	0x3e2c1667	0.16805421
28	0x3ea66ab6	0.3250329
29	0xbea05cca	-0.31320792
30	0x3f16c469	0.5889345
31	0x3caa4e38	0.02078925
32	0xbe8c77a2	-0.27435023
33	0xbd79f121	-0.061020974
34	0xbea73b0b	-0.32662234
35	0xbeb6ab94	-0.3567778
36	0xbeae10a5	-0.33997074
37	0x3e96c138	0.2944429
38	0xbe9d0882	-0.30670553
39	0x3db93b21	0.09044481
40	0xbe45d749	-0.19320406
41	0x3efe7c24	0.49704087
42	0x3d8f217f	0.06988811
43	0x3db7e963	0.08980062
44	0xbda8626f	-0.082219
45	0x3df191a2	0.117953554
46	0x3f36d59e	0.71419704
47	0x3f09b4e7	0.5379166
48	0x3ebe9b3e	0.37227815
49	0xbf05d662	-0.5228025
50	0x3e1029c0	0.14078426
51	0x3ea10f31	0.31456903
52	0x3ee2e269	0.44313362
53	0xbe819042	-0.25305372
54	0x3ce95da0	0.028487027
55	0xbb8d30b0	-0.0043087825
56	0x3eb27790	0.34856844
57	0xbd381883	-0.04494525
58	0x3e3dcce1	0.18535186
59	0xbcacaaa0	-0.021077454
60	0x3ebd8db2	0.37022167
61	0x3ea9203e	0.3303241
62	0xbeb547d8	-0.35406375
63	0x3eaf317d	0.34217444
