vision_models/Fine_tuned_BOP.onnx (onnx, 210235 bytes, 92 tensors)

model/conv2d/BiasAdd.1.weight f4 [16, 2, 7, 7]
000000 1d e7 ff 3a 24 c4 85 3a f0 4f 4e ba df 31 3a bb
       0.0019523833 0.0010205549 -0.0007870188 -0.0028411073
000010 f3 63 48 bb 77 88 cf ba a4 2c c5 ba 80 74 51 3b
       -0.0030577153 -0.0015833516 -0.0015043211 0.0031960309
000020 27 8f f7 3a 51 b6 5d ba 30 6f f2 ba a5 03 f0 b9
       0.0018887267 -0.0008457648 -0.0018496271 -0.00045779083
000030 ed 76 3f 3a 2b 58 2c b8 3b fb 88 3b 55 0c 1a 3b
       0.0007303793 -4.109011e-05 0.0041803396 0.0023505886
000040 9c 8c 4c ba 29 31 19 bb a3 d8 c7 ba 36 27 89 ba
       -0.0007802935 -0.002337525 -0.0015247058 -0.0010463956
000050 2d fc 6f ba 81 23 7c 3b 88 b8 1c 3b cf cd 0d ba
       -0.00091547036 0.003847331 0.00239137 -0.0005409391
000060 7a 18 1b bb ad 5a a7 ba 13 a2 32 ba ee 74 42 39
       -0.0023665712 -0.0012768112 -0.0006814312 0.00018544841
000070 62 f7 92 3b 2a b2 35 3b e9 10 42 ba 2a 01 5a bb
       0.0044850567 0.0027724602 -0.00074030325 -0.0033264854
000080 c9 69 10 bb 17 b3 1f ba f8 36 85 39 84 3b 9c 3b
       -0.002203571 -0.0006092055 0.00025408692 0.004767837
000090 35 35 60 3b 72 98 5b b9 68 2e 3e bb 37 f7 1a bb
       0.0034211401 -0.00020942258 -0.002901936 -0.0023645887
0000a0 49 31 25 ba ad 9a 0c 3a 23 75 68 3b 62 e8 19 3b
       -0.00063015945 0.00053636247 0.003547021 0.0023484458
0000b0 6a 9f 97 39 b1 b2 13 bb b1 15 f2 ba f2 bf c4 ba
       0.00028919737 -0.0022536928 -0.0018469599 -0.0015010817
0000c0 60 e2 03 b9 b2 fd 8d bb 58 a4 2c bb c9 5e 5b bb
       -0.00012577465 -0.0043332214 -0.0026343074 -0.0033473244
0000d0 af cc 69 bb df 76 09 bb b2 e6 41 bb 6f 7d 15 bb
       -0.003567498 -0.0020975394 -0.0029586968 -0.002281036
0000e0 61 f9 42 bb 68 03 26 bb b9 e8 27 bb eb b2 40 bb
       -0.0029750692 -0.002533162 -0.0025620891 -0.0029403518
0000f0 13 7d b8 ba b9 5a 98 bb 27 13 a9 ba d4 ac 19 bb
       -0.0014075361 -0.004649487 -0.0012899385 -0.002344896
000100 09 72 cc ba 62 c1 a8 ba 33 18 1f bb af 18 29 ba
       -0.001559795 -0.0012875015 -0.0024275898 -0.00064505165
000110 3b 29 47 bb 6b 36 2b ba 89 28 60 b9 4a 1a 24 ba
       -0.0030389566 -0.0006531241 -0.00021377405 -0.0006260021
000120 d1 43 35 b9 85 e4 73 ba 21 88 f4 38 de 2f ac ba
       -0.00017286769 -0.00093037664 0.00011660183 -0.0013136824
000130 8f 68 89 b9 24 ae f5 38 1d 1b 0e 3a 03 a7 9f 3a
       -0.00026208578 0.000117149466 0.00054209103 0.0012180511
000140 cc 0f c1 3a f6 17 ac 3a 40 bb d4 38 b5 1d 06 3a
       0.0014729439 0.00131297 0.00010143826 0.0005116121
000150 a8 16 d7 39 78 03 8d 3a 70 de cd 3a 7c 77 1e 3b
       0.00041024876 0.001075848 0.001570655 0.0024180105
000160 d3 36 03 3b 93 e3 e0 3a 32 9f cd 3a ed 40 34 3a
       0.0020021691 0.0017157666 0.0015687703 0.000687613
000170 04 2b 2c 3b 2f 54 d7 3a 15 c2 5c 3b af 56 3c 3b
       0.0026270756 0.0016428287 0.0033685018 0.002873819
000180 f5 98 62 3b d0 ac ca 3a 5c a5 06 38 a3 0f 99 38
       0.0034576033 0.0015462879 3.2102093e-05 7.298521e-05
000190 af 96 24 b9 1c 75 63 b9 6a d5 02 b9 b0 d3 ce 38
       -0.00015696393 -0.00021692034 -0.00012477269 9.862275e-05
0001a0 8d 85 2b b9 0c 49 24 b8 36 ee 4c 39 ff 16 a2 b8
       -0.00016357582 -3.9168677e-05 0.00019543697 -7.729045e-05
0001b0 cb 07 a9 b9 22 9f 68 38 39 5d cb 38 84 79 43 b9
       -0.00032239998 5.5461314e-05 9.6971584e-05 -0.00018641917
0001c0 36 b6 a3 b9 6c cc ef b8 db 54 40 b9 2a 5a bc b9
       -0.0003122554 -0.000114344846 -0.00018342158 -0.00035925332
0001d0 b9 78 6a b8 19 5d 5f b9 1c ca 99 b9 33 c3 97 b9
       -5.590238e-05 -0.00021301619 -0.00029333017 -0.000289464
0001e0 53 42 1a b9 b6 67 74 b9 8e fa 51 b9 0b b5 82 37
       -0.00014711292 -0.00023308289 -0.00020025132 1.5581512e-05
0001f0 54 90 30 b9 69 2e 00 b9 80 51 8f b9 bf 4e bb 38
       -0.00016838434 -0.0001222432 -0.00027335808 8.9315225e-05
000200 ae fd eb b7 39 d8 a9 39 ff b3 cc 39 a1 e4 6b 39
       -2.8132312e-05 0.0003239529 0.0003904402 0.00022496517
000210 9d 62 e6 37 cf 3a 4d ba b9 1e bd b9 e6 60 ff b8
       2.7464057e-05 -0.00078288926 -0.0003607178 -0.00012177396
000220 18 82 4d 36 6f 30 1c 38 c0 ea d3 38 28 b8 b5 b8
       3.0623105e-06 3.7238406e-05 0.000101049896 -8.665054e-05
000230 cf 75 db ba 6c 74 99 ba a6 94 80 ba ec de ab ba
       -0.0016743484 -0.001170767 -0.0009809926 -0.00131127
000240 53 40 84 ba 24 49 68 ba 39 90 94 ba 43 b8 d8 b9
       -0.0010089971 -0.00088609965 -0.0011334486 -0.00041336016
000250 69 3c 03 ba 7e a2 c3 b9 20 65 e2 b9 11 9c 24 b9
       -0.0005006255 -0.00037314364 -0.00043181423 -0.00015698398
000260 34 55 8d b9 9e 38 34 b9 f3 fe 21 b9 b0 13 92 b9
       -0.00026957097 -0.00017187229 -0.00015449132 -0.00027861958
000270 6f f5 b8 b9 2c ae fc b9 ad 47 d2 b8 99 9b 3b b9
       -0.00035278077 -0.00048194954 -0.00010026931 -0.00017891674
000280 ba ae 7c b9 16 9c 4f b9 94 0e 71 b9 95 9b fc b8
       -0.00024097683 -0.00019799205 -0.00022988982 -0.00012045276
000290 d0 df c4 b9 a5 4b 6a 37 13 81 71 b9 f4 6e 7a b9
       -0.00037550787 1.3965099e-05 -0.00023031635 -0.00023883191
0002a0 d7 21 fc b8 d8 d8 3a b9 08 db 76 b9 5b 94 e4 b9
       -0.000120225995 -0.00017819123 -0.00023541984 -0.00043598082
0002b0 00 df f9 37 9d 78 7a b9 6b 50 30 b9 4d d2 81 37
       2.9786956e-05 -0.0002388679 -0.00016814626 1.5475927e-05
0002c0 3b 7a 9d b8 5d c2 cc 38 da d6 a1 b8 8a ee 84 39
       -7.5091106e-05 9.763681e-05 -7.7170975e-05 0.00025354727
0002d0 28 b2 c5 b7 fc 88 40 b8 80 2f e8 38 30 1f bf b8
       -2.356719e-05 -4.5903944e-05 0.000110714696 -9.113399e-05
0002e0 0f c6 b0 38 37 2f 16 b8 1c 2e 77 39 c4 3c 17 39
       8.429225e-05 -3.580676e-05 0.00023572933 0.00014423119
0002f0 f5 cb 0c b7 2b 03 1c b9 d0 ed 64 b9 02 5c 34 b9
       -8.392138e-06 -0.000148785 -0.00021832366 -0.00017200413
000300 60 15 be b9 84 36 39 38 7c 44 75 b9 fc 30 1e b9
       -0.0003625555 4.415821e-05 -0.00023390533 -0.00015086302
000310 ee 9d 9d 3a b0 66 8f ba 98 5d b9 ba d3 c1 8f ba
       0.0012025216 -0.0010940637 -0.0014142273 -0.0010967798
000320 50 d7 10 ba eb 63 1b 38 8b f8 67 3a e4 8a f2 3a
       -0.0005525248 3.7047936e-05 0.00088489865 0.0018504527
000330 c9 87 86 ba 69 ac 14 bb ce 7d 1f bb 46 b8 d7 ba
       -0.0010263856 -0.0022685772 -0.002433646 -0.0016458116
000340 03 48 49 b9 73 0b 16 3a e9 85 d1 3a 6f f5 12 ba
       -0.0001919568 0.0005723752 0.0015985343 -0.00056060305
000350 02 5a 1f bb 58 44 23 bb a9 61 00 bb 61 c1 02 ba
       -0.0024315123 -0.0024912562 -0.001958946 -0.0004987922
000360 a6 83 9e 39 98 79 f2 3a 86 7b 04 39 21 08 f8 ba
       0.00030234194 0.0018499373 0.00012634517 -0.0018923321
000370 0b 65 2b bb 2a d5 a8 ba a0 d5 6d b9 60 ba 18 3a
       -0.0026152756 -0.0012880911 -0.00022681663 0.0005826112
000380 2b 6c 16 3b 44 49 e4 39 f9 8f 6a ba ea 50 fb ba
       0.0022952657 0.00043542136 -0.0008947845 -0.0019173895
000390 ed 32 8b ba 65 be 9e 39 fc 5d 5b 3a 66 d8 26 3b
       -0.0010620035 0.00030277963 0.0008368192 0.0025458573
0003a0 89 2c 94 3a bd 3b 87 b9 05 0c 85 ba 33 aa 65 b9
       0.0011304776 -0.00025793715 -0.0010150677 -0.00021902546
0003b0 4b 39 15 3a b8 a5 a2 3a 99 ea 40 3b 78 15 b7 3a
       0.0005692436 0.0012409007 0.0029436706 0.001396819
0003c0 65 32 f3 38 ef 5f cc b8 e2 03 09 3a 39 55 4d 3a
       0.0001159653 -9.745347e-05 0.0005226714 0.00078328286
0003d0 97 f0 bd 3a b1 9c 3a 3a 0a a6 90 b9 91 f1 b4 b9
       0.0014491257 0.0007118686 -0.0002758953 -0.00034512256
0003e0 17 fc d9 b9 da 27 6a b8 21 04 39 ba 38 c0 14 ba
       -0.00041577287 -5.5827062e-05 -0.0007057805 -0.0005674395
0003f0 08 f1 99 3a b1 ad ef b9 df f0 77 b8 fd 0a 03 ba
       0.0011744807 -0.00045715043 -5.9113718e-05 -0.0004998891

model/conv2d/BiasAdd.1.bias f4 [16]
000000 23 e4 db 3f 49 76 fb 3f 38 13 4d 3e c0 58 f1 c0
       1.7178997 1.9645473 0.20026863 -7.5420837
000010 f7 f8 b0 40 a5 21 60 3f f9 86 64 c0 26 ba 5d 40
       5.530391 0.8755134 -3.570738 3.4644866
000020 08 68 0c 3f 7b 04 1d c0 8c 39 62 bf 1a ac 36 3f
       0.5484624 -2.4533985 -0.8836906 0.71356356
000030 82 be 85 3f bb 1a 04 c0 c0 4d 88 bc e6 64 73 40
       1.0448763 -2.0641315 -0.016638637 3.8030334

model/separable_conv2d/separable_conv2d/depthwise.weight f4 [16, 1, 3, 3]
000000 12 6b af be b8 40 bc be 79 fe 2d 3e b2 14 1e bd
       -0.34261376 -0.36768126 0.16991605 -0.038593955
000010 05 cb a7 be 69 cd 65 bd 6c 5e 5b 3e 08 08 6b 3d
       -0.3277208 -0.056104098 0.21422738 0.057380706
000020 9f 25 82 3e 46 08 45 3e 6d bb 0c 3e 63 27 9f 3e
       0.25419328 0.19241437 0.13743372 0.31084737
000030 1b 9a bc bd a7 c1 24 bd 46 8c bd 3d de f6 fb be
       -0.09209081 -0.040223744 0.09255271 -0.49211782
000040 ee 1e 81 be 8b 71 32 bf a3 1d 90 bd 4a 8f bf be
       -0.2521891 -0.697045 -0.07036903 -0.37414008
000050 5c f7 8a be 9a 92 06 3f fa 23 47 bd 3f ce 08 bf
       -0.27141845 0.52567446 -0.048618294 -0.53439707
000060 b5 3e cb 3e 98 8e bb 3a e3 0d 4e 3d 10 e5 28 3e
       0.3969628 0.0014309464 0.050306212 0.1649363
000070 00 57 ad bd be 7f 4b bf 25 d4 9d 3e 49 e1 9b 3e
       -0.084638596 -0.79491794 0.30825916 0.30445316
000080 a4 7a eb be 65 d2 f5 3e ed 16 56 3e d2 71 66 be
       -0.45992005 0.4801208 0.20907183 -0.22504357
000090 c5 6c 6c 3e b5 3d a0 be fc 87 9b 3d 8d 5a 85 3e
       0.23088367 -0.3129708 0.07594296 0.26045647
0000a0 12 45 08 3e 84 c4 e3 3e a9 8d 8c be 83 83 d7 be
       0.13307598 0.44485867 -0.27451828 -0.42092523
0000b0 7c 3f 51 be 46 36 b2 3e 53 7c 2a 3f c6 54 68 3e
       -0.20434374 0.34807032 0.66595954 0.22688589
0000c0 d9 6d 6e 3e 7b 1f 6a 3e de 8b 11 bd 56 6a 9d be
       0.23284091 0.22863571 -0.03553378 -0.3074519
0000d0 8c 2a aa be 4e 14 ad be 47 47 2f 3f a6 54 bb 3e
       -0.33235586 -0.33804554 0.68468136 0.3658802
0000e0 f8 08 cc bd 35 a2 d5 3e 39 89 f4 3c 70 62 f3 be
       -0.09962648 0.41725317 0.02985059 -0.4753604
0000f0 a8 91 45 bd 4a 42 4a be c6 f0 25 bf d5 f5 63 3e
       -0.04823461 -0.1975185 -0.64820516 0.22261746
000100 4b ea b6 be 8b 21 c4 be 79 a8 c0 3e 54 19 ee 3c
       -0.35725626 -0.3830684 0.37628534 0.029064812
000110 c4 f9 c3 bd 3a be 72 3e 82 d2 de be aa 2e e5 3e
       -0.095691234 0.23705378 -0.4351998 0.44762164
000120 57 5e 31 bf 6b 3a eb be 10 11 31 be 27 19 1b be
       -0.69284576 -0.45943007 -0.17291665 -0.15146314
000130 c8 d4 ba 3e 7a 07 86 3e 95 cc 34 3e 99 67 ea 3e
       0.36490464 0.2617758 0.17656167 0.45782164
000140 be e7 c5 3e c2 37 b3 be d3 c1 14 3d 07 85 70 be
       0.38653368 -0.35003477 0.036317658 -0.23488246
000150 ff a6 c9 3e e6 95 e4 3e 1c e5 8d bd 64 1c ce 3e
       0.3938522 0.44645613 -0.06928465 0.40256035
000160 79 bf 9c 3e 3c c0 95 bc 84 6b d2 3d ee c2 b4 bd
       0.30614832 -0.018280141 0.10274413 -0.088262424
000170 33 e1 c2 be 7d b6 63 3f 77 50 82 3e b3 56 e9 be
       -0.38062438 0.8895033 0.25452015 -0.4557396
000180 16 cb 4b 3e 5a 67 56 3e 49 d5 16 bf b6 10 cb be
       0.1990169 0.20937863 -0.589192 -0.39661187
000190 49 b8 0e 3e de a3 11 3e 34 82 06 be 98 e8 58 be
       0.13937487 0.14222667 -0.13135606 -0.21182477
0001a0 27 6a ab 3e 06 5e 54 bd d2 39 3b bf 87 8a ea bd
       0.33479425 -0.05184748 -0.731351 -0.11452203
0001b0 37 cd 2b bf b4 cc 38 be 03 c6 2b 3f 97 17 c4 be
       -0.6711001 -0.18046838 0.67099017 -0.38299248
0001c0 58 e9 89 bc dc a4 e9 3e 34 91 d3 3c 80 9d 0d 3e
       -0.0168349 0.4563359 0.025826074 0.13829613
0001d0 2a 8f 75 3e df 50 ea be 18 37 92 3d 3d 48 ce 3d
       0.23980394 -0.45764825 0.071394145 0.10072372
0001e0 e2 c7 a2 be c6 84 1e be fa ad 62 3e 1a 82 99 3d
       -0.31793123 -0.15480337 0.2213668 0.07495518
0001f0 8c fb 61 3e 7f 3b e8 3e 60 9a d3 3e 97 a1 66 3d
       0.22068614 0.45357892 0.41328716 0.056306448
000200 d4 a1 c0 be dd e5 26 3f 24 06 a9 3d 54 b0 15 bf
       -0.37623465 0.65194494 0.08253124 -0.5847218
000210 a6 2d f6 3e e9 c7 00 be f5 22 0d bf bb 40 86 3e
       0.48081702 -0.1257626 -0.55131465 0.2622126
000220 55 aa a7 3e 79 5c 30 bf 04 54 26 3d 64 91 16 3d
       0.3274714 -0.688911 0.040607467 0.03675975
000230 13 b4 c0 be a2 ae 98 3d 0f 1d f1 3e 8f 4b 1a be
       -0.37637386 0.074551836 0.47092482 -0.15067886

model/separable_conv2d/BiasAdd.weight f4 [16, 16, 1, 1]
000000 88 f3 8e be ca c4 a3 be df 20 bd 3e 89 35 1a be
       -0.27920175 -0.31986076 0.3693914 -0.15059485
000010 ef 7c a1 3e 95 fd 48 bd 0c c9 50 bd 09 58 83 3d
       0.3154063 -0.04906996 -0.050972983 0.06413276
000020 a6 79 41 be 58 38 34 be 1f 37 6e 3f af c2 52 3f
       -0.18894061 -0.17599618 0.9305286 0.82328314
000030 c1 95 f0 be 1f ad 92 be b0 01 30 bf 37 d7 95 3c
       -0.46989253 -0.28647706 -0.68752575 0.018291099
000040 cf 46 94 3c 33 3c 34 bf 06 a1 55 3f 7f 2d c5 3e
       0.01810017 -0.70404357 0.8344883 0.38511273
000050 dd 97 a4 be 75 60 18 3e 9b 69 0a 3f 2d e6 41 3f
       -0.32147112 0.14880545 0.5406739 0.75741845
000060 6f fa ab bc a2 4c 8e 3e f0 41 14 3f 96 48 7e 3e
       -0.02099344 0.2779284 0.5791311 0.24832377
000070 23 75 1a bf 7f fd 23 3e 67 80 17 bf 29 37 27 3f
       -0.60334986 0.1601467 -0.591803 0.6531854
000080 9a 3c 1d bf bd 8c d0 3c f8 f7 c5 be ab 1b 91 bd
       -0.61420596 0.025457734 -0.38665748 -0.07085355
000090 02 68 cc 3e e3 f6 41 bf 70 06 50 3f c3 0c b0 3d
       0.39923102 -0.75767344 0.8125982 0.08596184
0000a0 b7 cd 9d be 85 b7 fc 3e d6 a1 07 bf e7 a5 89 be
       -0.3082101 0.49358764 -0.5298132 -0.26884386
0000b0 49 53 a8 3e 40 01 60 3e 70 22 fb 3e b5 ae 90 be
       0.32876042 0.21875477 0.4904971 -0.2825829
0000c0 de 43 9e 3e d5 28 20 bf e7 28 4c 3d 89 8a 45 bf
       0.30911154 -0.62562305 0.049843695 -0.7716451
0000d0 69 f5 61 3d 23 82 a8 be 44 80 9d 3e 08 26 87 3d
       0.055165682 -0.32911786 0.3076192 0.06599051
0000e0 63 90 c7 be 65 99 f0 be 52 b1 f9 be 72 14 de 3e
       -0.38977346 -0.4699203 -0.48768097 0.43374974
0000f0 7c fb 06 3f 72 b3 ef bd 5e 4e 13 3f e2 29 06 bf
       0.52727485 -0.11704148 0.57541454 -0.5240766
000100 ee 76 a1 bd 66 8e 9c bd c6 2d 2f 3e 20 c7 38 3f
       -0.07884012 -0.07644348 0.17107305 0.7217884
000110 66 c8 2d 3f 95 b5 cf 3d 9f 53 92 bf 23 24 2e bf
       0.6788391 0.10142056 -1.1431769 -0.6802389
000120 4e 19 26 3f 79 c5 c0 3e 37 40 61 3e 0e cd 16 3e
       0.6488236 0.3765066 0.21997152 0.1472666
000130 95 f8 6c 3e 21 00 82 3e 70 a6 af 3e c1 73 68 be
       0.23141702 0.25390723 0.3430667 -0.22700407
000140 38 80 3c 3e 83 d1 42 be 59 a0 0d bf 16 90 7b 3f
       0.18408287 -0.19025235 -0.55322796 0.9826673
000150 41 00 f2 3d a5 7c a2 3d db ca 1e bf b0 c9 70 be
       0.11816455 0.0793393 -0.6202828 -0.23514438
000160 42 6d 09 bf c7 b3 d5 be 16 d6 d5 be c6 e0 c6 be
       -0.5368234 -0.41738722 -0.41764897 -0.38843364
000170 b0 ed 50 be 2c d5 fe be 08 76 95 3d 01 08 a9 bc
       -0.2040317 -0.49772012 0.07297903 -0.0206337
000180 18 ea bd be a4 fa b2 be 97 cb 59 3e f2 18 12 bf
       -0.37092662 -0.3495685 0.2126907 -0.57069314
000190 f6 38 7c 3e b0 8b b7 be 67 37 65 bf 59 59 81 bd
       0.24631104 -0.3584876 -0.8953766 -0.0631587
0001a0 52 fd 00 bf ed 96 c8 be 1d cd d0 bd 3f 30 14 3f
       -0.50386536 -0.39177647 -0.10195372 0.5788612
0001b0 86 cb 3d bf d8 72 1e 39 2e 60 d1 3e d7 dc 69 3f
       -0.7413868 0.00015110837 0.40893692 0.913526
0001c0 48 93 a8 3d 68 9f ef be 3b 8f 16 be d3 dc 28 be
       0.08231217 -0.46801305 -0.14703076 -0.16490488
0001d0 db e9 51 be 12 7b 28 bf 87 63 08 3e b3 8a c5 bd
       -0.20499365 -0.6581279 0.13319217 -0.096455954
0001e0 56 cd 38 3f 49 fe f8 bd f0 ce 75 bf d3 37 eb bd
       0.7218832 -0.12157876 -0.96018887 -0.11485257
0001f0 1d 20 53 3e 9f d3 36 3e 42 62 28 3f b4 dd 4d 3e
       0.20617719 0.17854165 0.6577493 0.20104104
000200 0a fb 08 bf 66 8b d7 bd 6b f8 87 bf cd 57 75 bd
       -0.53508055 -0.10524635 -1.0622686 -0.059898186
000210 61 cc e5 3d 8a 46 63 be d7 bc 38 bf e0 b2 fc be
       0.11220623 -0.22194877 -0.72163147 -0.4935522
000220 4e d3 7e bd 9c 2a 08 3f 5f 50 fe bd 39 ab dc 3e
       -0.062213235 0.53190017 -0.12417673 0.43099383
000230 34 83 4f bf bc 19 07 3f 6a ed 64 be c8 6a a6 be
       -0.81059575 0.5277364 -0.22356191 -0.32503343
000240 0a d4 ae 3e 54 54 d1 be e9 c7 b9 3e a7 12 1b be
       0.34146148 -0.4088465 0.36285332 -0.15143834
000250 6b 17 18 bd 29 4a 80 3f b6 4c 90 3f 73 86 b3 3e
       -0.037131708 1.0022632 1.127341 0.35063514
000260 7e a4 9d 3e d1 38 ab be ad fe a3 3b 2c 1b e6 3e
       0.3078956 -0.33441785 0.005004725 0.44942605
000270 dc b4 a3 3e 41 00 2a 3e a0 99 e2 3c 65 21 dd 3d
       0.31973922 0.1660166 0.027661145 0.10797385
000280 94 34 b2 3e a1 21 ad 3e a8 7f ad 3e b7 3f b2 3d
       0.3480574 0.3381472 0.33886456 0.08703559
000290 2c 9c 12 be d8 44 48 3d 59 05 95 bf 17 e1 94 be
       -0.14317387 0.04889378 -1.1642257 -0.2907798
0002a0 b8 7d ce be c0 b6 18 3f 25 63 09 bf aa eb ee 3d
       -0.4033029 0.59653854 -0.5366691 0.11666043
0002b0 c0 ed c4 3d 20 5e 55 be f2 84 37 be ce d8 61 3d
       0.0961566 -0.20836687 -0.17921808 0.0551384
0002c0 34 ca 80 bd ef 67 da 3e f2 04 39 3d f9 83 99 3e
       -0.06288567 0.4265742 0.04517073 0.299835
0002d0 51 1a a1 3e 1e c6 b3 3e 1b 23 99 be 3a 57 bd 3d
       0.3146539 0.3511209 -0.29909596 0.09245153
0002e0 7e 37 cf bf bd 85 32 be d9 1b 71 be ae 3c c9 3e
       -1.618881 -0.1743383 -0.2354578 0.39304107
0002f0 ff 77 e5 be f4 03 97 be 5f 49 81 bd 56 d0 ca 3d
       -0.44818112 -0.29495203 -0.063128226 0.09903018
000300 dd 55 83 be 51 09 f4 3d 9f 92 24 be 4c 75 1d 3e
       -0.25651446 0.119158395 -0.16071557 0.15376776
000310 59 92 50 3d 3c d6 d8 3e 4e 37 cf 3e 48 48 3f bf
       0.050920818 0.42350948 0.40471882 -0.7471967
000320 8d 18 ed bc 74 80 58 bf a4 15 25 3c 23 fc 67 3d
       -0.02894237 -0.84571004 0.01007596 0.05663694
000330 92 05 e6 3e 5b 50 d4 3c 98 88 b7 bf 3d a2 e1 3d
       0.44926125 0.025917223 -1.433856 0.110172726
000340 14 ab e8 be 0a 63 c6 be cc 00 7c be 30 c6 1d 3e
       -0.45443022 -0.38747436 -0.24609679 0.15407634
000350 7f 78 f1 be 40 31 9d bd 65 f0 bc bd b1 c6 36 be
       -0.47162244 -0.07675409 -0.09225539 -0.17849232
000360 e6 7a 42 be 2d 16 cd bd c7 9f c6 3e af cc 02 3f
       -0.18992195 -0.10013995 0.38793775 0.5109357
000370 e5 ed a3 3e e7 a9 47 bf 22 36 69 bf df d9 19 bf
       0.32017437 -0.77993625 -0.91098225 -0.6009807
000380 cc c1 6a be 8a 61 13 3d c0 3c 0a bf 10 39 83 3f
       -0.2292549 0.035981692 -0.5399895 1.0251789
000390 d9 eb bf 3e 44 c9 d0 be 15 1d 2c 3f 24 7c 11 bf
       0.37484625 -0.40778553 0.67231876 -0.5683005
0003a0 87 15 f7 3d a4 34 21 3f f1 82 d0 be 6c dc 4d 3e
       0.12064653 0.6297095 -0.407249 0.20103616
0003b0 87 42 9c 3e 73 fc 8c be 54 5e 07 3d 67 8b 61 be
       0.30519506 -0.27536353 0.033048943 -0.22025834
0003c0 17 a1 05 3f 7f e7 3c bd 9f e4 04 3f c4 39 8e 3f
       0.5219893 -0.04611921 0.5191135 1.1111379
0003d0 ea df e4 3e 8a cf f5 3e 7e 91 41 3e 2e 55 05 3f
       0.44702083 0.48009902 0.18903157 0.520831
0003e0 2f d4 20 bf 53 92 6a be 00 6b 64 3e 4f b8 c3 bd
       -0.62823766 -0.22907381 0.22306442 -0.095566384
0003f0 f3 9c 6e bd 5f d0 9b be 6d 99 01 bf be 32 49 be
       -0.058255147 -0.30432412 -0.50624734 -0.19648263

model/separable_conv2d/BiasAdd.bias f4 [16]
000000 f9 9f e1 38 ac 53 15 39 7b fb 43 b9 bb e3 ed 38
       0.00010758633 0.00014240918 -0.00018690333 0.00011343459
000010 b5 7a 59 b8 0c be 1f b7 f2 b6 22 39 46 37 96 39
       -5.185111e-05 -9.521387e-06 0.00015517676 0.0002865141
000020 96 59 c8 39 3b 41 51 b9 df b8 89 b9 dc 1b 06 37
       0.0003821372 -0.00019956093 -0.00026268416 7.993509e-06
000030 19 86 08 b9 19 e8 d6 b5 b5 43 06 39 8c 69 26 b8
       -0.00013019926 -1.6011792e-06 0.00012804459 -3.9675782e-05

model/batch_normalization_1/FusedBatchNormV3.weight f4 [16]
000000 eb 1b 7c 3f 63 c6 95 3f 58 e4 51 3f 9b 8b 90 3f
       0.984801 1.1701168 0.8198905 1.1292604
000010 4e 69 7c 3f f6 69 60 3f 0d ce c6 3f 3b 9c 94 3f
       0.9859818 0.87661684 1.5531632 1.1610178
000020 73 44 8d 3f a7 ef 88 3f a8 fd af 3f fb 5f 9d 3f
       1.1036514 1.0698136 1.3749285 1.2294916
000030 df 37 86 3f b9 fe 5b 3f d8 77 8e 3f 02 7b 59 3f
       1.04858 0.8593555 1.1130323 0.8495332

model/batch_normalization_1/FusedBatchNormV3.bias f4 [16]
000000 7a 88 0e be fa 2d 7e be 5d 53 cd 3e 2e 02 6b be
       -0.13919249 -0.24822226 0.40102664 -0.2295005
000010 47 aa 8b be 09 aa 18 be 3b fc 35 be a0 f2 39 3d
       -0.2727835 -0.14908613 -0.17772 0.0453974
000020 c3 dc 12 be 9c 85 4e 3c b6 ac bd 3e 56 d6 ca 3b
       -0.14342026 0.012605097 0.3704583 0.0061901016
000030 5f 8a 3e 3e 52 2a af 3d bf c0 aa be 80 f2 0d 3f
       0.18607472 0.08552994 -0.3335018 0.5544815

model/separable_conv2d_1/separable_conv2d/depthwise.weight f4 [16, 1, 3, 3]
000000 5a fa b7 be e9 17 40 bf 30 27 a8 be 5d 21 67 be
       -0.3593319 -0.75036484 -0.32842398 -0.22571321
000010 b0 1f ac be 96 d2 96 bd 27 fa 26 3e 14 1e 5f be
       -0.33617926 -0.07364385 0.16306363 -0.21788818
000020 d5 15 a3 be 02 c2 ad be 5d 37 ee be 0b 31 1d 3e
       -0.31852594 -0.3393708 -0.46526614 0.1535074
000030 f9 22 93 be d5 76 d7 3d 30 9e da 3e 30 86 ef 3b
       -0.2873762 0.10520712 0.42698812 0.0073096976
000040 25 83 54 3f 03 cd 43 3e 56 b0 ae be 9c 69 11 bf
       0.8301261 0.19121175 -0.3411891 -0.5680177
000050 a8 bd 86 be e2 33 0e 3e 2b 20 a8 be 5e 63 03 bf
       -0.2631657 0.13886979 -0.32837042 -0.513235
000060 b4 51 28 3e 21 8c 2f 3e 40 83 1e be 87 67 62 3f
       0.16437417 0.17143299 -0.15479755 0.8843922
000070 57 15 91 3c 7d 98 16 3e b9 4f e6 3e 60 a6 ac 3e
       0.017710371 0.14706607 0.449827 0.33720684
000080 19 26 60 3d d3 c5 1f 3f aa fd 10 3e 02 04 8c bd
       0.054723833 0.6241123 0.14159265 -0.06836702
000090 a8 9c 2c 3f 50 88 ce 3e 7d e4 9b 3e 68 f4 01 3f
       0.6742654 0.40338373 0.3044776 0.5076356
0000a0 58 28 cf 3e 0e 6a 69 3b 2e 97 e1 3d f3 3b 08 3d
       0.40460467 0.0035616192 0.11015163 0.033260297
0000b0 82 de f1 bb 07 97 8c be bf b9 63 be ab 36 27 bf
       -0.0073812613 -0.27458975 -0.22238825 -0.6531779
0000c0 a0 de bd 3d 6a ae 8e 3d 18 4b 52 be a2 84 32 be
       0.09270978 0.069668606 -0.20536458 -0.17433408
0000d0 39 7a 48 be 2e ab ac be 1c 20 3c 3f 4a 9f d2 bd
       -0.19577874 -0.3372435 0.73486495 -0.10284288
0000e0 3f 14 0e bf 2c 5a 2f 3f a3 40 2a be 0b 41 01 bf
       -0.55499643 0.68496966 -0.1662622 -0.5048987
0000f0 d7 76 97 3e 96 2b f1 3d 74 1b be 3d d8 cc 10 bd
       0.29582855 0.117758915 0.0928258 -0.035351604
000100 fa 01 1d bf b7 40 bb be 46 df d4 3d e2 1f a7 be
       -0.6133114 -0.3657281 0.103941485 -0.32641512
000110 5c 28 1a bf 99 97 cb 3e fb 48 80 be 40 e2 15 be
       -0.60217834 0.39764097 -0.2505568 -0.14637089
000120 7e 7c 1d bf 64 e6 a1 be ce 84 a6 3d 28 54 b2 3b
       -0.61518085 -0.31621087 0.08130799 0.005442161
000130 e0 89 c0 3d 6a 9a ff 3e 37 a1 2e 3f 1c 6e 4e 3e
       0.094012976 0.49922496 0.68214744 0.20159191
000140 e7 9c 1a 3d 70 ee 82 be 7e 07 87 3d 7d 51 16 3e
       0.03774729 -0.25572538 0.06593226 0.14679523
000150 75 e0 5d 3e fa 7c 50 3e 04 c4 87 3e b5 2e b5 3e
       0.21667655 0.20360175 0.26516736 0.35387197
000160 b0 af c4 3e b9 d3 26 3f 0f e3 e9 3e 6e e1 05 3e
       0.3841529 0.65166813 0.45681044 0.13074276
000170 9a c6 22 bf d5 8f 1a 3f 8b 84 e3 3e 55 5d 9d be
       -0.6358429 0.6037572 0.4443706 -0.3073527
000180 ce e5 a6 be e4 1e 27 3e 9c 40 c9 be f4 10 09 be
       -0.32597202 0.16320378 -0.39307106 -0.13385373
000190 dc 0b ac be bf 54 a8 be a6 53 7b 3e 45 e8 bf be
       -0.33602798 -0.32877156 0.24543628 -0.37481895
0001a0 45 cb bc be e4 31 9a bd 2a a6 07 bf fc a0 13 bf
       -0.36873832 -0.07529047 -0.5298792 -0.5766752
0001b0 1d bc 08 bf 2d c0 f0 3d d5 7c d1 3e 30 45 1e bf
       -0.5341204 0.117554046 0.40915552 -0.6182432
0001c0 6a a3 4a bd 9f 1d c7 3e 2a 0f 7f 3d 26 bc 5b bc
       -0.04947225 0.38889787 0.06227032 -0.013411557
0001d0 bd e3 c3 3e 2f 6e 30 3e c6 0b 3c 3e 8e f6 f9 3d
       0.38259688 0.17229532 0.18363866 0.1220523
0001e0 c1 49 0b 3e ff cf b6 be a4 49 f6 be 1e 6b 2f 3f
       0.13602354 -0.35705563 -0.48103058 0.6852282
0001f0 bd 44 b0 3d 31 0a 97 be 38 ee 89 3e 44 5d 04 be
       0.08606861 -0.29499963 0.2693956 -0.12926203
000200 01 c4 1f bf 7b e3 09 3f d4 b6 05 bd 55 93 bf be
       -0.62408453 0.5386273 -0.03264506 -0.37417093
000210 24 98 37 3f 01 14 35 be 84 ff bd bd b2 b3 c3 3e
       0.71716523 -0.17683412 -0.09277251 0.38223034
000220 1a d2 94 3b 10 6f 03 bf 3e cf c8 3e 6b ae e0 3d
       0.0045416476 -0.5134134 0.39220613 0.109707676
000230 ce 41 2b be 39 01 ed 3e 29 bc 0b 3f ef 47 74 bb
       -0.16724321 0.46289995 0.54583985 -0.003727432

model/separable_conv2d_1/BiasAdd.weight f4 [16, 16, 1, 1]
000000 ee 0c 72 bd a6 0f f7 bc a7 91 33 be 03 c0 30 3e
       -0.059094362 -0.030158829 -0.1753603 0.17260747
000010 11 4f 02 3e 41 2d 5b bd 83 16 30 3f 20 a1 82 3e
       0.12725474 -0.053509954 0.6878435 0.25513554
000020 94 3d 86 be f4 9f 27 bf e7 70 8a 3e 78 99 71 3f
       -0.26218855 -0.65478444 0.27039263 0.943748
000030 6a 62 cc bd 72 98 3f 3f dd 47 53 bf 8f c4 22 be
       -0.099797085 0.7484199 -0.8253153 -0.15895294
000040 f4 71 43 3e 7b 1e bd be be 43 07 3c a2 45 89 be
       0.19086438 -0.36937317 0.008255897 -0.26810938
000050 0b e6 11 bf dd 46 78 be c1 6e 26 3d dc 3f 93 3f
       -0.5699164 -0.24245782 0.040632967 1.1503863
000060 32 26 a6 be 9c 33 68 be 3c ac 96 3e f0 55 83 3f
       -0.32451016 -0.22675937 0.2942828 1.0260601
000070 da 44 7f 3e a3 03 d0 bc cb 31 ac be c3 93 0b 3f
       0.24928609 -0.02539236 -0.3363174 0.5452234
000080 7b 9a bb be 6c 67 1f bf a7 f7 d7 3c a2 24 09 3f
       -0.36641297 -0.62267184 0.026363207 0.5357152
000090 b2 d9 0e bf ef 7d e7 3e e5 39 30 bf 5d d8 03 3f
       -0.55800927 0.45213267 -0.6883834 0.5150202
0000a0 b4 27 bc 3d 51 87 0f 3f b1 8c 87 3e 00 8a 80 be
       0.0918726 0.5606585 0.26474527 -0.25105286
0000b0 6e 10 02 bf 8a 6f ce 3d 51 ef 06 3f ff 91 27 be
       -0.5080632 0.10079868 0.5270892 -0.16364287
0000c0 ed 40 7c 3f 59 96 93 be 63 dc 0f bf a9 81 4a be
       0.9853657 -0.28825644 -0.5619566 -0.19776024
0000d0 f2 35 e5 3d 70 0b 24 bf 52 70 08 bf 9e 74 77 3e
       0.1119193 -0.6407995 -0.5329639 0.2416558
0000e0 ef 07 e8 3d 32 34 47 bf e1 33 9b bc 39 65 6a bd
       0.11329638 -0.7781402 -0.018945636 -0.05722544
0000f0 d2 f4 28 3e d6 36 29 bf 2c 16 fd bd 2b 76 54 bf
       0.16499642 -0.660993 -0.123577446 -0.8299281
000100 ea 8b 3d 3f 8e c9 99 3d 27 91 c4 3e 7c 4a 32 3f
       0.74041617 0.07509147 0.38391992 0.69644904
000110 b1 2b 3c 3e 4f b9 d4 3e c7 29 7d bf 02 5f 26 bf
       0.18376042 0.4154763 -0.9889187 -0.6498872
000120 43 dd e3 bd 65 6f f9 3e 54 85 58 3e 1f 10 0a be
       -0.11126187 0.487178 0.2114461 -0.13482712
000130 7b 2f 20 bd 8e b1 18 be 32 93 b0 3e 91 e6 a8 3e
       -0.03910778 -0.14911482 0.344873 0.32988408
000140 51 09 7b be 4c 55 4a 3e e4 92 bc 3d dc 04 9f 3c
       -0.24515273 0.197591 0.09207705 0.019411497
000150 18 dd 96 be f6 81 d7 3e 66 bb 19 bf 78 7b 75 3c
       -0.29465556 0.4209134 -0.6005157 0.0149830505
000160 b6 10 a6 3e 32 41 60 bf 4c ff 95 bf bf 6b c8 ba
       0.32434624 -0.8759948 -1.1718535 -0.00152909
000170 5d d2 1f bf fd ac 3b 3e 98 25 e1 3e 60 b8 81 3e
       -0.62430364 0.18327709 0.43973994 0.2533598
000180 cd 1c 1c 3f f9 e1 aa 3d 7c 01 4b 3d 51 11 2c 3f
       0.60981447 0.08343882 0.049561962 0.6721392
000190 a2 e7 23 3f cf 01 9c 3d e4 76 55 be 00 0e eb 3d
       0.6402532 0.076175325 -0.20846134 0.1147728
0001a0 40 3a 2c bf 59 04 25 bd 29 27 ce be 58 7d b9 be
       -0.6727638 -0.04028735 -0.40264252 -0.36228442
0001b0 b5 75 08 bf ba 1c 99 3e 13 c1 0b 3e 90 08 41 bf
       -0.53304607 0.2990473 0.1364787 -0.7540369
0001c0 37 4a 24 3f 69 e7 2b bf 48 e8 b0 bb 14 b1 23 be
       0.6417574 -0.6714998 -0.005398784 -0.15985519
0001d0 94 c8 ab 3e f4 86 e2 be c5 d3 07 3e e1 57 a3 3e
       0.33551466 -0.44243586 0.13264377 0.31902984
0001e0 11 0b 44 3f 1e 11 c6 3d 31 09 f5 be e5 d5 2f bf
       0.76579386 0.096712336 -0.47858575 -0.6868575
0001f0 28 c8 66 3e 1d 65 2f bf ff 8d 41 3e af 36 06 3c
       0.22537291 -0.6851366 0.18901823 0.0081917485
000200 86 6d a6 bd df 4e c1 3e 7d 20 34 bf 55 6f da 3c
       -0.08126359 0.37755486 -0.70362073 0.026664415
000210 87 65 ec 3d dd 8e 8a 3f d0 98 89 3e 6f 0d ca be
       0.11542802 1.0824848 0.268744 -0.39463374
000220 6d a3 58 3f 7d 81 91 be 41 85 46 bf ef f7 ad 3e
       0.8462437 -0.28419104 -0.7754708 0.3397822
000230 a7 31 a1 bd 99 be 28 bc a0 7e b4 bd 91 e0 56 be
       -0.078707986 -0.010299348 -0.08813214 -0.20984103
000240 0c 16 bd be 18 53 93 3e 96 76 b3 3f 69 20 16 3d
       -0.36930883 0.28774333 1.4020565 0.036652002
000250 e5 22 e1 3d 56 9f b5 bd a2 6d 9f 3f f1 ba 2e 3e
       0.10992984 -0.088682815 1.2455332 0.170635
000260 0f f8 a7 3d 9d 8e e5 bd b0 70 01 be 64 81 74 bd
       0.0820161 -0.11208842 -0.12640643 -0.05969371
000270 58 33 bb 3d 62 24 a3 bd 60 d1 5d be a3 9b 0c 3c
       0.091406524 -0.07965924 -0.21661901 0.008582029
000280 ff c9 13 bd 33 c5 47 3f ec 3a 15 3e b6 22 b8 3e
       -0.03608131 0.7803528 0.14573258 0.35963982
000290 f4 d2 8c be 88 7e e7 3e e7 64 8f be 7c d0 b8 3e
       -0.27504694 0.45213723 -0.2800667 0.3609656
0002a0 8d f5 44 bf 32 e1 14 3f 59 67 2e bf 16 30 10 bf
       -0.7693718 0.5815612 -0.68126446 -0.56323373
0002b0 be d6 20 3f 3a 73 12 3e 0f d0 b5 be 6f b0 15 3e
       0.6282767 0.14301768 -0.355103 0.14618085
0002c0 73 ac cb be 14 88 ba be 14 f9 42 bf 83 72 d4 3e
       -0.39780006 -0.36431944 -0.76161313 0.41493616
0002d0 95 cb 6b 3e 3f 38 8f be 61 a6 93 3e 7d 31 92 be
       0.23026879 -0.279726 0.28837875 -0.28553382
0002e0 71 4d 86 be 93 60 ed be fb a2 dc 3e 0e 57 3b 3f
       -0.26230958 -0.46362743 0.43093094 0.7317971
0002f0 eb 0e 17 bf 2e 18 00 be 7e ba 94 3e aa 18 75 3e
       -0.5900714 -0.12509224 0.29048532 0.2393519
000300 76 25 dd be 2e 04 85 bf c8 0c 92 bc a3 04 0a bf
       -0.43192643 -1.03919 -0.01782836 -0.53913325
000310 a1 c0 0a bf 88 ea cf 3e f7 aa da 3e 05 04 0f bf
       -0.5420018 0.4060862 0.4270856 -0.5586551
000320 2d 2d 19 3e 3a 5c 88 3d 26 8b d1 3e 03 a0 7b bc
       0.1495864 0.06658216 0.40926474 -0.015357974
000330 45 5d 10 3f 71 7a 89 3e 6e 2c 17 bf 9f 64 b8 3e
       0.5639232 0.26851228 -0.5905217 0.36014268
000340 99 8d 4a bf c4 f5 20 be a8 34 19 bd 85 d8 d3 3e
       -0.7912231 -0.15718752 -0.037403733 0.4137613
000350 6b 89 ba be 3f 41 9b be ee d1 ae 3e 91 b7 be be
       -0.36432967 -0.30323216 0.3414454 -0.37249425
000360 6f 74 53 bf 38 af 1c bf b6 7f 04 3e 89 f6 4d 3e
       -0.8259954 -0.6120486 0.12939343 0.20113577
000370 72 2e 9b be 29 b7 82 3e 50 c4 31 be 3c 28 8a bd
       -0.30308872 0.25530365 -0.17360044 -0.06745955
000380 97 c5 e2 3d f4 48 98 be 08 a7 7d be 47 50 32 3f
       0.110728435 -0.2974316 -0.24770749 0.69653744
000390 aa 52 03 3f 5a df d0 be 3c ef 3c 3d 9f 1d b3 3e
       0.5129801 -0.40795404 0.04612659 0.34983537
0003a0 d7 30 1f bd 9b 35 96 3e 24 73 16 3e 8b 5b 0f be
       -0.038864937 0.29337773 0.1469236 -0.13999765
0003b0 bc 13 cb be 78 bc e5 3e 86 a5 6e 3f ce 82 55 3f
       -0.39663494 0.44870353 0.9322132 0.8340272
0003c0 ee a8 63 3f 65 5c b2 3d 37 e6 9c 3d b6 50 bf 3e
       0.8892964 0.08709029 0.076610975 0.37366265
0003d0 21 80 e7 3d 88 2b 76 ba c2 0a 21 3f c9 67 ee 3e
       0.113037355 -0.0009390642 0.6290704 0.46563557
0003e0 b0 8a 1e bd be bb f4 3e 14 0a a5 3e bb cb 7a 3e
       -0.03870648 0.47799486 0.32234251 0.2449178
0003f0 2e c5 74 bd 63 c3 2c bf d2 6e 6d bf 3c 6e d9 bd
       -0.059758358 -0.67485636 -0.92747223 -0.10616729

model/separable_conv2d_1/BiasAdd.bias f4 [16]
000000 54 c4 ac 38 ff d6 17 39 c6 d8 41 37 fe 0e a6 38
       8.238168e-05 0.00014480574 1.1554168e-05 7.918289e-05
000010 ab af 9b 38 24 7e ea 39 b9 8f d3 b9 ae 07 9b b8
       7.423697e-05 0.0004472594 -0.00040352138 -7.3924064e-05
000020 f8 71 bf b8 09 29 a3 37 c7 25 15 39 27 f0 be 37
       -9.128818e-05 1.9450223e-05 0.0001422382 2.2761595e-05
000030 96 9b 11 b9 37 ea a6 38 f6 93 fb b6 19 e9 4b 39
       -0.00013886238 7.959123e-05 -7.497608e-06 0.00019446424

model/batch_normalization_2/FusedBatchNormV3.weight f4 [16]
000000 e2 57 6c 3f 6e 90 e2 3f 65 a6 15 3f 95 05 47 3f
       0.923216 1.7700326 0.5845702 0.7774289
000010 a8 da c4 3f 86 57 b1 3f de 27 c0 3f 0f 39 64 3f
       1.5379229 1.3854835 1.5012167 0.89149565
000020 4f 20 8e 3f cd ad c3 3f 25 37 9b 3f bb fd 48 3f
       1.110361 1.5287415 1.2126204 0.7851216
000030 13 f9 bf 3f 8f 26 a7 3f 6f 90 af 3f fa 3b 9c 3f
       1.4997886 1.3058642 1.3715953 1.2205803

model/batch_normalization_2/FusedBatchNormV3.bias f4 [16]
000000 5e a5 64 bc 61 28 a8 3e e7 a7 ea 3e 58 e7 f2 be
       -0.013955442 0.32843307 0.45831224 -0.47442126
000010 47 62 9b be c7 a6 ed 3c d0 c3 4f 3d ff 97 0f 3f
       -0.30348417 0.02901019 0.05072385 0.560913
000020 99 a7 5f 3f dd 29 16 3f 4b 7d 54 3e 1c 1b c2 be
       0.8736511 0.5865763 0.2075092 -0.37911308
000030 2a c3 c9 be a2 31 b3 3d 77 d3 4d be f3 77 85 3f
       -0.3940671 0.08749701 -0.20100199 1.0427231

model/separable_conv2d_2/separable_conv2d/depthwise.weight f4 [16, 1, 3, 3]
000000 2b 7b 2d 3c 8d 7a 89 be 3f 51 99 3e 97 fe cc 3e
       0.010588448 -0.2685131 0.29944798 0.40037987
000010 43 7a f7 3e c9 c7 f3 3e c0 d4 e3 be be 75 fb be
       0.48335466 0.4761336 -0.44498253 -0.49113268
000020 c3 4d 27 bf 67 c6 a5 be c6 44 2b be fe 0e 12 be
       -0.6535303 -0.3237793 -0.16725454 -0.14263532
000030 c9 67 e2 be e8 14 1f be 01 7d f1 bc 13 cf 00 bf
       -0.44219807 -0.15535319 -0.029478552 -0.5031597
000040 a5 ed 81 3c e4 45 56 be 09 20 1e 3e 38 9d 0b bf
       0.015860388 -0.20925099 0.15441908 -0.5453677
000050 6d 43 10 bf 7f f1 32 3f eb 48 3d 3e 77 7c 67 bd
       -0.56352884 0.69899744 0.18484847 -0.056515183
000060 44 69 1a 3f 0f be 87 3e d7 31 4c 3d e5 97 9e be
       0.6031687 0.2651219 0.04985222 -0.3097526
000070 26 71 ef be 4e f8 44 bf a0 e2 0d be 8f 6b d0 3d
       -0.46766013 -0.7694138 -0.13855982 0.10176765
000080 55 d6 af 3c ad 27 da 3e 1f 81 bf 3e f0 8b fe 3e
       0.021464506 0.42608395 0.374032 0.4971614
000090 8f 1f 01 3e d8 2b 00 3e 06 6f b9 3e 32 1a 00 be
       0.12609695 0.12516725 0.36217517 -0.12509993
0000a0 26 42 72 3e b6 7c f9 3e 63 b3 18 bf ae 8f 8d be
       0.23658046 0.4872796 -0.5964872 -0.2764868
0000b0 fe f7 db 3c 06 61 b5 3d 98 ba df 3e a8 32 4c 3f
       0.02685165 0.088563964 0.43697047 0.79764795
0000c0 59 6e 72 3d 58 7b c7 3d 98 16 2c 3f b6 87 59 3e
       0.059187267 0.09740323 0.67221975 0.21243176
0000d0 3f f8 b5 bc bb c9 26 be f2 07 7c 3e 2f 6b e7 be
       -0.0222131 -0.16287892 0.24612406 -0.45198962
0000e0 e2 fb 01 3e 10 e0 12 3f 30 53 1b be 43 21 b9 be
       0.12693742 0.5737314 -0.15168452 -0.3615819
0000f0 6a 98 1e 3e 6d 60 bd 3d 77 24 2b bf 78 46 a5 bd
       0.15487829 0.092469074 -0.66852516 -0.080700815
000100 54 ec 91 be 4f 59 b1 be 70 7c d8 3b 7f 40 af 3e
       -0.28500617 -0.3463845 0.006606631 0.34228894
000110 23 da 78 be 20 ee f4 3d ad 11 e4 3d 79 59 ba be
       -0.24301963 0.11959481 0.11136184 -0.36396387
000120 18 ee 30 bf 10 84 1a bf 66 33 98 3c 2c da fa bd
       -0.691133 -0.6035776 0.018579196 -0.12248644
000130 c3 bb 52 bd 32 ba 0f 3f c7 6b e2 3e 6c 0d 9c bc
       -0.051448595 0.56143486 0.44222853 -0.019049369
000140 c5 67 fb 3e 0d 32 7c bf 05 e0 21 be 13 7e 1e 3e
       0.49102607 -0.9851387 -0.15808113 0.15477781
000150 cc 76 90 be 2f 64 90 3e b9 2b da 3d bf f5 a4 3e
       -0.28215635 0.28201434 0.10652871 0.3221874
000160 ae 57 1d 3f d8 53 d6 3e 82 f2 c9 3e 64 0e ef 3d
       0.61461914 0.41860843 0.3944283 0.11672667
000170 0c d5 ce bc b8 33 3a 3f 25 1d 9a 3e 67 01 d0 3c
       -0.025248073 0.72735167 0.3010036 0.025391294
000180 25 30 2c be 0b 47 40 be c8 75 3a be 21 79 0b be
       -0.1681524 -0.187771 -0.18208992 -0.13620426
000190 c2 83 ce be 00 9a 2f bf cd 0a a6 3e e6 4e 18 3e
       -0.40334898 -0.6859436 0.32430115 0.14873847
0001a0 d9 72 5b 3e 62 30 74 be 9a 4f 77 bf cc ed 20 bf
       0.2143053 -0.23846582 -0.9660584 -0.6286285
0001b0 6d ba 4b 3c 71 fb a7 3c 94 c9 54 3d 6d dc ad bc
       0.012434584 0.020505639 0.051950052 -0.021223271
0001c0 99 bb 3f 39 b8 43 e1 bc 32 79 a1 3e a9 63 28 3f
       0.00018285065 -0.027498111 0.31537777 0.6577707
0001d0 d7 61 4f 3f c1 9c c2 be 2a d0 8c be 2f 0d cd be
       0.81008667 -0.3801022 -0.27502567 -0.4004912
0001e0 2f 0d 83 be 34 92 1a be bf c1 1b be 57 6d 28 3e
       -0.25595996 -0.15094835 -0.15210627 0.1644796
0001f0 a8 c0 41 3f fa 0f f4 3e bb ca 85 3e ab d2 89 3e
       0.75684595 0.4766844 0.26131234 0.2691854
000200 7e 21 0d bd 32 57 11 3e f3 66 2d 3e b7 52 af be
       -0.03445577 0.14193419 0.16933803 -0.34242794
000210 ed e2 b7 3e 98 e4 d8 3d f5 7e 8f 3e 80 1d ee 3e
       0.35915318 0.10590476 0.28026548 0.46506882
000220 b6 50 8f 3e 09 60 56 be 98 84 cc 3d fa b9 aa bc
       0.27991265 -0.20935072 0.09986228 -0.020840634
000230 85 be 8e 3e 2e 0e 8f 3e 78 d3 a3 3e e0 03 aa 3e
       0.2787973 0.27940506 0.31997275 0.3320608

model/separable_conv2d_2/BiasAdd.weight f4 [16, 16, 1, 1]
000000 8d 1d c0 3d e9 ab d5 3d c6 c2 10 3f 34 c9 94 3d
       0.09380636 0.1043318 0.565472 0.07264939
000010 f6 ab 96 3c 93 85 45 be d5 75 0d 3f 03 9e 07 be
       0.018392544 -0.19289236 0.5525792 -0.1324387
000020 ee b1 9d be f7 57 33 bf 3e 91 d2 3e 21 53 87 3f
       -0.30799812 -0.700561 0.41126436 1.0572244
000030 72 ee f9 3d 9a 2b c8 be 4a aa 78 be bc e8 f7 be
       0.12203683 -0.39095765 -0.2428371 -0.4841975
000040 ad 79 9e be f6 75 36 bd 62 25 f7 be 70 28 d7 bf
       -0.30952206 -0.04454609 -0.48270708 -1.6809216
000050 3b e1 97 bd e0 4d cf 3d d0 af 39 bf 91 1c ad 3e
       -0.07416006 0.10122275 -0.72533894 0.33810857
000060 c8 29 86 be 58 95 1f 3e 1b c5 97 3e 44 a6 80 bc
       -0.26203752 0.15584314 0.29642567 -0.015704282
000070 8e 49 3e be 65 d1 32 be ce 83 97 3e 83 cc 20 3f
       -0.18582746 -0.1746269 0.29592746 0.6281206
000080 9c c5 6e be c2 67 4f 3d c8 17 a0 3d d9 99 8f 3e
       -0.2331757 0.05063606 0.07817036 0.28047064
000090 c5 da 03 bf 90 ef 9a bd 42 c8 f5 3e 17 94 d4 3e
       -0.5150569 -0.07565224 0.48004347 0.41519234
0000a0 37 2d 07 be 02 92 b8 3f e4 a9 a8 bc b5 af 3f 3e
       -0.13200842 1.4419558 -0.020588823 0.1871937
0000b0 4a d0 66 be 3c 1b d0 3e 3b 87 b3 3c 69 88 99 be
       -0.22540393 0.40645778 0.021915069 -0.29986885
0000c0 f4 e7 15 bf 1d 83 ac 3e 1f 3b eb bd 49 64 37 3c
       -0.5855706 0.33693781 -0.11485886 0.011193343
0000d0 56 c7 e0 3e c7 98 53 bf 22 42 da 3e b8 66 ed 3d
       0.4390208 -0.82654995 0.4262858 0.11591858
0000e0 7f 06 f2 3e 38 bd 9b bf 21 1c 57 be bf f6 70 3e
       0.4727058 -1.216712 -0.21006824 0.23531626
0000f0 d1 63 74 bd ae e5 91 be f5 04 cd be 7f df b9 bd
       -0.059665505 -0.28495544 -0.40042844 -0.090758316
000100 29 1c 0d 3f bf 09 c1 be fc 0a 8e 3f 84 38 69 3f
       0.55121094 -0.37702748 1.1097102 0.9110186
000110 3b c5 8c 3e f9 50 de 3d 77 50 57 be d8 a1 f3 3d
       0.27494225 0.10855288 -0.21026789 0.118961036
000120 7a d2 8c be 96 a6 d3 3e b0 27 d0 bc c3 c5 b3 be
       -0.2750433 0.41338032 -0.02540955 -0.35111818
000130 4c 81 64 3d 17 b7 c3 bd d5 15 f6 be 2a ae 28 bf
       0.05578737 -0.09556406 -0.48063532 -0.65890753
000140 ca 02 b0 bd 33 e6 7c be b8 20 f1 be e5 9e d1 3e
       -0.08594282 -0.24697189 -0.47095275 0.4094154
000150 76 05 81 3e 90 64 4a 3f af c1 a6 3c a1 21 05 be
       0.2519948 0.79059696 0.020356027 -0.1300111
000160 37 33 ac bd 43 26 12 bf 93 4a 6e be 0f 87 b8 be
       -0.08408206 -0.5708963 -0.23270635 -0.36040542
000170 d6 52 1d bf c9 d3 ac be fa b8 5f 3e e4 b3 58 3e
       -0.6145452 -0.3375533 0.21847907 0.21162373
000180 ec f1 40 3e ac f4 c5 be ad 34 45 be 0b 19 26 be
       0.18842286 -0.38663232 -0.19258375 -0.1622049
000190 c4 a4 89 3d ac 38 bf be d8 15 d3 be d9 8d 39 3f
       0.0672088 -0.37347925 -0.41227603 0.7248207
0001a0 9e 02 20 bf 20 69 64 be 81 7f bf bd 1d 27 0c 3f
       -0.62503994 -0.22305727 -0.09350491 0.5474718
0001b0 d3 b4 30 bf a7 5d 40 be c2 78 2e bf 42 eb 0b bf
       -0.69025916 -0.18785726 -0.6815301 -0.5465585
0001c0 95 e6 8e 3f 7a 64 d5 be 8d 51 05 bf b8 8f d4 be
       1.1164118 -0.4167822 -0.5207756 -0.415159
0001d0 4c 4b 2d 3d 86 20 5d bf 58 04 b5 3e af e1 47 3e
       0.042308137 -0.8637775 0.35354877 0.19519685
0001e0 d7 95 78 3e a6 9b 40 be d1 b9 00 bf 6c 15 cd 3d
       0.2427591 -0.18809375 -0.50283533 0.100138515
0001f0 cd 2d f9 3e 5b e4 02 3e e4 9e 70 3e 0d 4f a3 bc
       0.48667756 0.12782423 0.23498112 -0.019935155
000200 95 29 9e be 71 7e 52 bf bc 17 4e bd b2 7f 92 be
       -0.308911 -0.82224184 -0.050315604 -0.2861305
000210 f3 94 aa 3e 25 11 3d 3f 3a 52 d6 bd 2e ae 36 be
       0.33316764 0.73854285 -0.10464902 -0.17839882
000220 c2 87 51 3d 2d ba 1d bf b6 75 2e bf e4 5a f4 3e
       0.05115486 -0.61612207 -0.6814836 0.47725594
000230 c4 98 03 bf e9 9f d5 3d 05 40 49 3e 6a a3 10 be
       -0.51404977 0.10430891 0.19653328 -0.14124838
000240 9d a8 02 bf 78 7e 4d 3f d2 f0 d3 be a1 81 33 3e
       -0.51038533 0.802711 -0.4139467 0.17529918
000250 f9 4b 40 3f 01 0c d6 3e 37 30 a2 be 5e ac 84 3e
       0.75115925 0.41806033 -0.3167741 0.25912756
000260 b2 31 19 3f 7f 98 26 bd 43 dd a7 3d d0 37 0e 3f
       0.59841454 -0.040672775 0.08196499 0.55553913
000270 dc 52 78 3d 24 cc 08 3f fa fe 91 bd 2f 6b 1d bf
       0.060625896 0.53436494 -0.07128711 -0.61491674
000280 3d be 13 3d 92 87 32 3e 29 f9 48 bf 09 43 a4 be
       0.036070097 0.17434528 -0.7850519 -0.32082394
000290 9d e8 48 3e 1e 38 b1 be f7 52 6a bf 02 8c 3c be
       0.19619985 -0.34613127 -0.91532844 -0.18412784
0002a0 ba 47 16 bf 1a c8 e5 3e 37 7c be be 0d 31 71 3c
       -0.58703196 0.44879228 -0.37204143 0.014721167
0002b0 95 69 77 3f 69 03 74 bc e7 ef ab be 73 a9 46 be
       0.9664548 -0.014893391 -0.33581468 -0.19400577
0002c0 af 2b 17 3e 5e c2 9b bd 18 5d 07 bf 0b e2 93 be
       0.14762758 -0.07605432 -0.52876425 -0.28883395
0002d0 02 d5 70 be 34 92 b0 3e ac ed 58 bf 33 18 e5 be
       -0.23518756 0.34486544 -0.8473766 -0.44745025
0002e0 16 f4 85 bc 50 f0 8b be f9 1d 41 3f 36 41 2a 3f
       -0.01635174 -0.2733178 0.7543636 0.66505754
0002f0 76 40 a0 3e ba 14 ad be 39 fc a4 be 27 fa de bd
       0.3129918 -0.33804876 -0.3222368 -0.108875565
000300 6f f5 02 3f 91 98 9b ba c5 be 1a 3e 3a 17 8f be
       0.5115575 -0.001187103 0.15111835 -0.27947408
000310 5c f5 4d be 6b c6 33 3e 98 43 6f 3f 38 bd 52 3e
       -0.20113128 0.17556159 0.93462515 0.20579994
000320 4a 7c 5d 3e 4f af 52 bd 23 dc 19 3f 43 02 72 3e
       0.21629444 -0.05143672 0.60101527 0.23633675
000330 1d 3b c8 3d 82 5d b1 3f 5e 98 16 be 36 33 5e 3d
       0.097769 1.3856661 -0.14706561 0.054248057
000340 83 b4 24 bf cd aa 16 3f ae 68 a3 be ef 2b ca be
       -0.6433794 0.5885437 -0.31915802 -0.39486644
000350 f6 54 f8 be 7e 4f d0 be 31 5a a3 3d 65 a3 03 3d
       -0.4850232 -0.40685648 0.07976187 0.032138247
000360 96 b7 6a bf 6d 8b e8 be 50 fb 00 bd 9a fb d8 be
       -0.9168638 -0.45418873 -0.03148967 -0.42379457
000370 de c4 70 3e 5e 72 03 bf 4d 7e d7 bd fe 29 6b 3e
       0.23512599 -0.51346385 -0.10522137 0.22965237
000380 06 fa 0c 3f 5c 64 71 3e 7f ec ec bd bb 6e 92 be
       0.55069005 0.2357344 -0.115685456 -0.28600106
000390 3d f4 1b bf e3 0d 6f bf 3e bd 4b 3d c0 41 0a be
       -0.60919553 -0.93380564 0.049741022 -0.13501644
0003a0 a5 6b 20 3f 94 96 05 3f e0 35 e7 3d 01 bc 9e 3e
       0.6266425 0.5218289 0.11289573 0.3100281
0003b0 f3 6d af 3e be 95 25 3f b6 d9 0e be be 92 20 3f
       0.34263572 0.64681613 -0.13950238 0.6272391
0003c0 cd 3a 1c 3f 13 18 07 3f 57 52 88 be e8 a1 eb be
       0.6102722 0.5277111 -0.2662532 -0.46021962
0003d0 7f 90 36 bf e5 da c8 3e c3 9f 82 3e 7b dd 36 3d
       -0.71314234 0.39229503 0.25512514 0.044644814
0003e0 40 ba a5 bf d9 76 d5 bc 1f 83 94 bd 80 78 b9 3e
       -1.2947464 -0.026057648 -0.07251572 0.36224747
0003f0 af 43 a3 3e 01 37 11 be f1 b0 38 bf 1f df 2d 3d
       0.31887576 -0.14181139 -0.7214499 0.042449113

model/separable_conv2d_2/BiasAdd.bias f4 [16]
000000 e5 49 3b b7 37 1b 1d 38 df be a4 b7 51 87 fa 37
       -1.11632735e-05 3.7457063e-05 -1.9639205e-05 2.9865334e-05
000010 25 4b 4a 37 e3 74 ab b7 8f c6 c7 b8 09 eb 53 b9
       1.2057634e-05 -2.0439218e-05 -9.526044e-05 -0.00020210085
000020 4e 6a ba 38 12 a1 80 39 30 b1 b1 37 0e 0b 78 35
       8.888972e-05 0.0002453407 2.1182554e-05 9.2403286e-07
000030 90 4f 5c b8 c4 51 de 37 4a 92 3f b8 89 59 c9 36
       -5.2526186e-05 2.6502537e-05 -4.567419e-05 6.00069e-06

model/batch_normalization_3/FusedBatchNormV3.weight f4 [16]
000000 5e 9a 88 3f d2 49 93 3f f4 68 84 3f d6 dc 72 3f
       1.0672109 1.1506903 1.0344529 0.9486822
000010 07 e0 91 3f aa d2 50 3f fc 0d b8 3f dc c8 a1 3f
       1.1396493 0.8157145 1.4379268 1.2639422
000020 3c 15 a4 3f 66 18 6e 3f 0a 8d 67 3f 89 cf 95 3f
       1.281898 0.9300598 0.90449584 1.170396
000030 35 d2 65 3f fe d7 68 3f 9e 1e 96 3f 5c d7 75 3f
       0.89773875 0.9095458 1.1728094 0.9603174

model/batch_normalization_3/FusedBatchNormV3.bias f4 [16]
000000 dd ef b1 be fc 65 a7 be 6d 59 10 be 58 30 77 be
       -0.34753314 -0.32694995 -0.14096613 -0.24139535
000010 4c 43 10 3f 49 8b 0d bf d1 dd 82 3f 6a 35 67 3e
       0.56352687 -0.5529066 1.0223943 0.2257897
000020 09 6c d5 bc cf 76 c2 3e 2c 75 83 be af 05 71 3c
       -0.026052492 0.3798127 -0.25675333 0.014710828
000030 37 86 c6 3d 3a c8 8f 3c 07 63 52 be fc 5d c4 3e
       0.09693568 0.01755153 -0.20545588 0.38352954

model/separable_conv2d_3/separable_conv2d/depthwise.weight f4 [16, 1, 3, 3]
000000 bf 10 f3 3e 83 1d 1a be 25 29 ff be b5 99 89 3e
       0.47473714 -0.1505032 -0.49836078 0.26875082
000010 cc d0 78 bd 7b 3c 92 be d4 5d c8 be 62 b3 13 bf
       -0.060746 -0.28561768 -0.39134085 -0.5769559
000020 b9 9a 62 be 45 6b 0c bf 6c 1f cf 3b f5 ec 9f 3c
       -0.22129335 -0.5485118 0.0063208845 0.01952217
000030 f5 25 f6 be d6 a5 8d 3e 55 23 2a 3f 28 a9 00 bf
       -0.48075834 0.27665585 0.6646016 -0.5025811
000040 ef 90 4e 3e a3 b3 a2 3e b3 06 43 3e b8 4d 91 3e
       0.20172475 0.31777677 0.19045524 0.28379607
000050 f8 0e 75 be ee 78 d6 3e 00 aa 5c 3e 24 24 c3 be
       -0.23931491 0.41889137 0.21549225 -0.3811351
000060 b4 8c 27 3f 68 f7 dd 3e 99 0b f8 3d 16 76 a3 3d
       0.6544907 0.43352818 0.12111587 0.079815075
000070 d8 1f cb be 53 10 df be 10 67 76 be b6 0a ba be
       -0.39672732 -0.43567142 -0.24062753 -0.36336297
000080 fd 33 76 be 7c 20 4d be 2f 8b a7 be ea a1 73 be
       -0.2404327 -0.20031923 -0.32723376 -0.23792234
000090 b4 3b d2 3e f6 3b 64 bc 13 22 de 3c b5 fa fa 3e
       0.41061175 -0.013930311 0.027115857 0.490194
0000a0 23 05 b4 3e a2 85 99 3e 01 52 e3 be 2d f0 2f bf
       0.3516017 0.29984766 -0.44398502 -0.68725854
0000b0 0f b1 00 bf de d2 e7 3e bf 10 4b 3e 23 c4 9b be
       -0.5027017 0.45278066 0.19830607 -0.30423078
0000c0 a6 f5 b0 3e 1f 9b 30 bd fb d2 13 be cf 04 af 3e
       0.34562415 -0.043116685 -0.14435951 0.34183356
0000d0 e9 66 00 3f 77 72 a2 3e 1f 88 0b 3f b8 81 8c bd
       0.5015703 0.31727955 0.5450458 -0.068606794
0000e0 02 a7 a6 be 8c 44 e2 3e b7 15 46 bd c1 57 45 bf
       -0.32549292 0.44192922 -0.048360553 -0.77087027
0000f0 2e e8 b0 3e 9f 4a c6 3e b5 e0 e5 be 31 59 25 3d
       0.3455214 0.38728806 -0.44898 0.040368263
000100 a6 e7 b2 be 1d 65 0c bf 73 55 9a 3e d7 d3 bb bc
       -0.3494236 -0.54841787 0.30143318 -0.022928162
000110 b5 7d 34 bf 02 18 15 3f aa dc 6c 3e 94 e0 33 bd
       -0.70504314 0.5823976 0.23131052 -0.043915346
000120 9b 25 26 bf 98 d0 e7 be 5a 26 9a be ab 3a b3 be
       -0.6490113 -0.45276332 -0.30107385 -0.35005698
000130 80 f4 bf 3e 71 cd 8e 3e 85 cd d7 3e 4d 27 ae 3e
       0.37491226 0.27891114 0.42148986 0.3401436
000140 07 ee ad 3e 37 a5 0e bf 51 87 ce bc 12 44 11 3f
       0.33970663 -0.5572085 -0.025211008 0.5674449
000150 58 ec 29 3d 72 44 4b 3d 82 05 bb 3e 6d 6e 98 3e
       0.04148516 0.04962582 0.3652764 0.29771748
000160 c2 36 1e 3e 13 1c fd 3e d6 6a 66 3e cc 4e 8d be
       0.15450576 0.4943548 0.22501692 -0.2759918
000170 5d ff 33 be 52 69 0a 3f 70 ff d2 3e 59 a8 c3 3e
       -0.17577882 0.54066956 0.41210508 0.38214377
000180 e0 52 a4 3d 07 8c 88 3e ca 3a 61 be 85 f9 f0 be
       0.0802362 0.26669332 -0.21995082 -0.47065368
000190 ab 87 dc 3e ce 1e 3a 3f 73 9f b2 bc 12 e6 36 bc
       0.43072256 0.72703254 -0.021804547 -0.0111632515
0001a0 66 b0 db 3e 8d b2 3e be e1 9c 1b bf 40 e3 30 be
       0.4290802 -0.18622799 -0.60786253 -0.17274189
0001b0 7a 00 20 bf c3 ef a1 be e3 98 bb 3e a1 74 65 be
       -0.6250073 -0.31628236 0.3664008 -0.22407772
0001c0 16 ab 23 be 7a b4 c2 3e cc 9d 55 3e c3 ac 03 be
       -0.15983233 0.38028318 0.20860976 -0.12858872
0001d0 4f 0f df 3e 13 b7 c4 3e ac f6 eb 3e 29 da c7 3e
       0.43566367 0.38420925 0.46086633 0.3903363
0001e0 eb cb ef bd 23 de 6a 3e 11 89 98 3e a7 e4 11 3e
       -0.11708816 0.22936301 0.29792073 0.1424738
0001f0 bc d0 bd 3e fc b0 2a 3e f4 a0 6c 3f d3 c1 57 3e
       0.37073314 0.16669077 0.92433095 0.21070032
000200 14 ea 98 be e8 f7 05 3f 7e 01 56 be 30 3b 8f be
       -0.29866087 0.523314 -0.20899007 -0.27974844
000210 e6 82 a9 3e dd 72 9e be 00 f6 03 be 4d 36 24 3f
       0.3310768 -0.3094701 -0.1288681 0.64145356
000220 a2 5e 4f 3e 1e 18 93 be 03 cc 11 3f d3 bb ef bd
       0.20250943 -0.28729337 0.5695192 -0.117057465
000230 04 f7 ec bd 59 d1 d9 3e df 5a 3e 3d 6c 8b af be
       -0.11570552 0.42542532 0.04647338 -0.34286058
