vision_models/L_detector.onnx (onnx, 31336 bytes, 36 tensors)

encoder.de_form1.weight f4 [8, 1, 3, 3]
-0.0027148155 0.26116553 -0.23635283 0.36691034 -0.15774164 -0.15430099 -0.25505337 0.22676161
0.18899404 -0.2100215 0.30735558 -0.08076616 0.34400088 -0.1513204 -0.13474457 -0.17192261
0.2933207 0.0797379 -0.085158184 -0.053871885 0.01505774 -0.26183996 -0.11037715 0.28261375
0.06789823 -0.2155142 -0.13080056 -0.09973883 -0.042504553 -0.37970287 0.43233234 -0.34318897
0.05124298 0.01163253 -0.044158217 0.23499379 0.027838701 0.4683768 0.2039418 -0.12462978
0.061757255 -0.18540153 -0.11643666 0.2526276 -0.0058445516 -0.12357178 0.33612937 0.008673621
0.3619456 -0.12796986 -0.34418955 -0.16697778 0.13140294 0.25987664 0.019478546 -0.27926219
-0.09678811 -0.14369874 0.21069415 -0.045428503 0.19630003 -0.29099143 0.049654882 -0.098041154
0.14622031 -0.17394532 0.4373902 -0.1638426 -0.23162025 -0.26376957 0.29044935 0.17049634
00000000: 0ceb 31bb 7db7 853e 7a06 72be acdb bb3e
00000010: 0687 21be 1401 1ebe 5b96 82be 3234 683e
00000020: a787 413e e00f 57be b65d 9d3e ba68 a5bd
00000030: e220 b03e bcf3 1abe 7bfa 09be 7b0c 30be
00000040: 212e 963e a04d a33d 6a67 aebd c4a8 5cbd
00000050: bdb4 763c e30f 86be 6a0d e2bd c0b2 903e
00000060: 3a0e 8b3d c1af 5cbe 95f0 05be df43 ccbd
00000070: 4119 2ebd 6a68 c2be aa5a dd3e 77b6 afbe
00000080: 29e4 513d 5e96 3e3c 3fdf 34bd 36a2 703e
00000090: fd0d e43c 15cf ef3e 1fd6 503e e63d ffbd
000000a0: 2df5 7c3d e6d9 3dbe 5876 eebd 6858 813e
000000b0: a783 bfbb 3413 fdbd 2619 ac3e ce1b 0e3c
000000c0: ef50 b93e 880a 03be 9d39 b0be 39fc 2abe
000000d0: 7e8e 063e 8d0e 853e 7991 9f3c 74fb 8ebe
000000e0: d838 c6bd c325 13be 35c0 573e 3d13 3abd
000000f0: e002 493e d4fc 94be eb62 4b3d cdc9 c8bd
00000100: c7ba 153e b91e 32be 9cf1 df3e 5bc6 27be
00000110: dc2d 6dbe ce0c 87be c7b5 943e 9896 2e3e

encoder.de_form1.bias f4 [8]
-0.09864266 -0.15446731 0.28134066 0.0044153575 -0.10690359 -0.12676226 0.12716937 -0.04877843
00000000: 2a05 cabd ae2c 1ebe e20b 903e b4ae 903b
00000010: 45f0 dabd f7cd 01be b038 023e e4cb 47bd

classification_decoder.linear.weight f4 [1, 80]
-0.21733801 -0.055524934 0.16973576 0.19543166 -0.08698497 0.13117188 -0.38986632 -0.10278204
-0.29933926 0.09951671 -0.0635242 0.17193528 0.16869457 0.2698794 -0.37138015 -0.27853784
0.08229758 -0.3342511 0.043964192 0.36289656 -0.0405431 -0.076015525 -0.010208651 -0.0724234
-0.14774449 -0.4300459 0.04066996 0.118342 0.21813644 -0.1857019 0.17751291 0.33350405
-0.2644537 0.28798935 0.34543115 0.3188652 0.2812789 -0.18175031 -0.30259317 -0.13748702
-0.024092054 0.47754705 0.00653101 -0.14667845 0.26240194 0.12196839 -0.07037859 -0.12323416
-0.19325483 -0.104185514 0.26802215 0.07413008 -0.06734366 0.46457538 0.17400302 -0.057074502
-0.35175398 0.13344008 0.22463113 0.13264585 0.040271353 0.15376405 0.1061027 -0.34251297
0.42279494 0.11892906 -0.11685641 -0.3526497 -0.16335526 -0.27466673 0.36520052 0.16190492
0.20313218 0.08640722 -0.25933588 -0.18756568 -0.0015102809 -0.35246268 -0.13375413 -0.016701644
00000000: db8d 5ebe 1d6e 63bd 36cf 2d3e 3d1f 483e
00000010: 2d25 b2bd ec51 063e 8f9c c7be 647f d2bd
00000020: ff42 99be 6bcf cb3d fa18 82bd cd0f 303e
00000030: 45be 2c3e a22d 8a3e 8a25 bebe 839c 8ebe
00000040: a28b a83d f622 abbe cc13 343d 94cd b93e
00000050: 8610 26bd 07ae 9bbd 3042 27bc b852 94bd
00000060: 554a 17be fa2e dcbe 8b95 263d 4a5d f23d
00000070: 295f 5f3e a428 3ebe f2c5 353e 0bc1 aa3e
00000080: 7a66 87be 5773 933e 5adc b03e 4d42 a33e
00000090: ca03 903e c11c 3abe 7eed 9abe 66c9 0cbe
000000a0: b35c c5bc 0c81 f43e 1502 d63b e032 16be
000000b0: 8c59 863e 90ca f93d a622 90bd 3162 fcbd
000000c0: 98e4 45be 375f d5bd 333a 893e 83d1 973d
000000d0: 79eb 89bd d3dc ed3e d92d 323e f4c6 69bd
000000e0: 1919 b4be 84a4 083e b405 663e 50d4 073e
000000f0: 93f3 243d 5374 1d3e 5f4c d93d dc5d afbe
00000100: 9478 d83e 1491 f33d 6a52 efbd 808e b4be
00000110: 9a46 27be 1ea1 8cbe 90fb ba3e 67ca 253e
00000120: e201 503e 45f6 b03d acc7 84be 3811 40be
00000130: 9ef4 c5ba fd75 b4be d8f6 08be e3d1 88bc

classification_decoder.conv2.weight f4 [20, 8, 1, 1]
-0.061953284 -0.02100339 0.27483016 0.41474724 0.31830695 -0.15438473 0.00989389 -0.14673612
-0.022157403 -0.54171103 0.045368932 -0.052422486 -0.26504388 0.26143974 0.2762411 0.029698577
-0.17845747 -0.37992653 0.3040376 0.29668495 0.2318099 0.102334164 0.07643028 -0.10677362
0.26609227 -0.38726953 -0.07347562 -0.3628584 -0.45550504 -0.11447451 0.1221059 0.27946907
-0.36744812 0.43597624 0.51999015 -0.06323175 0.0910708 -0.17742787 -0.09893438 -0.093630955
-0.020960918 0.04871309 -0.10317278 0.03809708 -0.008197405 0.11105605 0.28762016 0.040990274
-0.22181584 0.35904565 0.26236004 0.21749556 0.18566512 0.14716312 0.5155616 -0.36047652
-0.26517797 0.5644105 0.31789795 -0.0963148 0.077023596 -0.3356193 -0.38276157 0.015531766
0.10435507 -0.24134965 0.21462665 0.56165063 0.5455929 -0.27182886 -0.39915726 -0.17164528
0.120578066 0.13501853 0.14703102 -0.17236668 -0.5623087 -0.12524486 0.47561505 0.19806251
0.3806818 -0.5259728 -0.33970737 0.15594454 -0.034997843 0.026881298 -0.40940475 0.42551386
0.108399995 0.024852797 -0.24833979 -0.27944636 -0.42854553 -0.27883792 -0.17086896 0.19790614
0.18796366 0.14714165 0.11000977 0.17675863 0.39407873 0.23573588 -0.14318995 -0.36675456
0.33898023 -0.30416495 -0.2809663 0.22213265 0.1360041 -0.13898554 -0.4397809 0.19541466
-0.012698839 -0.2176857 -0.03743248 0.29685986 0.42220408 -0.15331393 -0.22553317 -0.40478352
0.3022669 -0.023065174 -0.53667694 0.01703277 0.01912241 -0.11281453 0.15594049 0.36397216
0.41258118 0.08023041 -0.26675802 -0.3937273 -0.3835124 -0.09008955 0.05908454 0.47636098
-0.27240542 0.34515098 -0.014850582 0.15630636 0.59474516 -0.048338596 -0.08800325 -0.30550995
-0.058045823 -0.17880982 -0.009421393 -0.40002385 -0.25543228 -0.09056919 0.16576573 0.48065937
-0.063308015 0.25964835 0.33285937 -0.23715249 0.03937921 -0.04937653 0.5573145 -0.1503126
00000000: bac2 7dbd 4d0f acbc 8ab6 8c3e c059 d43e
00000010: 21f9 a23e 0817 1ebe fb19 223c fe41 16be
00000020: 7183 b5bc 93ad 0abf c6d4 393d f6b8 56bd
00000030: d5b3 87be 6edb 853e 796f 8d3e 6e4a f33c
00000040: 8ebd 36be bb85 c2be d1aa 9b3e 17e7 973e
00000050: 935f 6d3e 9394 d13d 7b87 9c3d 21ac dabd
00000060: 3f3d 883e 3148 c6be 637a 96bd 94c8 b9be
00000070: f537 e9be 9d71 eabd a812 fa3d 9216 8f3e
00000080: 2922 bcbe 4738 df3e 131e 053f a67f 81bd
00000090: 5483 ba3d a7af 35be 1c9e cabd 96c1 bfbd
000000a0: 3bb6 abbc 6187 473d 404c d3bd af0b 1c3d
000000b0: 694e 06bc 5b71 e33d f342 933e 6be5 273d
000000c0: b123 63be d5d4 b73e 0e54 863e 28b7 5e3e
000000d0: ff1e 3e3e eeb1 163e d8fb 033f 6190 b8be
000000e0: 68c5 87be 357d 103f 85c3 a23e b240 c5bd
000000f0: 8cbe 9d3d 4bd6 abbe 53f9 c3be f378 7e3c
00000100: 1cb8 d53d 5d24 77be 17c7 5b3e 56c8 0f3f
00000110: faab 0b3f 272d 8bbe 575e ccbe c8c3 2fbe
00000120: a2f1 f63d 4c42 0a3e 4d8f 163e e480 30be
00000130: 77f3 0fbf 3040 00be d183 f33e e6d0 4a3e
00000140: bae8 c23e 27a6 06bf 20ee adbe edaf 1f3e
00000150: e659 0fbd 2b36 dc3c 809d d1be f4dc d93e
00000160: d100 de3d 1898 cb3c c94c 7ebe 9813 8fbe
00000170: 526a dbbe d8c3 8ebe 46f8 2ebe e8a7 4a3e
00000180: 8c79 403e 4dac 163e cd4c e13d 3700 353e
00000190: b0c4 c93e bf64 713e 63a0 12be 41c7 bbbe
000001a0: d18e ad3e 82bb 9bbe d1da 8fbe be76 633e
000001b0: a944 0b3e 3a52 0ebe f62a e1be c81a 483e
000001c0: cb0e 50bc 00e9 5ebe cd52 19bd 04fe 973e
000001d0: 222b d83e 54fe 1cbe 2bf2 66be c93f cfbe
000001e0: bac2 9a3e 2df3 bcbc a963 09bf 4f88 8b3c
000001f0: 9aa6 9c3c 4e0b e7bd ddae 1f3e 8f5a ba3e
00000200: d73d d33e d74f a43d 8294 88be a096 c9be
00000210: bd5b c4be df80 b8bd a102 723d 96e5 f33e
00000220: b978 8bbe a1b7 b03e db4f 73bc c60e 203e
00000230: 3841 183f b1fe 45bd 0c3b b4bd cd6b 9cbe
00000240: 75c1 6dbd ec19 37be 305c 1abc edcf ccbe
00000250: 05c8 82be 577c b9bd 7ebe 293e fc18 f63e
00000260: a2a7 81bd a1f0 843e 8b6c aa3e 1ad8 72be
00000270: 184c 213d 0b3f 4abd 2aac 0e3f 8ceb 19be

onnx::Conv_177 f4 [4, 8, 1, 1]
-1.186318 -1.4465775 0.66876066 -0.5115885 -0.38347843 -1.2562603 0.56205565 -1.9654573
-0.42211255 0.33942792 -0.2774894 -4.7589283 1.9569981 0.8471433 -1.506052 -2.5819614
0.8466412 0.52037764 -0.6603814 -0.5688876 1.0111867 0.91808 -0.9859635 0.3350161
-0.44158247 -0.45339313 0.5293737 0.3290462 -1.0493133 -1.4075042 0.58468455 -0.084550776
00000000: 45d9 97bf 7429 b9bf e633 2b3f 77f7 02bf
00000010: 4957 c4be 23cd a0bf e1e2 0f3f 1b94 fbbf
00000020: 231f d8be 7fc9 ad3e 1713 8ebe 2449 98c0
00000030: ea7e fa3f 62de 583f 50c6 c0bf db3e 25c0
00000040: 7abd 583f 7837 053f c10e 29bf 9ea2 11bf
00000050: 916e 813f 4a07 6b3f 1b68 7cbf 3b87 ab3e
00000060: 1917 e2be 2523 e8be 0985 073f be78 a83e
00000070: e64f 86bf 1929 b4bf e3ad 153f f528 adbd

onnx::Conv_178 f4 [4]
0.32717547 -0.18684082 0.3423156 -0.15326038
00000000: 8b83 a73e 3353 3fbe fe43 af3e 4af0 1cbe

onnx::Conv_180 f4 [4, 1, 3, 3]
-0.10863052 -0.2959835 -0.10663217 -0.31057253 -0.50910217 -0.2565384 -0.038975243 -0.11471088
-0.108991854 -0.017903915 -0.13651161 -0.1379911 -0.10320709 -0.09677473 -0.034008168 -0.11455356
-0.16832326 -0.13727054 0.09045977 -0.0044620507 -0.037461028 -0.0876809 -0.13627116 -0.03348394
-0.18414538 -0.49436608 -0.32563615 0.09743669 0.07103532 -0.60432076 -0.606068 -1.4826711
-0.20902786 0.47170126 0.7212352 0.6072061
00000000: ae79 debd 268b 97be f861 dabd 5d03 9fbe
00000010: 8554 02bf 0059 83be 81a4 1fbd 8aed eabd
00000020: 1f37 dfbd 3bab 92bc b3c9 0bbe 8a4d 0dbe
00000030: 3d5e d3bd d431 c6bd 264c 0bbd 0f9b eabd
00000040: ef5c 2cbe a690 0cbe f942 b93d 6536 92bb
00000050: bc70 19bd 0b92 b3bd ab8a 0bbe 7526 09bd
00000060: 9b90 3cbe 8d1d fdbe c8b9 a6be e38c c73d
00000070: f77a 913d c4b4 1abf 4627 1bbf 2bc8 bdbf
00000080: 660b 56be d482 f13e dfa2 383f dc71 1b3f

onnx::Conv_181 f4 [4]
1.1035646 0.4684293 0.44559747 -0.56368977
00000000: 9b41 8d3f f7d5 ef3e 5a25 e43e f94d 10bf

onnx::Conv_183 f4 [8, 4, 1, 1]
1.1486859 -0.35993078 -0.6854452 -0.35941556 -1.0679933 -1.370945 0.80071163 0.10127798
1.9261975 0.4973806 0.56363916 0.6190012 1.4371344 0.53592944 -0.40831792 -1.0387274
0.7793996 -0.16823144 -0.7259432 0.38567668 0.112188496 -0.45279884 -0.6861293 -0.047468025
0.44015685 -0.40643138 -0.7475619 0.010386602 -0.88035375 1.1379657 1.3452606 -0.95866925
00000000: 2408 933f d948 b8be 5679 2fbf 5105 b8be
00000010: 01b4 88bf 207b afbf 70fb 4c3f d46a cf3d
00000020: a48d f63f aca8 fe3e a84a 103f dd76 1e3f
00000030: 05f4 b73f ac32 093f 0c0f d1be 05f5 84bf
00000040: bb86 473f dd44 2cbe 6ad7 39bf 6a77 c53e
00000050: 15c3 e53d 40d5 e7be 2ba6 2fbf d56d 42bd
00000060: 3d5c e13e c617 d0be 3760 3fbf 912c 2a3c
00000070: dd5e 61bf dca8 913f 8031 ac3f 596b 75bf

onnx::Conv_184 f4 [8]
-0.26395008 0.32988328 -0.33504736 -0.18682 0.3068943 -0.07116306 0.12848386 -0.7509898
00000000: 7724 87be 76e6 a83e 548b abbe be4d 3fbe
00000010: 4021 9d3e f0bd 91bd 4691 033e de40 40bf

onnx::Conv_186 f4 [8, 1, 3, 3]
0.07775743 0.3606628 0.33704364 -0.24595489 0.2543845 0.5757507 -0.0906607 0.11515569
0.2989391 0.9308925 -0.06725614 -0.30330992 0.39223677 1.333933 0.8530616 0.06334331
-0.13139656 0.78220457 0.5730639 0.13264138 -0.38974223 0.37197372 0.35546744 0.39071265
0.055057514 0.014806316 -0.1530815 -0.2960265 -0.089412846 -0.12083758 0.442723 0.39321828
-0.09420374 -0.09271856 0.3788124 0.71514726 0.024985556 0.12118476 0.63335353 -0.2493363
-0.11477182 0.48605323 -0.5311609 -0.6080168 -0.44320783 1.060842 2.0765514 1.0667218
-0.8069271 -2.2552063 -1.079955 1.9300606 0.7546644 2.6667995 0.35184017 0.21110576
0.07685849 -0.14563853 -0.688443 -0.27651432 0.022124479 -0.2340425 -0.47337425 0.11023464
0.03817937 -0.25073338 -0.27951345 -0.61778563 -0.5371636 0.23483132 -0.61740565 -0.7511879
00000000: 4a3f 9f3d cba8 b83e fc90 ac3e 99db 7bbe
00000010: af3e 823e 6664 133f 51ac b9bd bfd6 eb3d
00000020: 8c0e 993e f94e 6e3f 96bd 89bd 704b 9bbe
00000030: 42d3 c83e 51be aa3f 3f62 5a3f 23ba 813d
00000040: d28c 06be 8f3e 483f 51b4 123f 24d3 073e
00000050: 4b8c c7be 5773 be3e d4ff b53e 7d0b c83e
00000060: fd83 613d 3196 723c 66c1 1cbe c990 97be
00000070: 151e b7bd b179 f7bd 97ac e23e e853 c93e
00000080: e4ed c0bd 3ae3 bdbd b3f3 c13e e413 373f
00000090: 82ae cc3c b72f f83d 7523 223f 0452 7fbe
000000a0: 7d0d ebbd f8db f83e 29fa 07bf fda6 1bbf
000000b0: 23ec e2be acc9 873f 38e6 0440 578a 883f
000000c0: c692 4ebf 4d55 10c0 f73b 8abf 3a0c f73f
000000d0: b031 413f d8ac 2a40 6524 b43e 1c2c 583e
000000e0: fc67 9d3d 4422 15be cd3d 30bf 4993 8dbe
000000f0: 653e b53c d6a8 6fbe 1c5e f2be b3c2 e13d
00000100: f961 1c3d 2060 80be 631c 8fbe 3327 1ebf
00000110: 8e83 09bf 9f77 703e 4c0e 1ebf da4d 40bf

onnx::Conv_187 f4 [8]
0.023783848 0.19650325 -0.04814954 -0.26241067 -0.048539728 0.24714385 0.19833729 0.901031
00000000: 58d6 c23c 2638 493e 7438 45bd b15a 86be
00000010: 98d1 46bd 4713 7d3e ee18 4b3e f8a9 663f

onnx::Conv_189 f4 [8, 1, 3, 3]
-0.568519 0.09855164 0.02628063 -0.1534992 0.47273248 -0.46006277 -0.15581106 -0.15243144
-0.3571114 -0.16762994 -0.09099683 -0.09477132 0.275152 0.42229202 0.25404197 -0.29689702
-0.6559958 -0.04943658 -0.40828553 0.062315226 -0.1484853 -0.16373955 0.43861035 0.6127954
-0.31577155 -0.13827729 0.17917697 -0.29433975 -0.51634175 0.30360112 0.47880933 0.39795747
0.4113867 -0.48411614 0.03805745 0.34154975 -0.7040709 0.8799849 0.38786235 -0.33068302
1.6615119 0.87344885 0.6038539 -1.3013453 2.3458197 -0.1032861 0.23688954 0.21838942
0.047851596 0.57424694 0.7777379 -0.52513254 -0.23476505 -0.0052354475 0.024571538 -0.683959
0.014644034 0.25329617 2.6283588 1.4963379 -4.9355464 0.5524164 -4.034918 -0.10352373
0.7793494 0.31440708 0.3010686 0.041775636 0.11262139 0.116701216 -0.30998668 -0.13815384
00000000: 768a 11bf 71d5 c93d 7a4a d73c e52e 1dbe
00000010: fe09 f23e 598d ebbe ef8c 1fbe fd16 1cbe
00000020: 4ed7 b6be 2fa7 2bbe 8c5c babd 7717 c2bd
00000030: b9e0 8c3e a936 d83e ca11 823e e302 98be
00000040: 57ef 27bf 037e 4abd cd0a d1be 403e 7f3d
00000050: 880c 18be 57ab 27be 8991 e03e 29e0 1c3f
00000060: cfac a1be 9098 0dbe 2b7a 373e b3b3 96be
00000070: f92e 04bf 9b71 9b3e 7f26 f53e 15c1 cb3e
00000080: 47a1 d23e 12de f7be 21e2 1b3d 9cdf ae3e
00000090: fe3d 34bf b146 613f e595 c63e 494f a9be
000000a0: 6cac d43f 589a 5f3f 2b96 1a3f 7c92 a6bf
000000b0: e921 1640 aa87 d3bd 2c93 723e 7aa1 5f3e
000000c0: 0900 443d d901 133f d519 473f 166f 06bf
000000d0: 4066 70be 1e8e abbb 404a c93c f017 2fbf
000000e0: 88ed 6f3c 09b0 813e 0837 2840 0088 bf3f
000000f0: ffef 9dc0 296b 0d3f 0c1e 81c0 4004 d4bd
00000100: 7183 473f f7f9 a03e aa25 9a3e ee1c 2b3d
00000110: 0ba6 e63d 0c01 ef3d 93b6 9ebe 3378 0dbe

onnx::Conv_190 f4 [8]
0.29302222 0.20955142 0.22889069 0.033700615 0.003097197 -0.37216103 0.2287921 -0.22209764
00000000: 0207 963e a694 563e 5262 6a3e a809 0a3d
00000010: 58fa 4a3b e48b bebe 7a48 6a3e 906d 63be

onnx::Conv_192 f4 [8, 1, 3, 3]
-0.21179292 0.058441985 -0.43549383 0.742427 0.84113157 0.15974881 0.37578422 -0.051168583
-0.3539315 0.25914347 0.058415018 0.114154436 -0.6671448 -0.20118314 -0.18402778 0.26926425
0.36532128 0.122305214 -0.015255834 0.13275881 -0.05772372 -0.2223399 0.1598521 -0.07309253
-0.24302539 -0.23231584 -0.28991285 -0.03236405 0.28268516 0.21987548 0.41175082 -0.0030657211
-0.495105 -0.26468313 -0.06375183 -0.475417 -0.61342764 0.12593837 -0.028425552 -0.6776179
-0.10864489 0.2662015 -0.34504217 -0.25721893 0.23034325 0.19023922 0.15034708 -0.9709751
-0.97980523 -0.25219175 0.594781 -0.08533378 -0.61931694 0.32643247 -0.56466943 0.013583676
0.06977888 0.10291951 0.38070822 0.6886048 -0.30574152 0.2588649 0.2971442 0.037686758
0.03802222 -0.112340085 0.123823285 -0.07587282 -0.06699334 0.27668342 0.58338267 0.07993201
00000000: 3ee0 58be dd60 6f3d 0cf9 debe b20f 3e3f
00000010: 6654 573f 3195 233e ca66 c03e 2696 51bd
00000020: 8236 b5be 74ae 843e 9644 6f3d cdc9 e93d
00000030: 00ca 2abf f402 4ebe c771 3cbe 01dd 893e
00000040: 640b bb3e 287b fa3d 9bf3 79bc edf1 073e
00000050: b56f 6cbd 12ad 63be 45b0 233e 89b1 95bd
00000060: a6db 78be 34e4 6dbe 756f 94be 2b90 04bd
00000070: 1cbc 903e 0a27 613e 01d1 d23e 44ea 48bb
00000080: 677e fdbe 8c84 87be 5290 82bd db69 f3be
00000090: 9809 1dbf fdf5 003e b4dc e8bc 5e78 2dbf
000000a0: 3681 debd 904b 883e 5ea9 b0be 33b2 83be
000000b0: 1adf 6b3e 12ce 423e 96f4 193e d391 78bf
000000c0: 84d4 7abf 471f 81be 9143 183f 7ac3 aebd
000000d0: 8e8b 1ebf 2822 a73e 2d8e 10bf 118e 5e3c
000000e0: 3be8 8e3d 77c7 d23d 30ec c23e 6748 303f
000000f0: 278a 9cbe f189 843e 4923 983e 6e5d 1a3d
00000100: 30bd 1b3d 8f12 e6bd 1097 fd3d 3663 9bbd
00000110: ce33 89bd 73a9 8d3e 9158 153f 65b3 a33d

onnx::Conv_193 f4 [8]
-0.32827225 -0.21543503 0.40954188 0.17580843 0.19080728 0.31673813 -0.036708027 -0.3881878
00000000: 4d13 a8be 009b 5cbe 79af d13e 2007 343e
00000010: fc62 433e 802b a23e 285b 16bd 8dc0 c6be

onnx::Conv_195 f4 [32, 8, 1, 1]
0.007846895 -0.2353485 0.08398892 0.1078048 -0.14378111 0.048686717 -0.12849532 -0.014374687
0.03981401 -0.33452743 -0.11301446 0.10237181 -0.12390581 -0.31913596 0.38520148 -0.16796122
0.06309177 0.13619436 0.022675836 -0.45174882 0.13979 -0.25568655 -0.5412038 0.090316005
0.13902676 -0.18242215 0.028188976 -0.11030477 -0.22321267 -0.12492622 0.033516087 -0.7018868
-0.42121702 -0.10808649 0.014410796 0.14602834 -0.2881039 0.24313237 0.32775927 0.10222341
-0.26228482 0.0056272647 -0.126819 -0.07646452 -0.0027349086 0.13741927 0.054557923 -0.114710614
0.020999132 0.036746647 0.3338247 -0.026405675 -0.039317496 -0.13944754 -0.008936911 0.15787476
0.15526125 -0.09503535 0.14142428 -0.051875047 -0.47086933 0.18084925 -0.17648755 0.12239981
-0.34332478 -0.3091504 -0.4401722 0.20182018 -0.5113413 0.14864789 1.2005919 -0.076136746
-0.17907652 -0.67544305 0.15491924 0.008676557 0.044075403 -0.016029967 -0.06319141 -0.5100907
-0.18222995 0.12352948 0.27589107 0.2638385 -0.14173737 0.079892956 -0.7779454 0.127793
0.24872473 0.12404371 0.08249509 0.07570072 -0.012679676 0.27111578 0.11258015 0.16455509
-0.29159436 -0.33893812 -0.38712895 -0.06264443 -0.37868974 -0.3589836 0.14194636 -0.13740936
-0.5859054 1.1503408 0.03217622 0.7103707 -1.0400001 -0.37082475 0.29589278 0.17781487
-0.15239795 0.03685852 0.30150202 -0.041452777 -0.28289917 0.61932415 0.33769822 0.3055921
-0.72559077 0.14546472 -0.10514586 0.7178113 -0.033361707 0.24034889 -0.22830015 0.29934475
0.91392493 -0.14173478 -0.6857149 -0.69681525 0.09962349 0.5999691 -0.3268462 0.32468173
-0.09020461 0.28358614 0.22501896 -0.2706421 -0.50431013 -0.44024995 0.07651433 -0.31821305
0.15550591 -0.10902459 0.06420423 0.10088236 0.09986585 -0.109730385 -0.17891377 0.07150223
-0.20848955 -0.5772183 0.9675107 -0.005543608 -0.12063875 0.4486809 -0.54030424 -0.15593474
-0.066747084 -0.20149064 0.00408096 -0.008032452 -0.19058836 -0.20127471 -0.093015134 -0.6652019
0.54317313 -0.17482843 -0.29505086 0.15966544 0.16184276 0.2379552 -0.32019898 -0.17264187
0.18882135 -0.016748918 -0.13711569 0.31995165 -0.16610236 0.15884027 0.14199671 0.16982418
-0.15084179 -0.0029033362 -0.17628613 -0.20329738 -0.32071197 -0.36943653 0.05904308 -0.28452945
-0.10682219 0.019056128 0.18587282 0.2069505 0.130821 0.12632152 0.39855418 -0.04228838
-0.023899356 -0.11511213 -0.07524524 -0.4669713 -0.16799323 0.11433927 0.13335684 -0.16965804
0.040842444 0.21788996 -0.062036745 0.4131209 0.53983456 -0.4434082 -0.43174732 -0.26340404
-0.48920378 -0.13706699 -0.72912204 -0.4352684 -0.08917813 0.5436088 -0.2566741 0.60732555
-0.10729524 -0.056050584 0.3881282 -0.5074905 0.588765 0.13400878 0.41586244 -0.278903
0.169785 0.11766598 -0.24721535 0.5732233 0.14857763 -0.10627456 0.6047376 0.14752299
-0.74165857 -0.012330806 -0.63089454 -0.30510646 -0.059174873 0.09321251 0.48092794 1.2911825
0.36623764 -0.43783274 0.1953513 0.14406782 0.032223903 -0.063835666 0.08511827 -0.38693872
00000000: 4390 003c 32ff 70be 6202 ac3d c3c8 dc3d
00000010: 5b3b 13be b96b 473d 4794 03be cf83 6bbc
00000020: 0414 233d 2e47 abbe 2074 e7bd 50a8 d13d
00000030: 54c2 fdbd ca65 a3be 2139 c53e 07fe 2bbe
00000040: 4236 813d 8976 0b3e adc2 b93c 9f4b e7be
00000050: 1c25 0f3e 59e9 82be 558c 0abf 99f7 b83d
00000060: 085d 0e3e dfcc 3abe 91ec e63c 78e7 e1bd
00000070: dd91 64be 51d9 ffbd 2a48 093d daae 33bf
00000080: c2a9 d7be 735c ddbd 421b 6c3c 7488 153e
00000090: 5b82 93be b1f7 783e 10d0 a73e 825a d13d
000000a0: 324a 86be eb64 b83b d7dc 01be 6e99 9cbd
000000b0: 273c 33bb a3b7 0c3e 2178 5f3d 66ed eabd
000000c0: 5f06 ac3c a783 163d 12eb aa3e b750 d8bc
000000d0: 620b 21bd 56cb 0ebe 1f6c 12bc eca9 213e
000000e0: cefc 1e3e e5a1 c2bd 87d1 103e ee7a 54bd
000000f0: c915 f1be 8c30 393e 27b9 34be c0ac fa3d
00000100: 44c8 afbe f648 9ebe 405e e1be f3a9 4e3e
00000110: 43e7 02bf 2737 183e ffac 993f 95ed 9bbd
00000120: d65f 37be d6e9 2cbf 26a3 1e3e 1e28 0e3c
00000130: 6988 343d 4751 83bc 7f6a 81bd 4e95 02bf
00000140: 7d9a 3abe 06fd fc3d 9841 8d3e d715 873e
00000150: 9a23 11be eb9e a33d 6e27 47bf 2bdc 023e
00000160: b2b1 7e3e a10a fe3d 30f3 a83d fb08 9b3d
00000170: 6abe 4fbc b0cf 8a3e 6c90 e63d 2181 283e
00000180: db4b 95be 4c89 adbe c435 c6be b94b 80bd
00000190: 9fe3 c1be b3cc b7be 635a 113e 0ab5 0cbe
000001a0: e5fd 15bf 5e3e 933f 36cb 033d dbda 353f
000001b0: b91e 85bf bedc bdbe 427f 973e 1a15 363e
000001c0: 350e 1cbe f6f8 163d 795e 9a3e 63ca 29bd
000001d0: 29d8 90be 078c 1e3f c8e6 ac3e 9176 9c3e
000001e0: 51c0 39bf b4f4 143e b656 d7bd 7bc2 373f
000001f0: 49a6 08bd 051e 763e 84c7 69be b743 993e
00000200: fcf6 693f ec22 11be 038b 2fbf 7c62 32bf
00000210: 6607 cc3d 9397 193f 6358 a7be af3c a63e
00000220: 32bd b8bd 3432 913e 5f6b 663e 9a91 8abe
00000230: 781a 01bf 7168 e1be 8cb3 9c3d d2ec a2be
00000240: f13c 1f3e 4948 dfbd 827d 833d 699b ce3d
00000250: 7786 cc3d 53ba e0bd 2c35 37be c36f 923d
00000260: 497e 55be 94c4 13bf c8ae 773f 28a7 b5bb
00000270: 7311 f7bd 81b9 e53e 6151 0abf 5bad 1fbe
00000280: b2b2 88bd 9053 4ebe 93b9 853b 8c9a 03bc
00000290: 9829 43be f51a 4ebe b87e bebd ac4a 2abf
000002a0: 650d 0b3f 3906 33be e810 97be 567f 233e
000002b0: 1cba 253e 87aa 733e 1ff1 a3be 08c9 30be
000002c0: 625a 413e 0735 89bc 0e68 0cbe b4d0 a33e
000002d0: bd16 2abe 06a7 223e 9667 113e 64e6 2d3e
000002e0: 4576 1abe e645 3ebb 5a84 34be 302d 50be
000002f0: 5c34 a4be c926 bdbe 28d7 713d d8ad 91be
00000300: 98c5 dabd 991b 9c3c 7255 3e3e d5ea 533e
00000310: f1f5 053e 6e5a 013e 4b0f cc3e 9536 2dbd
00000320: 95c8 c3bc e9bf ebbd 2d1a 9abd dd16 efbe
00000330: 6b06 2cbe b52a ea3d b28e 083e d6ba 2dbe
00000340: 684a 273d 8c1e 5f3e 3e1a 7ebd 9584 d33e
00000350: 9932 0a3f 6606 e3be fc0d ddbe e5dc 86be
00000360: eb78 fabe 4a5b 0cbe bea7 3abf 80db debe
00000370: 06a3 b6bd f229 0b3f ca6a 83be b079 1b3f
00000380: 9bbd dbbd 4c95 65bd bdb8 c63e e6ea 01bf
00000390: 4eb9 163f 9939 093e eceb d43e 60cc 8ebe
000003a0: 1edc 2d3e dcfa f03d 0526 7dbe c3be 123f
000003b0: bc24 183e 7aa6 d9bd 15d0 1a3f 4410 173e
000003c0: 56dd 3dbf 2607 4abc 4e82 21bf ea36 9cbe
000003d0: 5a61 72bd 33e6 be3d 303c f63e 7845 a53f
000003e0: 8083 bb3e 9d2b e0be 2c0a 483e 8486 133e
000003f0: 36fd 033d 46bc 82bd 7d52 ae3d d51c c6be

onnx::Conv_196 f4 [32]
0.3360769 0.4833714 0.654275 0.7866402 0.34342515 0.36188215 -0.12006199 -0.12491266
-0.08765352 0.76137716 -0.16220525 -0.9445734 0.7837488 -0.76800454 -0.6322076 -0.38428444
-0.118157685 0.594692 0.065505914 0.22122249 0.59768486 -0.11632542 -0.24983919 0.65400267
0.027510941 0.4966039 0.55001307 0.5509838 -0.3617538 -0.6669239 -0.17817 0.12877151
00000000: 4512 ac3e 757c f73e 917e 273f 4161 493f
00000010: 6cd5 af3e 9e48 b93e 10e3 f5bd 35d2 ffbd
00000020: b083 b3bd 9de9 423f 2219 26be 90cf 71bf
00000030: c3a3 483f f29b 44bf 5bd8 21bf eec0 c4be
00000040: a8fc f1bd bc3d 183f f727 863d 2688 623e
00000050: e001 193f 063c eebd d8d5 7fbe b86c 273f
00000060: a05e e13c de42 fe3e a8cd 0c3f 460d 0d3f
00000070: cb37 b9be 86bb 2abf 3272 36be aedc 033e

onnx::Conv_198 f4 [32, 1, 3, 3]
-1.280118 0.51053184 0.11372028 0.8818207 -1.849044 0.1367208 0.1696844 -0.59563
2.663178 0.28949323 -0.9888441 -0.84376305 -1.1412168 -0.42386597 -0.46436852 -0.73386145
0.033135153 -1.0703415 -1.1831813 2.0420487 -0.45513472 0.08917619 0.4074061 -0.92763686
1.5928804 0.9368008 -0.7976155 -0.22503889 0.77917653 1.091803 -0.768151 0.4917935
0.82028407 -0.50928265 -0.17979722 0.01815813 -0.92704487 0.89014137 -1.4720973 0.5861685
0.83138275 0.40373915 -0.0019902897 -0.5274104 -1.2123466 1.122012 -0.31605157 -1.8006616
-1.7636498 1.2819788 2.9889262 -1.8935416 1.2298542 0.9286624 -0.13562994 0.39743325
-0.056220006 -0.050960816 0.47114322 1.4880267 -0.9820479 -0.5486311 -0.6292195 1.0658697
-0.19013424 0.016256453 0.76642174 0.027008412 -0.71848816 0.68230844 0.8419571 0.052129958
0.043585863 -0.037822526 0.095502265 0.48258558 0.2462371 -0.3129486 0.41058576 0.010660159
-0.037299782 0.33623782 -0.8891277 0.3221059 -0.9990349 0.40653595 -0.6784252 -0.5529809
-0.5232967 -1.1342069 -0.07688381 0.9141269 -0.7451761 0.4921278 -0.40413648 -0.6830127
0.762744 0.573216 -0.6885722 1.0226878 0.4677492 0.124733284 0.8224302 0.12426264
-0.6599802 -0.8099874 -0.6754912 0.4997031 0.023143599 -0.08602204 -0.7511412 -0.7002028
-1.0855085 -0.13680571 0.09146214 0.004761968 0.36835676 -0.2600709 0.4326108 0.010538105
-0.66753423 0.2597123 0.2820229 -0.32587826 -0.44911844 0.33443776 -1.0866101 -0.0030280512
0.33977395 -0.7479983 -0.63468516 -0.2195887 0.52095723 0.43933702 -0.09113407 0.7912637
-0.22180665 -0.740604 0.41146457 0.30965754 0.46457854 -0.41739774 -0.0003650746 0.065523684
0.12804407 -0.27307737 0.42381504 -0.62270075 0.78239655 -0.24605034 -0.06110211 0.43049994
-0.6057777 -1.1651462 0.12186422 0.36561084 0.95359945 -0.09138864 0.7294131 -0.24496488
0.4844421 0.39621127 0.23351642 -0.770896 -0.77217495 -1.1564095 -0.8523832 -0.5505544
-0.25211242 -0.97832245 -0.114373975 -0.12436837 -0.71403074 -0.10076299 -0.25338858 0.3702042
0.38788837 -0.46875846 -0.26079684 0.41070095 -0.986085 0.4082811 0.61062294 1.0098401
1.327794 0.94520736 -0.04656724 -0.28109795 0.36953774 0.22024748 0.071334384 -0.25988925
-0.4959073 -0.018066527 0.72774804 0.44165653 0.3796807 0.9015484 -0.6938334 -0.68291587
0.36531892 1.1466278 -0.00090175803 1.6329697 -0.70563823 -0.36112612 -0.51530343 -0.22234136
-0.9834159 -0.5524269 0.4503506 0.3028146 -1.0266737 -0.22624716 -0.35183692 -1.2955216
-0.060239896 0.6658288 0.56809574 -0.8962855 -0.008074167 0.29458988 0.9092784 -0.19574904
-1.8837872 0.13221624 0.917579 -1.4249333 -1.7958467 -0.60430866 1.3140732 0.2209077
1.0387609 1.3576516 -0.05188979 0.54413235 -0.22957988 0.30070016 -1.5510828 0.40608728
-0.39478305 0.34312055 0.9660773 -0.4513045 -0.034071233 -0.08911617 -0.4449243 -0.7962973
-0.5079395 -0.54534245 -0.15619527 0.2370516 -0.02032927 0.45367646 -0.07006485 -0.2314577
00000000: e8da a3bf 37b2 023f 2ee6 e83d 00bf 613f
00000010: 79ad ecbf 8a00 0c3e bfc1 2d3e 357b 18bf
00000020: 8271 2a40 7538 943e e324 7dbf db00 58bf
00000030: 6413 92bf f604 d9be b6c1 edbe 58de 3bbf
00000040: bab8 073d f300 89bf 7c72 97bf edb0 0240
00000050: 6b07 e9be 02a2 b63d 8897 d03e 9c79 6dbf
00000060: 81e3 cb3f 2dd2 6f3f 8830 4cbf 9870 66be
00000070: 1d78 473f 33c0 8b3f 8ba5 44bf 5ccc fb3e
00000080: 23fe 513f 5960 02bf c31c 38be 5cc0 943c
00000090: d052 6dbf 4ee0 633f af6d bcbf 240f 163f
000000a0: 80d5 543f e6b6 ce3e 856f 02bb 5e04 07bf
000000b0: 2c2e 9bbf 179e 8f3f 83d1 a1be 147c e6bf
000000c0: 47bf e1bf e217 a43f 914a 3f40 925f f2bf
000000d0: dd6b 9d3f d2bc 6d3f 93e2 0abe 5f7c cb3e
000000e0: f346 66bd 4abc 50bd af39 f13e a977 be3f
000000f0: 7e67 7bbf 1673 0cbf 8714 21bf 6b6e 883f
00000100: 8db2 42be 412c 853c 3734 443f bf40 dd3c
00000110: d7ee 37bf c4ab 2e3f 808a 573f 3986 553d
00000120: 1787 323d cbeb 1abd b196 c33d 7515 f73e
00000130: 9425 7c3e cd3a a0be 4c38 d23e f3a7 2e3c
00000140: a8c7 18bd 5d27 ac3e df9d 63bf 11eb a43e
00000150: c0c0 7fbf 7b25 d03e 46ad 2dbf 2890 0dbf
00000160: c6f6 05bf b12d 91bf 4275 9dbd 3804 6a3f
00000170: dcc3 3ebf 2df8 fb3e faea cebe ecd9 2ebf
00000180: 3143 433f 49be 123f 4546 30bf 6fe7 823f
00000190: d37c ef3e 2a74 ff3d c98a 523f 697d fe3d
000001a0: 76f4 28bf 565b 4fbf feec 2cbf 16d9 ff3e
000001b0: a597 bd3c 532c b0bd ca4a 40bf 7e40 33bf
000001c0: f1f1 8abf cc16 0cbe 8150 bb3d 480a 9c3b
000001d0: 4299 bc3e 0328 85be 2a7f dd3e 04a8 2c3c
000001e0: 86e3 2abf 03f9 843e 4e65 903e 84d9 a6be
000001f0: daf2 e5be 6d3b ab3e 0a16 8bbf 4572 46bb
00000200: daf6 ad3e d17c 3fbf ba7a 22bf dcdb 60be
00000210: 745d 053f c8f0 e03e 80a4 babd 4290 4a3f
00000220: 4821 63be 3998 3dbf 7cab d23e 6f8b 9e3e
00000230: 3ddd ed3e 28b5 d5be 7c67 bfb9 4831 863d
00000240: fc1d 033e ccd0 8bbe 49fe d83e 5169 1fbf
00000250: 244b 483f 9ff4 7bbe 3546 7abd 7d6a dc3e
00000260: 3f14 1bbf 8323 95bf f393 f93d 5831 bb3e
00000270: 181f 743f f829 bbbd d1ba 3a3f 13d8 7abe
00000280: cc08 f83e 34dc ca3e ee1e 6f3e 7159 45bf
00000290: 42ad 45bf 3a05 94bf c935 5abf 22f1 0cbf
000002a0: e114 81be 5773 7abf e73c eabd d8b4 febd
000002b0: b8ca 36bf d45c cebd 26bc 81be 688b bd3e
000002c0: 4e99 c63e 1c01 f0be 2a87 85be 6547 d23e
000002d0: 1170 7cbf 380a d13e c951 1c3f 7142 813f
000002e0: 27f5 a93f 1cf9 713f 4abd 3ebd 12ec 8fbe
000002f0: 0d34 bd3e 8e88 613e c317 923d 3410 85be
00000300: 90e7 fdbe 4100 94bc b24d 3a3f ce20 e23e
00000310: 8265 c23e e0cb 663f 119f 31bf 93d3 2ebf
00000320: 150b bb3e b3c4 923f f563 6cba 2705 d13f
00000330: b5a4 34bf 86e5 b8be edea 03bf 74ad 63be
00000340: 25c1 7bbf d96b 0dbf 5b94 e63e 840a 9b3e
00000350: 0b6a 83bf 56ad 67be f823 b4be a7d3 a5bf
00000360: 1cbe 76bd c273 2a3f b96e 113f f772 65bf
00000370: 8349 04bc 7cd4 963e 78c6 683f 7072 48be
00000380: f01f f1bf b263 073e 75e6 6a3f 3764 b6bf
00000390: 4ede e5bf f9b3 1abf 8d33 a83f a135 623e
000003a0: 1ef6 843f 87c7 ad3f 638a 54bd 424c 0b3f
000003b0: fd16 6bbe 5ff5 993e e289 c6bf acea cf3e
000003c0: 0121 cabe 7fad af3e d850 773f 6211 e7be
000003d0: 478e 0bbd 8a82 b6bd 1ecd e3be 24da 4bbf
000003e0: 5308 02bf 909b 0bbf a7f1 1fbe a8bd 723e
000003f0: 9289 a6bc 4848 e83e 297e 8fbd 3f03 6dbe

onnx::Conv_199 f4 [32]
-0.16113448 1.1699395 -0.2701866 -0.4999208 0.27270904 -0.25690278 -0.24421929 -0.35169327
0.10519314 0.29608694 -0.04928019 -0.196585 0.34148756 0.14145343 0.46473977 -0.039354924
0.14137435 -0.5488011 0.7251878 -0.099691615 -0.035136074 0.19185433 -0.20884879 0.5546069
0.21476689 -0.05141771 -0.15626782 0.73440707 0.6927203 -0.429191 -0.09371245 -0.12139179
00000000: 7000 25be 94c0 953f e655 8abe 9ef5 ffbe
00000010: 85a0 8b3e c388 83be 9f14 7abe 2411 b4be
00000020: 806f d73d b598 973e 06da 49bd 944d 49be
00000030: 75d7 ae3e 2bd9 103e 5ff2 ed3e a132 21bd
00000040: 70c4 103e 3b7e 0cbf e8a5 393f 1e2b ccbd
00000050: d8ea 0fbd 7675 443e 75dc 55be b8fa 0d3f
00000060: daeb 5b3e 609b 52bd ac04 20be 1a02 3c3f
00000070: 1e56 313f ecbe dbbe 50ec bfbd 429c f8bd

onnx::Conv_201 f4 [16, 32, 1, 1]
-0.12051917 0.13103725 -0.0053702 -0.037559055 0.08292003 -0.021259341 -0.0110249575 0.41337547
-0.22314855 -0.07640159 0.16980198 -0.14994909 0.35058737 -0.07549633 -0.37041694 0.18832977
0.017806835 -0.289163 0.039958738 0.3124703 0.29735702 0.045396253 -0.26813707 0.3409401
0.007581508 0.006485283 0.008605179 -0.0717676 0.21191289 0.016016105 0.030156264 0.5094373
0.15499923 0.04432629 -0.43135253 0.011998109 0.16676174 -0.0032924335 0.10555966 -0.23145728
0.18010649 -0.05206238 -0.14527941 -0.23738956 0.0045466023 0.2157599 -0.11894922 -0.09646092
0.18422674 0.026733363 0.048565082 -0.05249001 0.067131914 0.3145583 0.05369368 -0.302744
-0.159685 0.026256748 0.099747285 0.2792321 0.115470886 0.18789573 -0.19839232 -0.037907954
-0.093519546 0.025582144 -0.007295339 -0.10589683 0.23075123 -0.17279531 0.10023327 -0.34252
0.0073409514 0.048717886 -0.28587583 0.13463679 -0.13574503 0.00036973608 -0.3229879 -0.017357688
0.11466853 0.16091329 -0.032720074 0.2614638 -0.19895078 0.0903303 -0.052964486 -0.08161951
0.033660498 -0.32017204 0.27061796 -0.014212367 0.015979232 -0.031196022 0.054700933 -0.1176992
-0.19573322 -0.19938993 0.07902266 -0.1355879 0.2355257 -0.24466267 0.029748194 -0.30509603
0.08406314 0.07954289 0.023371652 -0.22199996 -0.04406761 0.11620843 -0.25341758 0.045003418
-0.5055108 0.15731281 0.34220448 -0.053872623 0.12883173 0.006460287 -0.22397693 -0.12867893
-0.053472884 -0.20664023 -0.004517881 -0.124548815 0.02175109 -0.07371195 -0.058913685 -0.13841747
-0.02994991 -0.04165691 0.015766887 -0.1612119 0.1616929 -0.19538222 0.15697952 0.061098266
0.02909287 0.3223719 0.07717445 0.010618244 -0.07602127 -0.0023118728 -0.2653562 0.0009854215
0.027621627 0.01282854 -0.08303918 0.12939453 -0.07285135 0.14498653 0.13538745 0.24396761
-0.051783536 -0.23912749 0.012768139 -0.044773493 -0.005443344 -0.027452705 0.09214336 0.09151003
0.087558016 -0.07940621 -0.54611343 -0.11357034 -0.4408576 0.043351468 -0.08548773 0.006231812
0.5313274 0.37482804 -0.2552621 -0.11076019 0.23960264 -0.07150888 -0.085567735 -0.22069938
-0.36824092 -0.15803872 0.60466605 -0.09123749 -0.02882404 0.31058723 0.3408024 0.031236608
0.30513415 0.3204811 0.21278237 0.39929372 -0.16174838 0.11833473 0.3375908 -0.109459974
0.22618076 -0.123531766 0.08703927 -0.25541684 0.16795625 0.30923742 -0.06917416 0.037769653
0.055834126 0.088086806 0.16894446 -0.05977255 0.34546655 0.043725234 0.020344896 0.070874974
0.12941204 -0.1350783 -0.09252511 0.19729283 -0.22005664 0.033894364 -0.2970503 0.10747306
0.24988994 0.064060114 0.14819598 -0.019268738 0.1929485 0.08207737 0.119642094 0.12998515
-0.08373439 -0.42968675 -0.020518078 0.40082785 0.03577552 0.1476274 0.17280741 -0.064099155
0.16632487 -0.2514275 0.29159397 0.08076544 -0.05663586 -0.2621619 -0.2675341 0.44048515
0.004055132 0.0021758988 0.118262276 -0.043047585 0.18945335 0.10416476 -0.021453433 -0.3217933
0.024402216 -0.019803895 0.20638849 0.00032270694 -0.016939258 -0.23550911 -0.17646459 -0.06376056
00000000: c1d2 f6bd a12e 063e 81f8 afbb 86d7 19bd
00000010: fad1 a93d 1228 aebc 06a2 34bc f3a5 d33e
00000020: 0e81 64be 7078 9cbd 92e0 2d3e 418c 19be
00000030: 3080 b33e d29d 9abd 4aa7 bdbe 85d9 403e
00000040: a4df 913c 2c0d 94be c6ab 233d 1bfc 9f3e
00000050: 2e3f 983e 6cf1 393d 4349 89be b38f ae3e
00000060: 4c6e f83b 7f82 d43b bdfc 0c3c e4fa 92bd
00000070: b1ff 583e 3534 833c 450a f73c 7c6a 023f
00000080: 1eb8 1e3e 7c8f 353d 3dda dcbe b793 443c
00000090: 97c3 2a3e dec5 57bb aa2f d83d 2303 6dbe
000000a0: d66d 383e 5d3f 55bd 20c4 14be 4016 73be
000000b0: aafb 943b 2af0 5c3e a69b f3bd 4e8d c5bd
000000c0: efa5 3c3e edff da3c 2eec 463d c4ff 56bd
000000d0: 757c 893d c90d a13e e7ed 5b3d 4301 9bbe
000000e0: 7784 23be 6418 d73c 4e48 cc3d 83f7 8e3e
000000f0: 007c ec3d bd67 403e 5b27 4bbe 5f45 1bbd
00000100: 2d87 bfbd a591 d13c bd0d efbb 70e0 d8bd
00000110: 0d4a 6c3e 41f1 30be 1a47 cd3d c85e afbe
00000120: 5d8c f03b 688c 473d 515e 92be 3ade 093e
00000130: bf00 0bbe 23d9 c139 ac5e a5be b631 8ebc
00000140: 56d7 ea3d 74c6 243e 7c05 06bd 95de 853e
00000150: c1b9 4bbe 18ff b83d 4af1 58bd 2128 a7bd
00000160: 97df 093d 97ed a3be 708e 8a3e fdda 68bc
00000170: e1e6 823c cd8e ffbc 160e 603d 470c f1bd
00000180: 4a6e 48be e02c 4cbe a2d6 a13d 8ed7 0abe
00000190: a62d 713e da88 7abe 7cb2 f33c 8c35 9cbe
000001a0: 4c29 ac3d 62e7 a23d e875 bf3c f553 63be
000001b0: 3d80 34bd affe ed3d f3bf 81be 8155 383d
000001c0: 2869 01bf 9c16 213e 6d35 af3e 8aa9 5cbd
000001d0: 77ec 033e d1b0 d33b 355a 65be 69c4 03be
000001e0: 6206 5bbd 7f99 53be bc0a 94bb 7313 ffbd
000001f0: 582f b23c 4af6 96bd 7a4f 71bd 4fbd 0dbe
00000200: 8359 f5bc 70a0 2abd 8f29 813c bb14 25be
00000210: d392 253e 4712 48be 3dbf 203e 2d42 7a3d
00000220: 2c54 ee3c ee0d a53e a30d 9e3d 25f8 2d3c
00000230: 0ab1 9bbd ca82 17bb c5dc 87be 4229 813a
00000240: c046 e23c cc2e 523c 7210 aabd 0080 043e
00000250: 1733 95bd 5977 143e 02a3 0a3e a5d2 793e
00000260: f91a 54bd d6dd 74be 7531 513c 6964 37bd
00000270: 145e b2bb 7fe4 e0bc a8b5 bc3d 9c69 bb3d
00000280: 9e51 b33d b99f a2bd 17ce 0bbf 9197 e8bd
00000290: 16b8 e1be 4f91 313d 3114 afbd 3a34 cc3b
000002a0: 1305 083f 76e9 bf3e b7b1 82be 3dd6 e2bd
000002b0: 655a 753e 3f73 92bd 233e afbd 05ff 61be
000002c0: 138a bcbe e7d4 21be 65cb 1a3f b9da babd
000002d0: 6520 ecbc 4a05 9f3e a77d ae3e eae3 ff3c
000002e0: 8b3a 9c3e 1916 a43e 9fe3 593e 3a70 cc3e
000002f0: 5ea1 25be 7b59 f23d b4d8 ac3e 8d2c e0bd
00000300: ee9b 673e 39fe fcbd a541 b23d ffc5 82be
00000310: b9fc 2b3e 5e54 9e3e 2fab 8dbd 5ab4 1a3d
00000320: 53b2 643d db66 b43d c7ff 2c3e 10d4 74bd
00000330: fee0 b03e 3b19 333d 57aa a63c e626 913d
00000340: 9784 043e f751 0abe ce7d bdbd 2207 4a3e
00000350: 8756 61be d1d4 0a3d fa16 98be d61a dc3d
00000360: 26e3 7f3e f331 833d b0c0 173e 79d9 9dbc
00000370: 4b94 453e 2e18 a83d ea06 f53d d41a 053e
00000380: f07c abbd e7ff dbbe 8715 a8bc 4f39 cd3e
00000390: 5a89 123d a32b 173e 6df4 303e 6b46 83bd
000003a0: 1151 2a3e 1bbb 80be ce4b 953e 5a68 a53d
000003b0: 01fb 67bd 163a 86be 3bfa 88be 4587 e13e
000003c0: eae0 843b 8699 0e3b 7e33 f23d aa52 30bd
000003d0: 0f00 423e 5554 d53d 1cbf afbc 17c2 a4be
000003e0: 28e7 c73c c73b a2bc 8157 533e fe30 a939
000003f0: 33c4 8abc 4d29 71be 22b3 34be e594 82bd

onnx::Conv_202 f4 [16]
-0.28396323 -0.24868393 0.46611336 0.25579044 0.4038584 -0.37581715 -0.29485947 0.052313358
-0.11624304 0.18062282 0.61923236 0.249442 0.029136658 -0.07371409 0.37723386 0.13048919
00000000: a163 91be 00a7 7ebe 69a6 ee3e f7f6 823e
00000010: 87c6 ce3e 1b6b c0be d2f7 96be 8846 563d
00000020: d510 eebd 30f5 383e 0386 1e3f b96d 7f3e
00000030: 00b0 ee3c 6af7 96bd cc24 c13e f59e 053e

onnx::Conv_204 f4 [16, 1, 3, 3]
-0.2543232 -0.5322246 0.29751998 1.0184577 -0.6558251 -0.90416026 -0.8623795 0.11641484
0.7344377 1.3398323 0.11990574 2.0044007 0.9868394 -1.8473697 -1.2968564 -0.59732765
2.1623716 -2.6353042 -1.617939 -0.92787343 0.33752608 1.6021845 -0.19858393 -1.4835627
-1.5574057 0.046554193 0.673327 -2.3492868 2.7898824 1.433854 1.6047345 -1.4946721
1.7591913 0.20642327 -2.3167062 1.4139603 -1.0588218 0.8522886 -0.3828447 0.43135688
0.19989659 0.7358745 -0.43446982 0.4353033 -1.0915458 -0.12602781 0.42096376 -1.1037605
-0.46907324 0.62953246 -0.8691114 -0.73913497 1.1787447 -0.090506636 0.8313362 -1.5573648
0.497778 1.4325933 -1.9008812 -1.0288547 0.66062135 -0.45294002 -0.31743225 -1.7327547
2.2364786 -0.103080094 -0.5674403 -0.3600748 0.7703926 0.78158283 0.13740112 1.6210754
0.444744 -0.326212 0.4425518 0.20229019 0.16744465 -0.068620116 0.8492804 0.29411325
0.24086775 0.3334593 -0.08584847 -0.07657594 0.19605494 -0.47448272 0.97383416 0.35498834
-0.37136802 0.13515672 0.5341275 -0.468866 0.5152462 0.6070123 0.26653093 0.38172022
-0.90331864 0.28707075 -0.047676653 0.5334057 0.60998523 -1.606947 -0.8092114 -0.1298074
0.9847276 -0.9649345 0.6124108 0.27963912 -0.15451847 2.2750115 1.6687878 -0.60567486
1.39338 -1.2651607 -0.32783118 -1.2050557 -0.60242087 -1.234225 0.7974397 0.6331509
-0.8044262 0.40029603 -0.6368713 -1.0356518 -0.32770953 -1.2039261 0.3343687 0.13842358
0.8473836 -0.14400986 -0.68208545 0.030135052 0.3494916 0.82451427 -0.12978014 -1.2098166
-2.29294 -0.9918846 1.1781528 -0.9841349 1.3344755 1.5752667 -0.12031431 1.3793756
00000000: a736 82be df3f 08bf 8a54 983e d25c 823f
00000010: 27e4 27bf 0c77 67bf e7c4 5cbf e76a ee3d
00000020: 1c04 3c3f a07f ab3f 2491 f53d 1a48 0040
00000030: 82a1 7c3f 9c76 ecbf 64ff a5bf 77ea 18bf
00000040: 4c64 0a40 d3a8 28c0 a018 cfbf 1d89 6dbf
00000050: 38d0 ac3e 6214 cd3f 9659 4bbe 62e5 bdbf
00000060: 1259 c7bf 9caf 3e3d 295f 2c3f b75a 16c0
00000070: 6f8d 3240 8788 b73f f167 cd3f 6a51 bfbf
00000080: 2e2d e13f 9f60 533e ea44 14c0 a7fc b43f
00000090: 7987 87bf 962f 5a3f 3804 c4be cfda dc3e
000000a0: b1b1 4c3e 4562 3c3f d472 debe 13e0 de3e
000000b0: c6b7 8bbf 6f0d 01be 9088 d73e 0648 8dbf
000000c0: 5e2a f0be 0a29 213f 167e 5ebf f337 3dbf
000000d0: 1be1 963f 8b5b b9bd 73d2 543f bb57 c7bf
000000e0: c2dc fe3e 385f b73f 1350 f3bf 83b1 83bf
000000f0: 7b1e 293f c1e7 e7be 7b86 a2be e8ca ddbf
00000100: 7722 0f40 a81b d3bd c443 11bf b95b b8be
00000110: 7338 453f d015 483f e1b2 0c3e 667f cf3f
00000120: 7cb5 e33e 4205 a7be 2696 e23e 2925 4f3e
00000130: 9c76 2b3e b488 8cbd 716a 593f 0396 963e
00000140: 09a6 763e 2dbb aa3e 53d1 afbd d9d3 9cbd
00000150: a0c2 483e 66ef f2be 324d 793f 08c1 b53e
00000160: f323 bebe 8666 0a3e 94bc 083f 340f f0be
00000170: 2de7 033f 2865 1b3f be76 883e d570 c33e
00000180: e43f 67bf f0fa 923e 9848 43bd 478d 083f
00000190: fe27 1c3f 70b0 cdbf 7a28 4fbf 3bec 04be
000001a0: 1c17 7c3f f305 77bf f4c6 1c3f dc2c 8f3e
000001b0: 173a 1ebe ca99 1140 d79a d53f 820d 1bbf
000001c0: 475a b23f c9f0 a1bf 7dd9 a7be 443f 9abf
000001d0: 4138 1abf 16fb 9dbf 0225 4c3f 2d16 223f
000001e0: e0ee 4dbf 9af3 cc3e ff09 23bf 3d90 84bf
000001f0: 8bc9 a7be 401a 9abf 6032 ab3e e9be 0d3e
00000200: 22ee 583f 5277 13be 279d 2ebf c9dd f63c
00000210: 90f0 b23e 5e13 533f 16e5 04be 45db 9abf
00000220: 87bf 12c0 26ec 7dbf b6cd 963f 44f0 7bbf
00000230: 18d0 aa3f 57a2 c93f 5967 f6bd 618f b03f

onnx::Conv_205 f4 [16]
0.097349696 -0.23472098 0.5428666 0.10632199 0.021374684 0.17605972 0.1544975 -0.4408769
-0.31696412 -0.13282293 -0.2769547 -0.031122524 -0.00811721 0.17534047 -0.18034413 -0.14528885
00000000: 475f c73d b25a 70be 4ef9 0a3f 58bf d93d
00000010: f619 af3c 0049 343e 9834 1e3e 9eba e1be
00000020: 1f49 a2be bc02 08be 02cd 8dbe aaf4 febc
00000030: 0cfe 04bc 748c 333e 22ac 38be 9ac6 14be

onnx::Conv_207 f4 [16, 1, 3, 3]
-0.46016473 -0.009063795 0.07852824 -0.7266179 0.16412176 0.31931046 -0.49309003 0.12684621
-0.8478532 -1.4701641 -0.39665797 0.2525016 0.3896212 -1.3811523 0.8700967 -0.67316574
0.2301608 -0.5782417 0.064751744 0.4450415 0.6359071 -0.6112814 -0.37252963 -0.20894803
-0.120452695 0.028493661 0.35562888 0.50194526 0.02075941 -0.40140343 0.10297194 0.21700902
-0.4031825 0.49944574 -0.58593607 0.08084422 0.31153667 -0.51635456 -0.8722118 0.4094222
0.5244785 -0.17028362 -0.26209706 0.16889909 -0.54696906 0.3299712 -0.30862314 0.2855461
0.17635116 -0.47744018 0.21627611 -0.36634234 0.53250194 -0.43758607 0.8838281 -1.0998322
1.2547338 1.512574 -0.76144826 -0.92824775 -1.0774184 -0.5693889 0.8517005 -0.90643
0.5045807 -0.45190385 -0.39869004 -0.14527135 0.31090125 0.020305324 -0.32031015 -0.69553024
-0.07627112 -0.8161112 -0.04085408 0.3577396 0.022997648 -0.49396417 -0.052443203 -0.44461316
-0.48403844 0.101887226 0.6705903 0.05899201 0.013172557 -0.39206636 -0.39593783 -1.1682163
0.5551612 0.44306177 -0.028074877 0.34352735 0.57718265 0.5087372 0.3188864 -0.3583315
-0.47947115 -0.5515248 0.4464447 -1.0883543 -0.21419391 -0.54677117 -0.5209862 0.07427543
0.3662019 -0.14468162 0.69684154 -0.09512165 -0.036767658 0.61504525 0.47469476 -0.56605786
-0.28851983 -0.52919745 0.2093954 1.1542076 -0.2066306 -1.2631085 -0.4978731 0.15944885
-0.094041154 0.3518169 -0.59415036 -0.6904933 0.52778435 -1.0878371 -1.2281438 -1.2335895
0.45815566 0.41507095 0.5607585 -0.7482379 0.44046602 0.5417486 0.3021599 -0.4964492
-0.3069786 -0.551769 0.71008784 -1.7253484 0.2289552 -1.3390042 1.4247676 1.1351675
00000000: b69a ebbe 5080 14bc 6ad3 a03d a103 3abf
00000010: 890f 283e a97c a33e 4c76 fcbe f9e3 013e
00000020: e80c 59bf 562e bcbf c116 cbbe e447 813e
00000030: 6e7c c73e 99c9 b0bf a8be 5e3f 9754 2cbf
00000040: 46af 6b3e a607 14bf 909c 843d 7bdc e33e
00000050: cfca 223f f07c 1cbf 34bc bebe 79f6 55be
00000060: e7af f6bd 8a6b e93c fd14 b63e 7c7f 003f
00000070: a30f aa3c c084 cdbe f4e2 d23d 9d37 5e3e
00000080: f06d cebe 5ab7 ff3e e8ff 15bf a891 a53d
00000090: bc81 9f3e d02f 04bf 4649 5fbf c99f d13e
000000a0: 3944 063f d45e 2ebe 9631 86be e2f3 2c3e
000000b0: 2a06 0cbf fcf1 a83e da03 9ebe 1933 923e
000000c0: 6695 343e 0a73 f4be 7c77 5d3e 3991 bbbe
000000d0: 0c52 083f 480b e0be 8f42 623f 4dc7 8cbf
000000e0: 1e9b a03f 069c c13f 46ee 42bf a5a1 6dbf
000000f0: d9e8 89bf 79c3 11bf 0b09 5a3f cc0b 68bf
00000100: 332c 013f f15f e7be 1a21 ccbe 03c2 14be
00000110: 732e 9f3e 5a57 a63c b1ff a3be 450e 32bf
00000120: 0834 9cbd aaec 50bf 9c56 27bd a529 b73e
00000130: 9065 bc3c dfe8 fcbe afce 56bd 56a4 e3be
00000140: e3d3 f7be 40aa d03d ceab 2b3f 9ba1 713d
00000150: b5d1 573c ecbc c8be 5db8 cabe 1d88 95bf
00000160: 0b1f 0e3f fed8 e23e 49fd e5bc d1e2 af3e
00000170: 3ec2 133f 9a3c 023f 1445 a33e 3a77 b7be
00000180: 3e7d f5be bb30 0dbf 6694 e43e 324f 8bbf
00000190: a655 5bbe 32f9 0bbf 5a5f 05bf b71d 983d
000001a0: d17e bb3e 6b27 14be 3564 323f 24cf c2bd
000001b0: af99 16bd 9b73 1d3f 310b f33e 2be9 10bf
000001c0: dfb8 93be 7c79 07bf bf6b 563e 13bd 933f
000001d0: f996 53be 8aad a1bf 39e9 febe 8f46 233e
000001e0: a698 c0bd 5821 b43e 3d1a 18bf 2bc4 30bf
000001f0: e01c 073f 3f3e 8bbf d133 9dbf 43e6 9dbf
00000200: 6193 ea3e 2e84 d43e de8d 0f3f 858c 3fbf
00000210: c384 e13e 09b0 0a3f b4b4 9a3e 972e febe
00000220: 4d2c 9dbe bc40 0dbf 51c8 353f 37d8 dcbf
00000230: 3b73 6a3e 7d64 abbf c95e b63f 2b4d 913f

onnx::Conv_208 f4 [16]
0.52684903 0.19782951 -0.016189838 0.16000633 0.334244 -0.20316716 0.18338987 0.3010249
0.4044938 -0.042312436 -0.20958528 0.5997347 0.2596671 0.729834 0.29171503 0.23349342
00000000: 94df 063f d293 4a3e 8da0 84bc b3d8 233e
00000010: 0822 ab3e 0d0b 50be 8eca 3b3e f01f 9a3e
00000020: d019 cf3e ce4f 2dbd 869d 56be 3788 193f
00000030: 16f3 843e 67d6 3a3f ac5b 953e e618 6f3e
