vision_models/T_detector.onnx (onnx, 31336 bytes, 36 tensors)

encoder.de_form1.weight f4 [8, 1, 3, 3]
00000000: 74db 0c3e e829 853e 556c 61bd 92b0 993e
00000010: 233e 943e ac43 733e b7e0 3bbe 5d74 133e
00000020: 39ed 193d 6d76 bfbe 58aa 9abc a8b7 01be
00000030: 2ed5 123e 04d8 a03d 4e09 083c 459d 2d3b
00000040: 7b17 373f 55c8 353e 477c 47be 83c8 5abe
00000050: d719 8bbc 57cc 27be 7c70 adbe 040e 7ebd
00000060: a192 2abc 74b4 2ebe dec8 373d 8341 9fbe
00000070: 534e 00be e1f7 c3bd 2b69 d43d ddc1 12be
00000080: c0fc 353c ba08 283e 5f39 003f cad0 ba3e
00000090: 12da 01be e75a b6bd 7893 3a3d 1585 01be
000000a0: 6e32 acbd b3f4 61be 3bd1 213e b84e 083f
000000b0: d5af bd3e e97c 5abe 927b f43c eeb5 e5bd
000000c0: 07b0 463e 965b b13c 7a65 2cbe 7f94 7b3c
000000d0: e4a2 ed3e 6513 053f 634f 603e e9f4 153e
000000e0: 780a 003e 93d7 97bd 5ec5 6ebb 00b9 ebbc
000000f0: 1ca1 1bbd 20fe 18bf ed3c 3dbe 7086 68be
00000100: 3543 b1bd b032 203b 8b95 523d 8b97 1bbe
00000110: 8968 4abe 9daa 2abd 2bea 213f cd92 9a3e
0.1375559 0.26008534 -0.055034954 0.30017525 0.28953657 0.23756284 -0.1834744 0.14399858
0.03757975 -0.3739504 -0.018880054 -0.12667716 0.14339134 0.07853702 0.008303 0.0026491445
0.71520203 0.17752202 -0.19481002 -0.21365552 -0.016980095 -0.16386543 -0.3387488 -0.062025085
-0.010410936 -0.17061025 0.044869296 -0.3110467 -0.12529878 -0.095687635 0.10371622 -0.14331765
0.011107624 0.16409579 0.5008754 0.36487418 -0.12680843 -0.08904057 0.045550793 -0.12648423
-0.08408056 -0.22066002 0.15802471 0.53245115 0.37048212 -0.21336712 0.02984408 -0.11216341
0.19403087 0.021650117 -0.16835585 0.015355228 0.46413338 0.5198272 0.21905284 0.14644207
0.12503994 -0.074141644 -0.0036433558 -0.028774738 -0.037995443 -0.59762764 -0.18480273 -0.22707534
-0.08655397 0.0024444275 0.051412147 -0.15194528 -0.1976644 -0.041666616 0.63247937 0.30190125

encoder.de_form1.bias f4 [8]
00000000: 13ef d8bc 0a23 d7bc bd54 a8bc a4de 263c
00000010: 108c 873c 665b 71bd a0fd 3a3d e244 aebb
-0.026481187 -0.026261825 -0.020548219 0.010184918 0.01654628 -0.058925055 0.045652032 -0.00531827

classification_decoder.linear.weight f4 [1, 80]
00000000: bdd7 e9be 3edf 98bd ef43 913d 7dc4 b8bd
00000010: 7ed6 7c3e 58c0 00be ba3f 90be 4d15 923d
00000020: 8f99 8dbe 94b4 a3bd 9493 9dbe c4a7 223c
00000030: 0d82 9a3c 69aa c63e 36da 30be 720e 97bd
00000040: 4ab0 65be 3247 70be f11c 3fbe 5fed fc3e
00000050: f693 cfbd 655a 8ebe 2ab1 f7bd 1310 9bbe
00000060: 9ca3 4dbe 5890 c7be 68c0 babb 5012 0c3e
00000070: c0cb 1bbe a3e5 5dbc 83ff d73c 5d5c f63e
00000080: a2b4 c9be c9ed 273e c35a a33e 7e00 bd3c
00000090: 4b53 fa3b 6d2d 46be 98b3 31be 62bf 903d
000000a0: 76a7 003e 6a57 be3e 8ea4 50bd d84e c9be
000000b0: c188 483e 55d6 b53d 9ed3 c93e f659 72bd
000000c0: 7a8e 56be 40a1 783e b8a0 563e 4f39 1cbe
000000d0: 376a b73d 0d2c ba3e 2059 4a3e 03aa 54be
000000e0: 2454 6bbe 23fe 9cbc d372 ab3e 389b a7bd
000000f0: 590a 32be dd24 9e3d f8c8 163e 4384 dbbe
00000100: 1e03 6c3e 108b 773e bb6c fdbb 5ff7 89be
00000110: c841 44bc cc54 8fbe 099b 833e 28d8 e3bb
00000120: c4a3 223e a17c 70bc b02b cebe ddaf bb3d
00000130: 2d80 8ebe 678c 6fbe 3441 0abe 6e63 933e
-0.45672408 -0.07464455 0.070930354 -0.09021852 0.24691197 -0.12573373 -0.2817362 0.07132969
-0.27656218 -0.07993427 -0.30776656 0.009927694 0.018860841 0.38801888 -0.17270741 -0.07375802
-0.2243053 -0.23464659 -0.18663384 0.4939985 -0.10135643 -0.2780334 -0.12094338 -0.302857
-0.20081943 -0.38977313 -0.005699206 0.1367886 -0.15214443 -0.013543519 0.026366955 0.48117343
-0.39395624 0.16399302 0.31905183 0.023071524 0.007639324 -0.19353266 -0.17353666 0.070677534
0.12563881 0.37176067 -0.05093818 -0.39317966 0.19583417 0.08878771 0.39419264 -0.059167825
-0.20952788 0.24280262 0.20959747 -0.15256236 0.08955806 0.36361733 0.19760561 -0.2076798
-0.22981316 -0.01916415 0.3348604 -0.081839025 -0.1738676 0.07721875 0.14725101 -0.42874345
0.23048064 0.24174142 -0.007733909 -0.26946542 -0.011978574 -0.27994382 0.2570422 -0.006953258
0.15882784 -0.014678151 -0.40267706 0.09164403 -0.27832165 -0.23393403 -0.13501436 0.28786796

classification_decoder.conv2.weight f4 [20, 8, 1, 1]
00000000: 2ded 983e 0c91 1c3e 6ca1 963e 3497 013f
00000010: 9b52 533e 179a a7be 23c4 adbd 59a5 363e
00000020: 588d 8dbe 30fa a1bd 144f 08bb 9e97 43be
00000030: 690e 48be b1d9 a93e 297a ba3e a4ff 323e
00000040: b803 4b3c 4def 013d b0b5 d13e 9749 6b3e
00000050: 1928 8c3e 96f2 bf3a 911a 2e3e a2ec f43e
00000060: 88b0 973e 93ca c1be ec91 78bc bc34 4fbe
00000070: 9a11 ae3c da18 6f3d e3f6 62be 634f 863e
00000080: 84b6 b2be 47f1 ac3e bcb8 1c3f 8047 a9be
00000090: a424 5b3e d343 98be 2de1 693e 3ee5 5c3d
000000a0: ff76 80bc 0a91 593e 2305 2ebe 5d97 fc3e
000000b0: 3ff2 923c 6b46 043e 6158 083e cbba ba3e
000000c0: 0b5f 3dbe 7e7b cf3e f04d 9f3e e619 8e3e
000000d0: c251 283e 3639 aabd 7043 fe3e b5e8 2ebe
000000e0: 2d75 53be eeda 943e e66c e03e c031 f7be
000000f0: bb07 2d3e b453 e1be f40f 87bd 67fc 1abe
00000100: 9a6a b53e bc06 8bbd ee5d 9a3e 689d b43e
00000110: f996 9b3e 3d51 f4be e68c b5be 71a5 6dbe
00000120: 0bc1 92bd 2f1e d93d 43fb 0d3e 3c93 88bc
00000130: b9f2 4ebd 4d9d fe3c bdb5 e43e b237 853e
00000140: 157c cd3e 682b ebbe cb89 cbbe 3075 1f3e
00000150: 1065 1bbe 359b 823e a109 f1be 5e5e dd3e
00000160: d019 90bb 51dc e9bd 7a66 dabe 3bb2 73bd
00000170: dc87 d2be 2f8d 85be 71ee 69be e413 dabe
00000180: 06d3 d13e 6735 dbbd a667 e23c f8ce 5b3e
00000190: b5e0 ba3d 07b0 023d 5c45 05bf 117c 81be
000001a0: 4f58 c93e 98f3 8cbe 951f 93be c0eb a1bc
000001b0: 32fa 44be 0899 853c 28fc d2be 498d 88bd
000001c0: 9166 0b3e 2c27 a53d 57f1 41bc 47e0 db3e
000001d0: ed91 5c3e 5358 b7be 866b 7cbe 41c9 a6be
000001e0: cfa0 bd3e 455d d73d 027f e7be fc23 d73e
000001f0: 1795 273e 9544 18be d194 7fbe 1c91 623e
00000200: bd67 b63e f20a ccbd bf5d ddbe 2069 2ebe
00000210: 8e0e 79be afa4 1e3e aaf6 7dbe 2ee1 823e
00000220: 340f 96be d297 9b3e 527b e2bd e6ea 893e
00000230: 3263 b83d c0f7 28be b900 c63d 4ec6 a8be
00000240: bc00 95be f445 41be ef64 963d d292 abbe
00000250: 338d 983d 0111 4a3e 9994 8d3e 7cbc e63e
00000260: 82a4 fabd 4cfd 863e 11bf 103f e61d 3abd
00000270: cb31 b63e c148 98be 8a34 ec3e f115 45ba
0.2986845 0.15289706 0.2942003 0.5062134 0.2063698 -0.3273475 -0.08484676 0.17836513
-0.276469 -0.079090476 -0.0020799087 -0.19100806 -0.19536747 0.33173898 0.36421326 0.17480332
0.012391023 0.031722356 0.4095893 0.22977291 0.27374342 0.001464444 0.17002322 0.47836787
0.2962687 -0.37849864 -0.015171509 -0.2023496 0.021248627 0.05837331 -0.22164492 0.26232442
-0.34904873 0.3377783 0.6121938 -0.33062363 0.21400696 -0.29739246 0.22839804 0.05392956
-0.015681742 0.21246734 -0.16994147 0.4933423 0.017937778 0.12917487 0.13314964 0.36470637
-0.18493287 0.40523905 0.3111415 0.27754134 0.16437438 -0.08311693 0.49660826 -0.17080958
-0.20650168 0.2907328 0.43833083 -0.48280144 0.1689748 -0.44009173 -0.0659484 -0.15135346
0.35432893 -0.06788394 0.30149788 0.3527634 0.3038862 -0.4771823 -0.3545906 -0.23207642
-0.07165726 0.1060146 0.1386538 -0.01667177 -0.050524447 0.031080866 0.44669905 0.26019055
0.4013373 -0.45931554 -0.39753565 0.15572047 -0.15175271 0.2550904 -0.4707766 0.4323606
-0.0043976083 -0.11418975 -0.42656308 -0.059496146 -0.41119277 -0.26084277 -0.22844864 -0.425933
0.4098131 -0.10703545 0.027637314 0.21465671 0.09124891 0.031906154 -0.5205896 -0.25289968
0.39325187 -0.27529597 -0.28735033 -0.019765735 -0.19236067 0.016308323 -0.41208005 -0.06667573
0.13613345 0.08064112 -0.011837325 0.42944548 0.21540041 -0.35809574 -0.24650392 -0.3257542
0.3703675 0.105158366 -0.45214087 0.4201964 0.16365467 -0.14869912 -0.24959113 0.22125667
0.3562602 -0.09963025 -0.43235585 -0.1703229 -0.24321958 0.1549251 -0.24801126 0.25562423
-0.29308474 0.30389267 -0.11058678 0.26937026 0.09003295 -0.16500759 0.096681066 -0.32963794
-0.29102123 -0.18874341 0.0734347 -0.33510453 0.074488066 0.19733049 0.27652434 0.45065677
-0.122384086 0.26365125 0.56541544 -0.04543867 0.35584864 -0.29743007 0.46133834 -0.0007518223

onnx::Conv_177 f4 [4, 8, 1, 1]
00000000: f429 7bbe ffcc e3be 1e04 3e3e c609 8abe
00000010: 6aaa 85be 9cd1 cebe 3755 c13e 740a 6fbe
00000020: 0eca 753c 3f2b c23e dedf 82be 83ec d33e
00000030: 5080 423f eae6 a63e f55f ebbe e4a6 2c3f
00000040: 508d f03f 19aa 3ebf ff10 babf 4f72 b7bf
00000050: b18e eabf b01d 793e 3abb 713f 52f3 23c0
00000060: 9cac e63c 4703 b9be d275 0cbd 275e b1be
00000070: d518 8ebe c2d7 c3be 6d22 a43e 21ae b9be
-0.24527723 -0.44492337 0.18556258 -0.26960582 -0.26106578 -0.40394294 0.37760326 -0.23343831
0.015001787 0.3792362 -0.25561422 0.41391382 0.7597704 0.32598048 -0.45971647 0.67442155
1.8793125 -0.744783 -1.4536437 -1.4331759 -1.8324796 0.24327731 0.9442631 -2.561726
0.028158478 -0.36135313 -0.03429205 -0.34642145 -0.2775332 -0.38250548 0.32057515 -0.36265662

onnx::Conv_178 f4 [4]
00000000: 82ac f43e 76d0 bdbe baf6 68be 36b6 293f
0.47787863 -0.37073106 -0.22750369 0.66293657

onnx::Conv_180 f4 [4, 1, 3, 3]
00000000: f466 a83d 9dad e3bd 6c55 67be edcc 34be
00000010: 1856 50bf dbf3 56bf 425a 1a3d 39ef 17bf
00000020: 4504 66be ab11 8c3d 5bd8 7abe 3127 7abe
00000030: 98df a5be ac28 dcbe 308d b5bd 9891 dbbd
00000040: f42b 0dbe 8240 9738 398b 793d e845 11bc
00000050: 108c babd 3df9 013d f9ad 07be bdfd 7abe
00000060: 4dff a7bd 0f24 69be 3c01 3abe 008c 29be
00000070: 23b3 d4be 4f2d f7be edfb 373f 98bc f4bd
00000080: 8979 cbbe bdc3 1e3e 8a74 463f e45f 463f
0.08222762 -0.111170985 -0.2259118 -0.17656298 -0.8138137 -0.83965844 0.037683733 -0.593494
-0.22462566 0.068393074 -0.24496596 -0.24429013 -0.3239715 -0.4299978 -0.0886482 -0.10721129
-0.13786298 7.2122566e-05 0.06092379 -0.008866765 -0.09108746 0.031731833 -0.13249959 -0.24510856
-0.08202992 -0.22767662 -0.18164533 -0.16557312 -0.4154292 -0.48276755 0.71868783 -0.11950034
-0.3974116 0.15504356 0.77521574 0.7749007

onnx::Conv_181 f4 [4]
00000000: 7e0e 853f 97be e63e 869a 0f3f cbbd 1abf
1.0395048 0.45067284 0.5609516 -0.6044585

onnx::Conv_183 f4 [8, 4, 1, 1]
00000000: dab2 443f 3000 0abf 10f4 673e 1e76 aa3d
00000010: d22b 5fbf 3070 353e e10e 1740 38ef 55bf
00000020: 7123 763f 0e8c 873d 5de3 343e 38b1 9abf
00000030: e4ae a93e 1fb7 5ebe aaeb 02bd 7674 8abd
00000040: 4ee3 963e 5eec 36bf b399 08bf 9ee9 f13e
00000050: 778b 2d3e 1e31 efbe 6c63 53be 5edb 1b3e
00000060: af93 693e c4a9 6cbf 2c35 a3bf 7497 013f
00000070: fb20 83bf 3bae 783f 040a a93f 804f 06be
0.76835406 -0.53906536 0.22651696 0.0832331 -0.8717624 0.17718577 2.3602831 -0.83568144
0.9614783 0.0661851 0.17664857 -1.2085333 0.33141243 -0.21749543 -0.031963028 -0.067604944
0.29470295 -0.7145442 -0.53359526 0.47248548 0.16947733 -0.4671716 -0.20643395 0.152204
0.22810243 -0.9244654 -1.2750602 0.50621724 -1.024444 0.97140855 1.3206182 -0.13116264

onnx::Conv_184 f4 [8]
00000000: b86b 343d 28d3 f1be 8730 bbbe 34b7 6d3e
00000010: 7c8e 673f 40e3 1c3f d1fd 593f 21dd 52be
0.04404804 -0.47231412 -0.3656046 0.23214418 0.9045179 0.61284256 0.8515292 -0.20592166

onnx::Conv_186 f4 [8, 1, 3, 3]
00000000: f3b0 aa3d 5c96 c03e ccce b83e 6e8e d43d
00000010: 12ed a13e 0484 093f c9f9 2fbd ea6c b13e
00000020: 0a9c 013e 4881 873d a1d1 ab3e 0b10 583e
00000030: c501 b53e a1b7 583f 7b5e f43d de7d 043e
00000040: 2a6a e63e e977 13be f3c8 d93e a175 9c3e
00000050: fbd5 2dbf 586b a93d 78b0 103f c013 b83e
00000060: 0140 9dbe 0247 44bf e666 2ebf d7fe 92bf
00000070: 1f8d c43c 7338 f0be db3a 743f 87cd a13f
00000080: 471d 63be 4319 5fbf 8a3b 363f 61e6 1e40
00000090: b6c0 e23d e428 ba3e 70fa 5f3f 3e7c 21bf
000000a0: bc65 0fbf 676c 583f fa12 97be d701 10bf
000000b0: a4d3 a2bf 9d37 683f 76d1 343f e5fa 93bd
000000c0: dffb e6be 9a0f 76bf ade7 8abf d6c2 0b3f
000000d0: 8de5 8b3f 86e7 b03f 63c8 26bd eb80 b8b9
000000e0: 41a1 2c39 bed7 d6bd 6fc9 e1be c04c 85be
000000f0: d60c 293d 6dce 30be e62b 01be 8680 9abe
00000100: 72c7 0cbf 822d b4be f1f4 7f3c 6878 a0bd
00000110: 60bd 08bf 2916 d43e 44b1 01be 83d7 39bf
0.08334532 0.37614715 0.36095273 0.10378729 0.31626183 0.53717065 -0.042962823 0.34653407
0.1265718 0.06616455 0.33558372 0.2109987 0.35352913 0.84655195 0.11932083 0.1293864
0.45002872 -0.14401211 0.42536125 0.30558494 -0.67904633 0.08272427 0.5651927 0.35952568
-0.30712894 -0.7667085 -0.6812576 -1.1484021 0.023993073 -0.46918067 0.95402306 1.2640847
-0.22179137 -0.8714792 0.711846 2.4828112 0.11071913 0.36359322 0.8749151 -0.63080204
-0.5601461 0.8454041 -0.29506665 -0.5625281 -1.2720838 0.9070986 0.7063211 -0.07225589
-0.45114037 -0.96117556 -1.0851952 0.5459417 1.0929428 1.3820655 -0.040718447 -0.00035191266
0.0001646327 -0.10490368 -0.44098994 -0.26035118 0.041272007 -0.17266245 -0.12614402 -0.3017618
-0.5499183 -0.3519097 0.015622363 -0.07835466 -0.53413963 0.41423157 -0.12665278 -0.7259447

onnx::Conv_187 f4 [8]
00000000: 2a56 a2be 4969 b5be d0fd bd3c 89c4 21bf
00000010: aa56 da3e 05ae 85be 02d6 c43e b741 713f
-0.31706363 -0.3543189 0.023192316 -0.63190514 0.42644244 -0.2610933 0.38444525 0.942409

onnx::Conv_189 f4 [8, 1, 3, 3]
00000000: efae 3ebf c4d0 683e f9cb 283e 441d c1bc
00000010: f011 f43e 4b1f bfbe 0941 adbe 6414 20bf
00000020: 7c00 cebc a53b 07c0 a85a 8e3d f0f7 033e
00000030: 21b1 e73e 7931 663f d798 be3f 4f3f 05bf
00000040: b6ec 38bf 6172 283e b59f cfbe 7d20 073f
00000050: c098 503f 6928 b23e ecc9 3d3f 8d34 0d3f
00000060: 1501 6e3f 7c5a f0be 791c 383f 1a01 7c3c
00000070: 4912 e0be 3689 483e cbf8 7a3f b12c 1a3f
00000080: 2860 25be ef82 eebe fcdd 243e b4ea d13e
00000090: cc7f 183e 8c20 01be 0ce4 03bf 5576 51bf
000000a0: 0df2 893e 2d68 8b3c 85b0 503f 60d0 e53e
000000b0: 7d32 893e 82e6 c13e 7a3b 873e 2e17 703e
000000c0: a56b 3c3f edb5 01be 80a6 1f3f 6b6b 08bd
000000d0: b130 9bbf b82e 4dbe b6b5 03be c5e0 a9bf
000000e0: 44ae 14bf a226 b33f 831d 0440 ca92 0240
000000f0: f5ed edbf 1048 e2bf 2ca8 bfbe 6563 223d
00000100: 045f 293f 53f4 3d3e 2021 303f 898c 643e
00000110: 682f 9f3e 461e 0abe e68c 5bbf f2c1 723e
-0.7448568 0.22735888 0.1648406 -0.023573525 0.47669935 -0.37328562 -0.3383868 -0.62531114
-0.025146715 -2.1130154 0.06950885 0.1288755 0.45252326 0.8991924 1.4890393 -0.52049726
-0.7223619 0.16449882 -0.40551534 0.5278395 0.8148308 0.34796456 0.74136233 0.5515831
0.929704 -0.46944034 0.71918446 0.015381122 -0.4376395 0.19583592 0.9803588 0.60224444
-0.16149962 -0.4658427 0.16100305 0.40999377 0.148925 -0.12610072 -0.51519847 -0.81821185
0.26942483 0.017017448 0.8151935 0.4488554 0.26796332 0.37871176 0.26412565 0.23446342
0.7360175 -0.12667055 0.62363434 -0.033305567 -1.2124234 -0.20037353 -0.12862286 -1.3271719
-0.5807841 1.3996165 2.0643013 2.0402093 -1.8588244 -1.7678242 -0.37432992 0.03964557
0.6616061 0.18550234 0.68800545 0.22319235 0.31090856 -0.13488111 -0.8576187 0.23706797

onnx::Conv_190 f4 [8]
00000000: f86e da3d 7abd 18be 9e34 d6bc 9a61 5ebe
00000010: 60f2 37be 1e27 96be 2405 7e3e 1a3c ccbe
0.10665697 -0.1491603 -0.026148137 -0.2171692 -0.17963552 -0.2932672 0.24806648 -0.39889604

onnx::Conv_192 f4 [8, 1, 3, 3]
00000000: e5b9 f4be 4e34 d9be 6753 e7be ec2a 9a3f
00000010: ebb6 cf3e 24af 57be 3f23 0e3f 4f68 dbbe
00000020: 0c33 0dbf 68ba dd3b f4e6 a53e 78ac edbe
00000030: 16b6 e6bf f91f 2d3e d0bd 08be 4fc5 d9be
00000040: b6e6 973f 03e3 1cbf 5907 99bf dfe9 0e3c
00000050: 3139 d9be 716c fcbd 981e 423f e924 0c3e
00000060: f2a8 62bf aa3c 28bd 4ece d0be 28de 12bb
00000070: 68b8 003c d9c8 183f 6faa 793e 058a 05bf
00000080: 410b 1dbf 4be3 bfbe baea 30be 3a82 8d3e
00000090: c23c f4bb 24c8 813d 39c1 9c3d 5218 19bf
000000a0: 25b1 75be 7cfc 203e fe98 3fbf a59c 17be
000000b0: 5e1f 893e e689 3cbd 8189 80be d02e 50bf
000000c0: cc65 20be 4eca 81be ad77 a23f ab1c a8bc
000000d0: cbf5 77bf e7cd cd3d 7f6b 35bf 1c74 45bf
000000e0: 2320 853c de5d 513f 7cc2 7cbd dd91 f9bc
000000f0: 4890 f63e 20b9 0c3d 2a72 413e 9552 0f3e
00000100: 8e90 e33d e5ac c8be d625 613e 1a83 7bbd
00000110: 7b6c 85be 1b97 4d3e 085f 893e 506b 513e
-0.47798076 -0.42422718 -0.45180818 1.2044349 0.40569243 -0.21062905 0.5552253 -0.4285302
-0.55156016 0.006766606 0.32402766 -0.46420646 -1.8024318 0.16906728 -0.13353658 -0.42533347
1.1867282 -0.6128389 -1.1955367 0.008722751 -0.42426446 -0.12325371 0.7582793 0.13685955
-0.8853904 -0.04107348 -0.40782398 -0.0022410247 0.007856466 0.5968147 0.24381422 -0.52163726
-0.613453 -0.37478098 -0.17277041 0.27638417 -0.007453532 0.06337002 0.07654042 -0.59802735
-0.23993357 0.15721315 -0.7484282 -0.14805849 0.26781744 -0.046029948 -0.25104907 -0.8132143
-0.15663832 -0.2534966 1.2692772 -0.020521482 -0.96859425 0.100490384 -0.7086715 -0.77130294
0.016250676 0.81783855 -0.061708912 -0.03046506 0.48156953 0.034356236 0.18891206 0.13996346
0.11111556 -0.39194408 0.2198709 -0.061404325 -0.26059327 0.20077173 0.26830316 0.20451093

onnx::Conv_193 f4 [8]
00000000: 003f d93e b721 f13d f62e 0b3d abf4 cb3d
00000010: 0305 c63d 833d 013f 9a79 80bd 00a7 933c
0.42430878 0.11774009 0.033980332 0.09958776 0.09668925 0.50484484 -0.06273194 0.018023968

onnx::Conv_195 f4 [32, 8, 1, 1]
00000000: f6af 08bd 5f09 61be 81e6 7f3e fc7d ce3d
00000010: de7b 8ebe ba95 f23d 1a80 88be e0b0 c93d
00000020: 8b4b 683e c5f8 9abd 60b5 edbd 82f6 a2be
00000030: 80f9 6e3e 592b c5be a073 293f 2945 07bf
00000040: 6272 093e 5785 cf3e 61d3 7f3d 6f34 23bf
00000050: b397 553e 972d bbbe 7032 62bd d3c7 9e3e
00000060: c259 b4be fa4e a2be ca11 f0be ab0c 8ebe
00000070: 5e5d 2ebe 5645 3b3d 4395 803e 68cd e4bd
00000080: 99ef e9bd 6155 583e 7b32 813c c3cc 663f
00000090: 21df b73d d25f b73e f0e6 093e 9a08 303f
000000a0: 8889 e5be 0c65 17bd ca59 0ebe 68ba 01be
000000b0: 9f59 2d3e 2b31 a83d 28e3 ce3d b2e5 09bf
000000c0: fb84 553e 72af a5be c893 363e 5707 89be
000000d0: fe96 bebe e406 95be d998 143e 6fc1 5a3f
000000e0: 6c5a 333f cb3f e83d 2c3c 143e 2eaf 973e
000000f0: 0c49 57be f747 f03e ced4 afbe 6555 4cbe
00000100: f22f 88be 894c 42be dbc0 42be e2e7 a03e
00000110: 988e 90bd 2064 d6be 020b 543f 63ac 68be
00000120: 21ca 00bf 9313 17bd 5b76 213f e0f7 2dbe
00000130: 78fe 12bf 925f de3d a86d 88be 9e5f 0bbf
00000140: af11 bdbe 93e0 9b3e d4d1 b73e 9ad8 8f3e
00000150: f4df a8be 8bb6 c03e b11c 67be 1f64 0d3e
00000160: 8530 c73e 7dd3 98bd af26 e63c 98dc 983d
00000170: fe07 abbd 43fd 8c3e 09b3 b4bc 5edb e03e
00000180: 7bb1 ecbd c029 813d 2ef5 d9bd 695c 90bc
00000190: 11a7 f6bd d49b 08bf 158a 87be ec5b 14bf
000001a0: d7ef 0e3f fb15 403e 8056 633e 70d8 a93c
000001b0: 1e63 d5be ec93 d2bc 1fa3 d73e 4c49 d23e
000001c0: 7aa7 e3be 66f4 ac3d 54ca e53e 4952 903e
000001d0: 3030 4fbf a930 033f 6a8b 433e 198f a73e
000001e0: d27f 25bf 9b5b b13e b75c d8be fdef da3e
000001f0: 20b3 9dbf e9bb 1d3f 3999 00be dc34 ba3e
00000200: c42c b2bd 6e21 f33e 67b8 b3be 13f3 cbbd
00000210: cb36 15be 4a5f 1b3f b1f5 993e e22b 02bd
00000220: d811 0dbf 796b d83c 0d62 3cbc ecf2 c33d
00000230: 9183 a7be 0404 1bbf 2d55 e93d d636 c2be
00000240: 0114 053f a6a4 24be fefa 2dbd 60ed f43e
00000250: b540 4fbc 60b0 b9bd 47c7 3f3b f679 4c3e
00000260: e5ca b83e 5ebc 48bf 6a6d 0f3e 0a83 3fbe
00000270: 02f0 9a3d 5d2d d53e e381 14bf ecfa debe
00000280: aee2 fe3c d6b6 6c3d 9e9f 32bd 777a 8cbe
00000290: 51a6 0fbe fd0a 83be 39b8 82be f350 10bf
000002a0: 500e e63e f38f dd3d e6b9 99be c0c8 c03e
000002b0: 3a8a 013e 8399 8b3d 8bda ddbe aaac 9f3d
000002c0: 245f e73e 347f a33e 4113 32be ad86 693e
000002d0: 4d6f f4bd 41e9 c4bd ef3a e93d 8276 513e
000002e0: 4ec8 49bf 2159 813f 8f92 24be bd08 043e
000002f0: b74b 0ebf 8576 283e 6214 613e 622a 233e
00000300: d487 d23d b123 b1bd f04d 653f d311 f83e
00000310: c7ba 213f 66a6 383f 79f6 c63f 1ca1 14bb
00000320: 8353 93be 12c9 a73e d25f 00be 13d5 95be
00000330: 9a6a 7e3e d591 76be dfc1 ea3e 11f4 a43d
00000340: 9867 8dbe f60b b53d 5998 23bf d6ee e63e
00000350: 0828 103f d351 0cbd 2277 1a3e 33fc f2bc
00000360: bc76 29be c728 b8be 77fc c8bd 87ba ecbd
00000370: 8794 073d f54d 1fbd cb22 52be 08e9 7e3e
00000380: 15fd c0be 0f20 17bd 18fb 463e 7529 64bd
00000390: 76c1 6e3e 74be 553e f43d 443f f034 20be
000003a0: 2f0a 0c3f 5aac 543e 7332 a4bd 188b 913e
000003b0: d2c4 ad3e ffc0 debe 416c 64bf 09da d3bd
000003c0: c5aa 46bf bc7c 5abe 7266 363e 6b53 5fbf
000003d0: adc0 f73d 5c8f 34bf 5086 f23e 4aaa cb3e
000003e0: 54b5 7b3e 7252 16bf abef 39be 6773 6b3e
000003f0: a3df 513f 9b39 763e 263f 2e3f d73b cb3d
-0.033370934 -0.21976231 0.24990274 0.10082623 -0.27828878 0.11844964 -0.26660234 0.09848189
0.22685067 -0.0756698 -0.1160686 -0.31828696 0.23337364 -0.38509634 0.66192055 -0.52839905
0.1342254 0.40531418 0.062457446 -0.6375188 0.2085865 -0.3655822 -0.055223882 0.3101183
-0.3522473 -0.3170088 -0.46888572 -0.2774404 -0.17027804 0.04572042 0.25113878 -0.11171991
-0.11422653 0.2112632 0.015771141 0.9015619 0.08978105 0.35815293 0.13467002 0.68763125
-0.4483149 -0.0369616 -0.1390144 -0.12668765 0.16928719 0.08212503 0.1010192 -0.5386611
0.2085151 -0.32360417 0.17829812 -0.26763412 -0.37224573 -0.2910682 0.14511432 0.85451406
0.7005985 0.113402925 0.14476079 0.2962584 -0.21023959 0.46929905 -0.34342045 -0.1995445
-0.2659908 -0.18974508 -0.19018881 0.31426913 -0.070584476 -0.41873264 0.82829297 -0.2272201
-0.50308424 -0.0368839 0.6307122 -0.16989088 -0.5741954 0.10858072 -0.2664616 -0.54442775
-0.36927554 0.30444774 0.35902274 0.2809494 -0.32983363 0.3763927 -0.22569539 0.13807724
0.38904205 -0.07462213 0.028094618 0.0746395 -0.08351134 0.27536973 -0.022058027 0.43917364
-0.11557289 0.06306791 -0.106424674 -0.01762219 -0.12043584 -0.53362775 -0.26472536 -0.5795276
0.55834717 0.18758385 0.22200966 0.020733088 -0.41677183 -0.0257053 0.4211664 0.41071546
-0.44463712 0.08445053 0.44880927 0.2818778 -0.80932903 0.51246125 0.19096151 0.32726362
-0.64648163 0.34640202 -0.42258236 0.42761222 -1.232029 0.61614853 -0.1255845 0.36368454
-0.086999446 0.47486442 -0.35101625 -0.09958472 -0.14571683 0.60692275 0.3007026 -0.03178013
-0.5510535 0.026418434 -0.0114979865 0.09567818 -0.32717565 -0.60553 0.11393199 -0.37932462
0.5198365 -0.16078433 -0.042475693 0.47837353 -0.012649705 -0.09066844 0.0029263066 0.199684
0.36092296 -0.78412426 0.14006582 -0.18702331 0.07565309 0.41636172 -0.5801069 -0.43550813
0.031113949 0.057791553 -0.043609254 -0.27437183 -0.14028288 -0.2559432 -0.25531176 -0.5637352
0.44932795 0.10818472 -0.30024642 0.3765316 0.12650385 0.068163894 -0.43330798 0.07796605
0.45189774 0.31932986 -0.17390157 0.22805281 -0.119352914 -0.09614802 0.11388194 0.20455363
-0.78821266 1.0105325 -0.16071533 0.12893958 -0.5558428 0.16451462 0.21980432 0.15934137
0.102798134 -0.08649386 0.8957205 0.484511 0.63175625 0.72128904 1.5543967 -0.0022679036
-0.28774652 0.32770592 -0.12536553 -0.29264125 0.24845353 -0.24079068 0.45851037 0.080543645
-0.27618098 0.08840172 -0.6390434 0.45104092 0.5631108 -0.03425772 0.15084508 -0.029661274
-0.165492 -0.3596861 -0.09813779 -0.11559015 0.03310063 -0.038892705 -0.20521085 0.24893582
-0.37693086 -0.036895808 0.19431722 -0.0557036 0.23315987 0.20873433 0.7665703 -0.15645194
0.5470304 0.20768872 -0.08017435 0.28426433 0.33939224 -0.4350662 -0.8922768 -0.10344321
-0.77604324 -0.21336645 0.17812517 -0.8723666 0.12097297 -0.7053125 0.47368097 0.39778358
0.2458089 -0.5871955 -0.18157832 0.22993241 0.8198187 0.24045412 0.68065107 0.09923523

onnx::Conv_196 f4 [32]
00000000: e041 02bc e42f bc3e d0d5 c1bc f6ee fa3e
00000010: 3807 9fbf fd24 c43e 5a7c 1bbf bcb9 6abe
00000020: cecd a53e 70b4 3a3f 6eff 85be c0a3 7abf
00000030: f723 373f 0510 74bf cddf b0be 32c7 1a3e
00000040: 044c 89be 0a91 563f 379f 25bf 0436 503e
00000050: 50f8 fc3e 8295 3bbe c8ef 52bf 62b3 ebbe
00000060: 32f3 b3bf 645e db3d f1b9 0e3e 4292 c93e
00000070: 562e a2be 00dd bcbb 4262 e03e 7832 06bf
-0.007950276 0.36755288 -0.023661524 0.49010438 -1.2424078 0.3830947 -0.6073662 -0.22922415
0.3238358 0.72931576 -0.2617144 -0.9790611 0.71539253 -0.95336944 -0.34545746 0.1511505
-0.26815808 0.8381506 -0.6469607 0.20333105 0.49408197 -0.18318751 -0.8239713 -0.46035296
-1.4058592 0.10711363 0.13938119 0.39369398 -0.31675977 -0.00576365 0.43824965 -0.5242076

onnx::Conv_198 f4 [32, 1, 3, 3]
00000000: f4a0 40bf 08e1 14bf 592a 0c3f 8a4a c23f
00000010: 4347 dbbf 9b67 aa3f 0eda 483f d2b4 ddbf
00000020: 2c3d 2040 4165 1f3d 0690 55bf 7393 91be
00000030: ecff fcbe cb8e a9bc 2267 4f3d 89b5 5fbf
00000040: fd8a 593e 1421 99be d5cb 33bd 0ea7 b53f
00000050: c35c 1abf c085 053e 9f70 df3e be7c e5bf
00000060: 47e9 22bd e234 8c3f 8e2b 5ebf 3cbf 83bf
00000070: 4cc9 973f 4541 813f f786 78bf e4c3 443e
00000080: ac0e 0b3e 8668 cfbf 9107 453f 2e99 af3f
00000090: 112d d63d 2f0d e33d 4536 83be 51fd ca3e
000000a0: 87d5 cb3e 0228 bb3d c69c 6c3e a5e0 ad3d
000000b0: 3eae 3ebe fbd1 773e 1044 3ebf 406d fdbe
000000c0: 4d10 e0bf 380a 9c3d 4ad2 3c3f 8e77 9dbf
000000d0: 4375 8e3f 198d fc3f 75ad 123e e818 b73e
000000e0: 27a0 5c3e 7042 0f3e 7ca4 2c3f 83f9 3e3e
000000f0: 8dfa babe 2a94 c9be 1ffc 1d3e 2cbf 483e
00000100: 2a5b 2dbe 39b9 37bd e132 ea3d bef0 e13e
00000110: abfd 6dbd 9026 4e3e 8255 be3e 9ab0 2bbf
00000120: cd1c ce3e 0f11 f63c 8103 b63d 369e 7a3f
00000130: 73df f63e 507f 9abe 6cf4 a73e ff47 4bbe
00000140: b50a 3abd 1e99 eebe 1d80 55bf eee9 033e
00000150: 9bff 03bf d69c 85bd 5a63 09be a50e 503e
00000160: afe6 46bd a675 e5bf cb7a ea3d a0de 8d3f
00000170: 35f9 dfbf fe73 483f b63c 5bbf 62b5 073f
00000180: cfca 263f b66f 353f c9eb eebe 510f fb3e
00000190: 787c 493f 9b16 34be ea41 eb3e 2715 883e
000001a0: 2f29 903d 30cb fcbe f24a b7be 82bf efbe
000001b0: 9910 8d3f 5630 80bf 273a b3bf 00a9 8b3f
000001c0: c163 5ebf 565d bd3e 114b a3be 7b54 58bd
000001d0: 5772 0c40 884f 9d3e 0746 6f3c aa5c c2be
000001e0: b960 8abe e576 373f 35a6 02be 7a7b cebe
000001f0: d288 90be 1907 47bf 0041 f3be e789 b2bc
00000200: d410 0c3f b7bf 33bf 00f0 cbbe 3972 a0be
00000210: e9be 123f 962c b23e af8a 143e 1e32 ea3e
00000220: 6a10 ff3d 26b8 b2bd 0079 483e 4bd8 f63d
00000230: 9e12 863e 66bb 99bd 4437 8f3e 8cf3 a43e
00000240: 3ca2 c4bc de69 38bd b027 053f db0f b7be
00000250: 945f 483f e770 bd3e 6f6a 64bf d83a f0be
00000260: 3036 aebe 228c 95bf 743b 52bf fdc4 a33e
00000270: 0003 cd3e 97c4 8e3f 27be 573f e5cf f53e
00000280: 71e8 d33e 2e4c 5c3c 0c06 fdbe b58d 2fbf
00000290: fb93 87be 7b56 b8be f64e 00bf 6eaa b8be
000002a0: 25b7 1abe 1c5a babe 47eb 34bd 7b61 7cbe
000002b0: 60c4 52bf 4e13 d33d 4264 b43d f732 5c3e
000002c0: b818 513f 916c 73bf 8e86 abbe 79b0 b2be
000002d0: 709e afbf 9636 403e 9588 8e3f 4dd7 113f
000002e0: c9d6 b83e 68e6 4540 ef27 e5bd 6cd1 cfbf
000002f0: 6d88 323f aaa7 e7be a95e a4bd 26fe a9be
00000300: 9726 803e 42b7 22be c51f 123e 6f0b 593f
00000310: 7291 533e 2dbe c93e b515 a1be 0d4b 5a3e
00000320: 037b 313f 6b48 1e3f 4084 5bbd 65e2 bf3f
00000330: 6188 f8be 8c78 63bf 5a48 8fbf aaf9 a2be
00000340: c665 babe 472d 75be 5369 acbe aba0 2e3d
00000350: f917 ebbf aaf2 9c3e 67c5 cd3d cfaa 80bf
00000360: b329 c23d f545 8f3e bcb5 cf3d fc6c 37be
00000370: d07d 973d 9f30 433e 8dbb 2a3e 5cdc 53be
00000380: 4933 96be f6ed cd3e 76dd 11bf e5b2 bbbe
00000390: a22a 28bf f4f3 42bf c6d2 98bd 6314 36bf
000003a0: d1f6 043e 61e9 543f 3702 143e 37b8 4e3f
000003b0: bac0 023e 151e 593f c195 8cbf 29ff 243d
000003c0: 4f2e 44bd d01c c73e 03b9 f73d baeb 87bf
000003d0: fc2e 64bf b41b f73e a431 efbf 61f9 3abf
000003e0: b641 a73f b0ca 04bf f682 b63e 4f25 e73f
000003f0: 026b 79bd df17 dfbc bbaa 14bf a551 513e
-0.75245595 -0.5815587 0.5475212 1.5178998 -1.7131122 1.3312868 0.78457725 -1.7320807
2.5037336 0.038914923 -0.8342289 -0.28432807 -0.49414003 -0.020697972 0.050635464 -0.87386376
0.21244426 -0.2990805 -0.04389556 1.4191606 -0.60297793 0.13039303 0.4364061 -1.7928693
-0.03977325 1.0953639 -0.8678521 -1.0292735 1.1858306 1.0098044 -0.9708094 0.19215351
0.13579816 -1.6203773 0.7696467 1.3718622 0.104578145 0.11086499 -0.25627342 0.3964639
0.39811346 0.0913849 0.2310668 0.08490113 -0.18621156 0.24201195 -0.74322605 -0.49497414
-1.7504975 0.076191366 0.73758376 -1.230211 1.1129535 1.973056 0.14323981 0.3576119
0.21545468 0.13990188 0.67438483 0.18649869 -0.3651928 -0.39370853 0.15428208 0.19604176
-0.16929308 -0.044854376 0.11435486 0.44128984 -0.058103245 0.20131898 0.37174612 -0.6706635
0.40256348 0.030037431 0.08887387 0.9789766 0.48217353 -0.30175257 0.32803667 -0.19851683
-0.045420367 -0.46601194 -0.8339861 0.12882206 -0.515619 -0.06524055 -0.13416806 0.20318086
-0.04855984 -1.7926528 0.11449202 1.1083565 -1.7497927 0.7830199 -0.8563951 0.53011143
0.6515321 0.7087358 -0.46664265 0.49035123 0.7870555 -0.17586748 0.45948726 0.26578638
0.07039105 -0.4937377 -0.35799366 -0.46825796 1.102069 -1.0014751 -1.4002122 1.091095
-0.8687096 0.36985272 -0.3189321 -0.05281494 2.1944788 0.3072474 0.014604098 -0.37961322
-0.2702692 0.71665794 -0.12758715 -0.4032858 -0.28229386 -0.77745205 -0.4751053 -0.021794273
0.5471318 -0.7021441 -0.39831543 -0.31337145 0.57322556 0.3479964 0.14506029 0.4574136
0.124543026 -0.0872653 0.19577408 0.12052973 0.2618608 -0.075064465 0.27971852 0.32217062
-0.02400314 -0.045022838 0.52013683 -0.35754284 0.7827084 0.370002 -0.89224905 -0.46919894
-0.34025717 -1.168339 -0.8212197 0.31986228 0.4004135 1.1153744 0.84274524 0.48010173
0.41388276 0.013445897 -0.49418676 -0.685756 -0.26480088 -0.3600348 -0.50120485 -0.36067528
-0.15108927 -0.36396873 -0.04416969 -0.24646561 -0.82330894 0.103064165 0.08808185 0.21503817
0.8167834 -0.95087534 -0.33501095 -0.34900263 -1.3720226 0.18770823 1.1135432 0.5696915
0.36101368 3.092188 -0.11189257 -1.6235785 0.6973942 -0.45245105 -0.080258675 -0.33201712
0.25029442 -0.1589022 0.14269932 0.8478307 0.20660952 0.39402905 -0.31461874 0.21317692
0.69328326 0.6182925 -0.05359292 1.4990965 -0.4854155 -0.88855815 -1.1193955 -0.31831104
-0.36405772 -0.23943053 -0.33674106 0.042633694 -1.8366691 0.30653888 0.10047417 -1.0052127
0.0948061 0.2798306 0.10142085 -0.17912668 0.07397044 0.19061516 0.16673107 -0.20689529
-0.29336002 0.40220612 -0.5697855 -0.36659923 -0.6569005 -0.7615349 -0.07462077 -0.7112486
0.12984778 0.8316861 0.1445397 0.8074984 0.12768832 0.84811527 -1.0983201 0.040282402
-0.047895726 0.3888917 0.12095835 -1.0618813 -0.8913419 0.48263323 -1.8687024 -0.7303677
1.3066928 -0.51871777 0.3564679 1.8058261 -0.060893066 -0.027233062 -0.58073014 0.20441301

onnx::Conv_199 f4 [32]
00000000: 2b1f 07be 4af3 473f b4fa e4bb b648 4abe
00000010: e8cf 01bf 66d5 e6be d077 38be 7981 9dbe
00000020: 4249 92be 9fd6 4c3f 0871 1fbe 9e16 32bd
00000030: fd79 7cbe 05e3 5c3e 2a6a dabd c873 11bf
00000040: 6014 0fbe 186c 34bf 1150 f63e 1a73 ac3e
00000050: 6c69 c43e e811 f6be d84f 413c a7d4 283e
00000060: 0668 213d 0337 e93e c045 c5be 6e8c ea3e
00000070: f081 9b3f fe28 e6be 7293 50be c136 6cbe
-0.13195483 0.78105605 -0.006987894 -0.197543 -0.50707865 -0.45084685 -0.18014455 -0.30762842
-0.28571516 0.80014986 -0.15570462 -0.0434786 -0.2465591 0.21570976 -0.106647804 -0.56817293
-0.13972616 -0.7047744 0.4810796 0.33681566 0.3836168 -0.48060536 0.011798821 0.1648737
0.039405845 0.45549783 -0.38529778 0.45810264 1.2149029 -0.4495315 -0.20368746 -0.23067762

onnx::Conv_201 f4 [16, 32, 1, 1]
00000000: 593d 8b3e 6ca2 12be cead 28be 35e6 9ebd
00000010: c217 613e ec65 5ebe cc92 5c3e 27b6 9ebd
00000020: 0fd8 b9be 8b56 99be d839 42be 6a71 ebbd
00000030: cc17 6dbd b49c 39be 2cdd 44be db2a a13c
00000040: 1e3f 80bd bf13 073d f2b0 d83e 3658 9c3e
00000050: 8138 a03e c728 0bbe cfbd eebd f447 763d
00000060: b363 ddbe 5e9b 1fbe 330a 27be 153d 843d
00000070: ba3e f13e 6247 cc3d b093 283e 9f39 e6bd
00000080: 2674 21bd 764a b1be fc22 8bbe cbb4 38bf
00000090: f5c8 23bd 9bea 843b 2cb9 4c3e b08e 1bbd
000000a0: 4cdb aebd 7d49 09bf 1ab3 c33d c5ef 0f3d
000000b0: b028 b5bc e15f c73d b729 11bc 05a4 0a3d
000000c0: e899 8f3d 9a85 303e 9d2b 063e 4e3f 6abd
000000d0: 7119 53be 06a3 5b3e 5211 753d 5137 87be
000000e0: 6c67 e9be a524 07bd 91ec bbbe 4d25 d63c
000000f0: 9d4e b83d 098a 233e d1d1 8dbd 31eb 87be
00000100: 1515 c43d a10f 8b3d cf91 8abe a66a 87bd
00000110: 596b 7a3d 73a5 64be bd8f 0cbd 5fcb 21be
00000120: c440 5c3e 0f96 b43c 014c a9be 7eaa 533e
00000130: d2b2 d0be cdad 743c 36c7 65be 5014 45be
00000140: a5b5 5b3e 78bc 343d 9b86 7fbd e52d 8b3e
00000150: 59bf a4be 35f4 643e 735f 383e 3d8b d03b
00000160: a1b1 6cbe 3da6 eb39 3c82 b9bc 297f 8bbd
00000170: 7739 0fbe 79bc 58bc 10d1 a5bc ee11 163e
00000180: 2772 09bf 0406 b9be 7509 66bd 8b32 b73d
00000190: dbc9 d63e ed37 dbbd b514 853e 707a dbbe
000001a0: 5377 823e 0229 ef3e 8daf 1a3e 4cf9 adbe
000001b0: ff10 9f3e 991b bcbe 67d6 343d 5ef0 6c3d
000001c0: 25d0 d3be 6df9 3fbe b940 99be 7c00 723e
000001d0: 5421 c7bd ce8b 73be 9fdb 24be f486 353e
000001e0: 745b 57bd d83c bcbe 097c 033f b3f8 09bf
000001f0: 1d45 3e3e d86a d0be e6d5 503d 1503 9c3d
00000200: 0493 833e a92b 6c3d 13fe af3d 9822 0abd
00000210: 2e0c 613e 0ade 08bf 8c94 513e 4e5c 5fbe
00000220: f5cc ba3d 5172 2c3e 0750 8a3e 9187 4fbe
00000230: 9990 283e 9a81 59be 9cac 493e 1f7c bc3e
00000240: c633 213d 6508 823d 0591 0fbf abd9 583e
00000250: bd20 cabe e7db 813e f015 c73e a31d 883e
00000260: a3e6 903d adde 49be fe7c f3bb c6ca 2dbb
00000270: a18c 73be 7f7b e73d 98bf f63e 4bf4 203d
00000280: 397a dc3d c049 8b3e efc9 9fbe 5700 193e
00000290: db05 e33d 50c1 ac3d 747f cdbd 6c3d b9bd
000002a0: 6f21 2abd 5bf4 583e afb5 2a3e 594c 4a3e
000002b0: 9d92 9cbd 0d07 853d 1621 c8bd 4cca 5b3e
000002c0: 7a98 b2b9 510b c03e f044 463e bd25 39be
000002d0: dbd4 843d 8443 553e e349 f3bd 6c1b a6be
000002e0: cac1 4b3e 9264 113e fbde 4dbd 5818 953e
000002f0: 70d4 10bf 7814 f13d 24e2 ae3e b764 a23c
00000300: 301f f43d 87b2 3c3e 30f9 e4bd d710 6cbe
00000310: a445 4cbe e9de 4d3e 4f6e ecbe 5df1 c6bc
00000320: 6433 e8be 42a6 283e b656 c13e 1456 99be
00000330: 0c9b de3c 4332 c43c 4ecc 90be 7aa1 703d
00000340: 323a cfbe 23fb a6be 37db 9a3e ea5d 723e
00000350: 9456 80be c29d cabe 4cc9 9abe 3b55 e03c
00000360: 8bb2 22bc b8f7 023e 4c51 64be 18c2 bf3e
00000370: 0766 c13e ccd4 b33d 3ad4 3ebe 992d 343e
00000380: b3cc 0ebd 7f49 73be 913c 8b3e abe3 0d3e
00000390: 16f6 c5be 7f82 113f 7f39 1d3e 3167 c23d
000003a0: c05b a53e ebb8 5a3e 28cb b23e cbd2 66bd
000003b0: 3815 83be e5ec a33e 26e4 25bf 4dae 593e
000003c0: 8069 d6be 48b4 8dbe 4922 903e 0abd 893e
000003d0: 307a f23e a58c e0bd 2b58 e0bd 7f70 14bf
000003e0: bdf0 f9bc f992 3d3e a597 ab3e 2042 733e
000003f0: e988 303e 0ae9 14bf cc83 21be 99d3 80be
0.27195242 -0.14319772 -0.16472551 -0.07758752 0.21981719 -0.21718568 0.21540374 -0.077495866
-0.36297652 -0.2994884 -0.18967378 -0.114962414 -0.057884023 -0.18126184 -0.19224995 0.019673755
-0.06262039 0.032977816 0.423225 0.3053605 0.3129311 -0.13589774 -0.11657297 0.060127214
-0.43240127 -0.15586612 -0.16312484 0.06456963 0.4711817 0.09974553 0.16462588 -0.11241459
-0.03941741 -0.34627122 -0.27175128 -0.7215087 -0.03998657 0.0040562875 0.19992512 -0.037977874
-0.08537921 -0.5362776 0.09555645 0.03514077 -0.022114128 0.09735084 -0.008860043 0.033847827
0.07011777 0.17238465 0.13102575 -0.05718928 -0.20615174 0.21448907 0.05983097 -0.2640939
-0.45586717 -0.03299393 -0.36703923 0.026140833 0.08999369 0.15970625 -0.06924785 -0.26546624
0.095743336 0.0679009 -0.27064368 -0.066121385 0.06113753 -0.22328739 -0.034316767 -0.15800236
0.21509081 0.02204421 -0.330658 0.20670506 -0.4076143 0.014934015 -0.22439274 -0.1924603
0.2145601 0.04412505 -0.06238423 0.27183452 -0.32177237 0.22358783 0.18005161 0.0063642547
-0.23114635 0.0004494655 -0.022645108 -0.06811363 -0.13986765 -0.013228529 -0.02024129 0.14655277
-0.5368981 -0.36137402 -0.056161363 0.08945187 0.41950879 -0.10704026 0.2599236 -0.4286685
0.25481662 0.46710974 0.1510603 -0.3397926 0.31067654 -0.36739805 0.044149783 0.05784642
-0.4136974 -0.18747492 -0.29932192 0.23632997 -0.09723154 -0.237838 -0.16099404 0.17727262
-0.05257745 -0.3676517 0.5136114 -0.5389511 0.18581052 -0.40706515 0.05098524 0.07617775
0.25698102 0.057658825 0.08593383 -0.033724397 0.21977302 -0.53463805 0.20466822 -0.21812555
0.09121124 0.16840483 0.2701418 -0.20266558 0.1646141 -0.21240845 0.19694752 0.36813447
0.039356016 0.063492574 -0.5608066 0.21176784 -0.39478102 0.25363085 0.38883924 0.2658511
0.070752405 -0.1971385 -0.0074306717 -0.0026518567 -0.23784114 0.11302852 0.4819305 0.039295476
0.107654996 0.27204704 -0.3120875 0.14941536 0.11085101 0.08435309 -0.100340754 -0.090449184
-0.04153579 0.21186964 0.1667087 0.19755687 -0.07645152 0.064954855 -0.09771936 0.21463889
-0.0003406441 0.37508634 0.19362235 -0.18080802 0.064859115 0.20826536 -0.11879327 -0.32442796
0.19898143 0.14198521 -0.05026148 0.29120135 -0.56574154 0.11771482 0.34156907 0.019823415
0.11920011 0.18427478 -0.11180341 -0.23053299 -0.19948441 0.20104565 -0.4617791 -0.024285013
-0.45351708 0.16469672 0.37761468 -0.29948485 0.027173541 0.023949748 -0.28280872 0.058747746
-0.40474087 -0.32613477 0.30245373 0.23668638 -0.25066054 -0.39573485 -0.30231702 0.027384391
-0.009930263 0.1278981 -0.22296637 0.3745277 0.37773153 0.08780822 -0.18635646 0.17595519
-0.034863185 -0.23758505 0.27194646 0.1385638 -0.3866431 0.56839746 0.15353964 0.094923384
0.32296562 0.21359603 0.3492062 -0.05635337 -0.25602126 0.32016674 -0.6480125 0.21257897
-0.41877365 -0.27676606 0.28151157 0.26902038 0.47358847 -0.10964326 -0.10954317 -0.57984155
-0.0305103 0.18513097 0.33514133 0.23755693 0.17239727 -0.5816809 -0.15772933 -0.25161436

onnx::Conv_202 f4 [16]
00000000: 8f45 9fbe da99 3c3f ed0d c43e 6e52 d23e
00000010: 9c18 c23e 1231 00be 64cd 85be d46e dabe
00000020: 62e9 963d 9fdb 2a3f 7ff3 383e 9f72 fc3e
00000030: 646d 343d 98c8 3fbd 798a ac3e 6d0f 8f3e
-0.31107756 0.7367226 0.38291875 0.41078514 0.379094 -0.12518719 -0.26133263 -0.4266268
0.07368733 0.66741365 0.18061636 0.493062 0.044049636 -0.04682216 0.33699396 0.27941456

onnx::Conv_204 f4 [16, 1, 3, 3]
00000000: cb9e 32bf 0e7e b0be 7333 84be 09f6 a43d
00000010: 6f81 4ebf c68c eabf d7ba 82be 871c 0fbf
00000020: 63b9 233f 941f e33e 2459 8b3c 6417 8b3f
00000030: ce08 b43e fc50 3a3f a406 3abe 3676 d13e
00000040: 382b 8a3f aa58 e2bf 823f 18c0 9bb8 563e
00000050: b531 54be 6f00 e33e 134b 45bc c528 e4bf
00000060: c7b8 67be 3fd4 1d3f aeaf 123f e74f d5bd
00000070: c233 1d3f 9348 943d 87eb 413f 2a54 53bf
00000080: cd73 923c 9a70 50be ba8a 38bf d842 f63e
00000090: 78ef 47bf dfac 1e3f 2193 df3e 6cf9 da3d
000000a0: f308 6cbe 7641 36bf 7981 0e3f 0c0a ff3e
000000b0: 7948 b7be b595 173f 02ec 5fbe 7213 94bf
000000c0: 1705 fc3e d545 f4be 8925 8abf 98ed babe
000000d0: d1a0 c73f dd11 82bf 0d07 503c be01 b4be
000000e0: e6ec a43e ad4e 113f ff01 3abf 93d1 44bf
000000f0: dd4e 913f 6899 40be 17e8 afbf 0b5f 58bf
00000100: fa1b 8a3f 032e 893d 5aba d8be c7a4 193d
00000110: fd0a 14bf ae73 ca3e 07c8 acbe d340 9b3f
00000120: f9b0 04be 4f1d d3be 8a6a 923f 46a7 763f
00000130: 3646 8cbf 0b95 8f3f a08b 523f 36ac de3d
00000140: 9060 853e 2e07 103f 021b 3d3e 0c8e 84bd
00000150: e80d 023f 779d e3be 1d9c c53e 3bc7 ed3e
00000160: ea70 193e f7c0 b0bb 2d06 a13f ef2e b2bf
00000170: b951 323f b6ff 763f b01b 0a3f b82c 263e
00000180: 2ee1 0dbf 904e 2b3e d25f b0bf dc1a c73d
00000190: 3e1f ae3e faff 62bf 15aa da3e e4a2 71be
000001a0: a4a7 2d3f f038 00bf 1a46 153e d5e6 793e
000001b0: e389 083e 7e42 423f 0463 163e daf4 8fbf
000001c0: 63e8 363f a67e 1ebd 83b4 3abe caab c9bf
000001d0: 9e9a 30bf d489 4d3f 4a25 1840 c9f0 893c
000001e0: 3811 ee3e 533d ed3f 5ad3 b6bf 95a2 dfbf
000001f0: ce9b 993e cb34 76bf 6d65 3b3f e9e9 783c
00000200: 5c78 193f 117b aa3d af01 fdbe f5c9 41bf
00000210: 47a1 013f 9807 843f 305a a7bd 2130 72be
00000220: 5815 b0bf d0aa b9bf 452a 623f 3e4d b0be
00000230: 5a7f 473e a928 2bbf 822b 97be 2ccc d83f
-0.6977355 -0.34471172 -0.25820503 0.0805474 -0.8066625 -1.8324211 -0.25533172 -0.55902904
0.6395475 0.4436003 0.017010279 1.0866513 0.35162967 0.7277982 -0.18166596 0.409105
1.0794439 -1.7683308 -2.3788762 0.20968859 -0.20722087 0.44336268 -0.012041825 -1.7824942
-0.2262908 0.61651987 0.57299316 -0.10415631 0.614071 0.07240405 0.7575001 -0.825503
0.017877484 -0.20355454 -0.7208668 0.48097873 -0.78099775 0.6198253 0.43666938 0.10692105
-0.23050289 -0.71193635 0.5566631 0.49812353 -0.3579748 0.5921281 -0.21867374 -1.1568434
0.49222633 -0.47709528 -1.0792705 -0.36509395 1.5595952 -1.0161701 0.012696994 -0.3515758
0.3221199 0.56760675 -0.72659296 -0.76882285 1.1352192 -0.1880852 -1.3742703 -0.84520024
1.0789788 0.06698229 -0.42329675 0.03751066 -0.57829267 0.39541382 -0.3374636 1.2129158
-0.12958135 -0.41233298 1.1438763 0.9634899 -1.0958927 1.1217359 0.822443 0.108726904
0.26050234 0.56260955 0.18467334 -0.06472406 0.5080247 -0.44456074 0.38595667 0.46441063
0.1498448 -0.005394097 1.258001 -1.3920573 0.6965595 0.96483934 0.539485 0.16227996
-0.5542172 0.16729188 -1.3779242 0.0972192 0.3400821 -0.8867184 0.42707887 -0.23597294
0.67833924 -0.5008688 0.14577523 0.24404462 0.1333385 0.7588271 0.14686209 -1.1246598
0.71448344 -0.038695 -0.18232922 -1.5755551 -0.6898593 0.80288434 2.377276 0.016838448
0.46497512 1.853434 -1.4283249 -1.7471491 0.30001682 -0.96174306 0.7320164 0.015192487
0.5994928 0.08324254 -0.49415347 -0.75698787 0.50636715 1.0314817 -0.08171499 -0.23651172
-1.3756514 -1.4505253 0.8834575 -0.3443393 0.19482175 -0.6685892 -0.2952538 1.6937308

onnx::Conv_205 f4 [16]
00000000: 0e02 133e 0e27 80be 3ab0 b03e d8ec 863d
00000010: e07d 853e 44d7 903e 0635 5abe 1cf5 cfbe
00000020: 18f4 b2bd e829 cc3d 7057 8bbe 8f1c 9bbe
00000030: 7940 1a3e 4238 90be e05b bcbc 3bac 043e
0.14356253 -0.25029796 0.3450945 0.06588143 0.26072598 0.28289235 -0.2130929 -0.4061669
-0.087379634 0.099689305 -0.27215147 -0.30295226 0.15063657 -0.2816792 -0.022993028 0.12956326

onnx::Conv_207 f4 [16, 1, 3, 3]
00000000: a25d 74be ecd9 69bf b71c 67bf a778 f3bf
00000010: c709 5d3e b31e 323f 74e6 2abd df94 363f
00000020: 17ee afbf 0f79 5fbf 66a0 fabe f13e 53bf
00000030: 352a c0be 48fc ba3d f70c 813e 2a94 a0be
00000040: c2c8 2b3e ff59 76bd ea18 a93c 5174 723f
00000050: c91c 303f 51c9 17bf 8f08 a3bf 64ad 8dbd
00000060: 054c bcbd 8ac1 123f 0c31 09bf eb05 863e
00000070: 5397 ae3e 36d8 19be 05c0 b33d dbfa 793d
00000080: 0dee 793d 2c20 a63e ac88 2fbf 923f 343e
00000090: 4cb0 74bf 4d7f adbe 5c70 19be 7b49 913e
000000a0: 448e 643e d9d2 153e 47cc 073d 7c99 4abe
000000b0: 7727 0fbf 32a5 1d3f 6cc3 39be 768b 813f
000000c0: 5944 133f e80b f8be a324 5f3d 812a 18bf
000000d0: b688 8fbd 98d1 8cbf 1374 503e a1fc 31bf
000000e0: 4067 83be 70ca 493f d8f4 9ebe eea5 6dbf
000000f0: f9d7 763f 95b3 cfbe f052 613d 99e6 2cbf
00000100: d9a8 5f3e 435b a7be dd87 05bf 3ed7 33be
00000110: 8c2f 1a3f 679f e73c 7c6d 88bf 87ad eebe
00000120: ae3d 1bbf 64d2 0bbf 4dfa 76be 48fc e13e
00000130: bda4 033e 6673 23be 0cae c23e f9f7 c43d
00000140: 9656 fcbe 0161 6c3e c5dc 933e 64f1 26bf
00000150: 1c5c b03e 405d 2cbe 442a 96be 7be7 44bf
00000160: 1b4a ef3e c469 383f 48d7 953d 29ae acbd
00000170: 6d3f 163e 9de1 863e efca 933c 02df bbbe
00000180: b6d6 2cbf c1df b1be 6f8f 1dbe 9bb3 81bf
00000190: 1faf 2dbf 5cf7 77bd bec0 e4bd 21fd 543e
000001a0: 6fed a23e ccb2 1dbe 2817 12be 8c32 8ebd
000001b0: be7a 423e 2e9e 6e3f 8ae1 883f 05b0 b4bd
000001c0: c3a1 38bf 4ba7 9ebf 2444 b93d 8285 a53e
000001d0: 69c2 253f e8f4 94be e57b 1bbe 1818 a8be
000001e0: 93ca b2be 8847 d53e 4e18 21bf cc04 59be
000001f0: 08af 3bbd d6e2 94bf 87bd f2be 090c 8abe
00000200: df2b 87be bd94 8c3f a13b 023e 098c e4be
00000210: 1b77 b7be d68c cb3e 0777 da3e da95 8ebe
00000220: a22e ccbe 8934 a8bf 35a0 35be 1607 33bf
00000230: 1f35 653e 1106 a1be 8e17 5e3f 36b0 3c3f
-0.23863843 -0.9134815 -0.9027819 -1.9021195 0.21585761 0.69578093 -0.041723683 0.7132091
-1.3744534 -0.87294096 -0.489505 -0.82517916 -0.375322 0.0913015 0.25205204 -0.3136304
0.16775802 -0.06014442 0.020641763 0.94708735 0.6879392 -0.5929156 -1.2736987 -0.06917837
-0.09194187 0.5732657 -0.53590465 0.2617639 0.34099826 -0.15023884 0.08776859 0.06103025
0.06101804 0.3244642 -0.6856792 0.17602375 -0.9558151 -0.33886185 -0.14984268 0.28376374
0.22319895 0.14631213 0.0331538 -0.19785112 -0.55919594 0.61580193 -0.18140954 1.0120685
0.57526165 -0.48446584 0.0544783 -0.59439856 -0.070084974 -1.1001463 0.20356779 -0.69526106
-0.2566471 0.7882452 -0.31046176 -0.92831314 0.964233 -0.40566698 0.055010736 -0.67539364
0.21841754 -0.32686815 -0.52160436 -0.17562577 0.602288 0.028274251 -1.0658412 -0.46616766
-0.6064099 -0.54617906 -0.2411892 0.44137788 0.12855811 -0.1596199 0.38023412 0.096176095
-0.4928481 0.23083879 0.2887937 -0.6521208 0.34445274 -0.16832447 -0.2932912 -0.7691571
0.46736225 0.72036386 0.07316452 -0.08431656 0.14672633 0.26344004 0.018041102 -0.3669358
-0.6751512 -0.34741023 -0.15386747 -1.0132936 -0.6784534 -0.060538635 -0.11169575 0.20799686
0.31821772 -0.15400237 -0.14266646 -0.06943235 0.18992135 0.93210113 1.0693829 -0.088226356
-0.7212183 -1.2394804 0.090462 0.3232842 0.6474977 -0.290931 -0.15183981 -0.32830882
-0.34920177 0.41656137 -0.6292771 -0.21193236 -0.04582122 -1.1631725 -0.47410223 -0.26962307
-0.26400658 1.0982891 0.12718059 -0.44638088 -0.35833058 0.39755887 0.42668936 -0.27848703
-0.39879328 -1.3141032 -0.17736895 -0.6993269 0.22383545 -0.3144994 0.8675469 0.73706377

onnx::Conv_208 f4 [16]
00000000: 480c 6f3e daa5 d23e 0076 5e3e d25c 27be
00000010: 801b b23e ec00 d53d 9275 233e 2006 f13e
00000020: 0000 13b9 807e b5bd cc4a d13d f0f1 a13e
00000030: b2e5 533e 8a13 113f 5a3a b6be c16f d13e
0.23344529 0.4114216 0.21724701 -0.16344002 0.34786606 0.104005665 0.15962818 0.47074986
-0.00014019012 -0.088620186 0.102193445 0.31629896 0.2069309 0.5667044 -0.35591394 0.40905574
